model_folder/best_model_16-04-2025-10-34.pth (torch, 909142 bytes, 87 tensors)

conv1_1.weight f4 [16, 1, 3, 3]
000000 74 5e 77 bd a1 47 ea bd 65 16 79 be 22 e8 4d 3e
       -0.060392812 -0.114394434 -0.24324949 0.20108083
000010 3e ee b9 3e fe 72 3a bd f7 ec 3e be 47 96 6a 3d
       0.36314577 -0.04551982 -0.18645082 0.057272222
000020 b8 3f 74 be 96 d2 92 be 70 29 8f bd 99 61 46 3e
       -0.23852432 -0.2867629 -0.069903255 0.19373168
000030 10 79 e8 be 73 02 4e bc de 00 3b be b1 c6 8a be
       -0.45404863 -0.012573826 -0.1826205 -0.27104715
000040 ea 30 8d 3d 36 14 9a 3d 13 19 4b bd 34 86 74 3e
       0.06894095 0.07523386 -0.04958446 0.2387932
000050 49 c6 3d 3e c9 c9 0f 3e 63 4c 52 bd 5e e9 c4 bd
       0.18532671 0.14041819 -0.05134238 -0.09614824
000060 fa 80 23 3e 41 43 93 be c4 26 a1 3d 78 a5 6b 3e
       0.1596717 -0.28762248 0.07868722 0.2301234
000070 ac f0 a3 bd d0 b5 d3 3c cf 21 4c be 4f 00 7e be
       -0.08004889 0.02584353 -0.19934772 -0.24804805
000080 f5 21 aa 3c 07 f4 07 3e e1 14 fd bc b3 68 16 3e
       0.020768145 0.13276683 -0.030893745 0.14688377
000090 bd dc 76 be 77 7e 46 be be bf 6a 3e d0 93 a8 be
       -0.24107642 -0.1938418 0.22924706 -0.32925272
0000a0 f0 0c 5b bb fb 79 4c 3e fc 15 bd 3e 4c ee 2a 3e
       -0.003342446 0.19968407 0.36930835 0.16692466
0000b0 2a 8e 80 be 93 60 65 3c 66 2f 15 be eb 16 39 be
       -0.25108463 0.014000076 -0.14568862 -0.18075149
0000c0 6f ce 73 3e 40 3e 07 be 1b 77 a2 be ea 81 6d be
       0.23809217 -0.1320734 -0.31731495 -0.2319409
0000d0 3d b9 6d 3e af 65 1c 3d 06 84 af 3e a7 4f bb 3d
       0.23215194 0.03818291 0.34280413 0.09146052
0000e0 66 6b 8e be f0 80 c2 3c fd 27 88 3e cc d9 49 3e
       -0.27816314 0.023743123 0.2659301 0.19711989
0000f0 0a 37 78 3c fd 84 a1 be 21 b1 72 be 03 1c 78 3e
       0.015149841 -0.31546775 -0.23700382 0.24229436
000100 60 42 4f be 47 0d 6a 3d 95 0a 8c bd 13 f6 d3 3d
       -0.20240164 0.05714157 -0.06837956 0.10349669
000110 02 9b 73 bc 06 5c 89 be ac d6 ea bd 61 7e 97 3e
       -0.0148685 -0.2682802 -0.11466727 0.29588607
000120 87 b7 8f 3c ea 2b 3e 3e 97 14 29 be 7a 69 80 3e
       0.017543567 0.1857144 -0.1651176 0.25080472
000130 0b 7e 78 bd 54 2a 07 be 70 5c a2 3d a7 b2 d9 bd
       -0.06066708 -0.1319974 0.07927787 -0.10629778
000140 43 3f 32 be 8b 42 75 bc a8 43 e8 bc f2 36 4a be
       -0.17406945 -0.014969478 -0.028352574 -0.19747522
000150 67 b5 01 3e 5d 4b a8 be c6 76 58 3e 17 af 9e 3e
       0.12666856 -0.32869998 0.21139058 0.30992958
000160 17 f2 48 3d ff ff 54 bd a0 16 9b be d5 15 d9 3d
       0.049059 -0.05200195 -0.302907 0.10599867
000170 6e e2 73 3e 19 84 4e 3e 5b aa 5a be 6b e8 36 ba
       0.23816845 0.20167579 -0.21354048 -0.0006977382
000180 b7 36 cd 3e 5c 67 87 3d fe cd 1e be 6c 24 a8 be
       0.40080807 0.06611511 -0.15508267 -0.32840288
000190 8e f2 f6 3d 53 df d5 3d 71 20 99 3e 7c da 31 be
       0.120579824 0.10442986 0.29907563 -0.17368501
0001a0 aa ac 1e 3e 77 6a f6 bd a3 63 e6 bd a0 5a 1d 3e
       0.15495554 -0.12032025 -0.11249473 0.15366602
0001b0 fa 7f 87 be 96 e8 91 3e 71 3c 56 3e 4c a1 34 be
       -0.26464826 0.2849776 0.20921494 -0.17639655
0001c0 19 f0 3a 3e 8d dc 7c bd 0f 76 df 3d 8b 0d 12 bd
       0.18255652 -0.06173377 0.1091119 -0.035657447
0001d0 11 6e 9f be 6a 95 36 3d ee ab 75 3e 3d 5b 23 3d
       -0.31138662 0.044576086 0.23991367 0.039881933
0001e0 37 8b 02 be 03 28 27 3d 02 70 aa 3d 51 60 16 3b
       -0.12748419 0.040809643 0.08322145 0.0022945593
0001f0 b9 42 4f be 27 92 23 be 07 8d 3d bd e9 7e 1e 3e
       -0.20240296 -0.15973721 -0.046277072 0.154781
000200 a0 3a 05 3f b2 93 b5 3b f9 38 8c 3d db b6 ab 3d
       0.5204258 0.0055412883 0.06846804 0.08384486
000210 84 0e 06 be af ae 13 be 7b ff 19 3e 3f 42 7d 3e
       -0.13091475 -0.14422105 0.15038864 0.24732302
000220 12 a6 e1 3d 1c 93 67 be b7 1b 3c 3e a9 39 8a be
       0.110180035 -0.22614712 0.18369947 -0.26997116
000230 31 4c 15 3e cc cb 6c 3d f9 36 f0 3d 45 e5 b4 be
       0.14579846 0.057811543 0.11729235 -0.3533117

conv1_1.bias f4 [16]
000000 bc d4 00 be 04 b5 fa 3d 62 2b 80 3e a5 17 8c bd
       -0.12581152 0.12241557 0.25033098 -0.06840447
000010 b1 4d a1 3e aa 75 8d bd 3a 7f 7b be fb c6 f6 bd
       0.31504586 -0.06907208 -0.24560252 -0.12049671
000020 4e ad 5a 3d 1c 65 ed bd 3a ca 4b 3e 13 b4 0c be
       0.053387932 -0.11591551 0.19901362 -0.13740568
000030 84 32 be bd b9 2a aa be aa 39 8b 3e cd 5d 98 bd
       -0.09286979 -0.3323572 0.27192432 -0.07439766

bn1_1.weight f4 [16]
000000 6b 45 82 3f 80 44 7d 3f 51 08 62 3f 03 db 9a 3f
       1.0177435 0.9893265 0.8829394 1.2098087
000010 67 6b 87 3f 51 03 81 3f 5b 3e 7f 3f a0 c8 90 3f
       1.0579652 1.0079137 0.9970452 1.1311226
000020 d5 80 84 3f 93 9d 8a 3f ba e6 56 3f f4 73 6b 3f
       1.0351816 1.0829338 0.8394581 0.91973805
000030 7a 36 65 3f 3f 10 6c 3f e2 ac 60 3f 9d 37 71 3f
       0.8953625 0.9221229 0.877638 0.94225484

bn1_1.bias f4 [16]
000000 21 9b 57 3d a3 a0 b1 bb f7 b6 c1 bc 42 a8 9d 3e
       0.052638177 -0.0054207607 -0.023646815 0.30792433
000010 2f ea 04 3d 4f 90 e5 3c 57 35 44 3e 22 28 19 3e
       0.032449897 0.028022913 0.19160973 0.14956716
000020 5e 5f 17 3e 6c 64 6d 3e 9a 09 a3 bd 68 b7 ee bc
       0.14782473 0.23182839 -0.07960816 -0.02914019
000030 b5 88 2c bd 22 b5 96 3d 22 85 95 bc ed 6d 90 bb
       -0.04212256 0.07358767 -0.01825196 -0.0044076354

bn1_1.running_mean f4 [16]
000000 98 f2 80 be 5c b0 a7 be 6b f1 cd 3e 41 d8 90 bd
       -0.25185084 -0.3275174 0.4022325 -0.07072497
000010 60 14 94 3e fb 52 9a be 72 ce 46 be 8b ed d9 bd
       0.28921795 -0.30141434 -0.1941469 -0.10641011
000020 a3 91 63 3b 67 c3 a4 bd 12 27 b9 3e 5a 56 b9 bd
       0.0034724257 -0.080450825 0.3616262 -0.090496734
000030 d6 4e fb bd c5 9c b3 be 29 b8 16 3f 32 dd 8b bd
       -0.12270896 -0.35080543 0.58874756 -0.06829299

bn1_1.running_var f4 [16]
000000 13 43 ca 3a cc bf 64 3c e2 de d9 3a cb f8 2c 39
       0.0015431367 0.013961744 0.001662221 0.00016495881
000010 94 0d f5 39 21 3a 76 3b 11 9a 9c 3a 12 11 95 39
       0.00046740158 0.0037571269 0.0011947771 0.00028432213
000020 58 f7 6e 3a bd fd 26 3a 2b 5f f0 3a ad c8 04 3a
       0.00091158366 0.00063702074 0.0018338909 0.00050653034
000030 e7 5b e0 39 ff 24 f3 39 20 8c fd 3b 16 eb 7a 3a
       0.00042793082 0.00046376136 0.0077376515 0.00095717737

conv1_2.weight f4 [16, 16, 3, 3]
000000 cd 2c 6a bd da 3e 14 3b ec 9d b6 bc a7 11 21 3c
       -0.05717163 0.002262047 -0.0222921 0.009830869
000010 8d dc 00 bd 0d ee ce 3b 13 b1 25 bc ff 26 b2 bc
       -0.031460334 0.006314999 -0.010113019 -0.02174711
000020 95 81 48 bd 42 52 d5 3c 32 e1 cb 3d 19 e1 81 3c
       -0.048951704 0.0260402 0.09955062 0.015854405
000030 3d 7f 90 3d d5 fe a9 3d a1 2c 1a bd d6 78 35 bb
       0.07055519 0.083005585 -0.037640218 -0.0027690432
000040 e6 64 dd bc 9a 85 20 3d 92 d2 2a 3b 2a ca 2b 3d
       -0.027025651 0.039189912 0.002606545 0.041940846
000050 d1 49 ca 3c bf e4 3e bd 5e 30 88 bd 50 29 ce bd
       0.024693402 -0.046604868 -0.0664985 -0.100664735
000060 a2 be 31 bd 12 52 8e 3c 8f 92 db bb fb b4 86 3d
       -0.043394692 0.017373119 -0.0067008208 0.06577488
000070 08 62 14 be 4c 87 2e bd 9e 76 9f bc 25 09 f4 ba
       -0.14490521 -0.042609498 -0.01946574 -0.0018618448
000080 54 2b 02 bc b5 07 14 bd 4b 2e 9f 3d dd 19 9a bd
       -0.007944901 -0.036140162 0.077725016 -0.07524464
000090 53 30 82 bc 79 38 5c bd 2c 12 fc 3c 2b bc 5c 3b
       -0.015892183 -0.053764794 0.030770384 0.0033681493
0000a0 12 55 84 bd ed 60 38 bd d9 47 38 3d bf 15 1d bd
       -0.064615384 -0.04501431 0.044990394 -0.038350817
0000b0 af e4 75 3d 86 d9 98 bc f9 15 df 3d c2 f0 44 bd
       0.060032543 -0.01865841 0.10892863 -0.048081167
0000c0 6b 95 a5 bc c7 17 92 3d a3 f9 32 bd 31 ea b7 3d
       -0.02021285 0.071334414 -0.043695103 0.08980215
0000d0 77 91 6e 3d 11 b5 1a 3d 10 94 90 bd e8 dd 27 bc
       0.058244195 0.037770335 -0.07059491 -0.010245778
0000e0 d5 f1 e5 bd 4c 99 60 3d 47 e1 33 bd 2e 91 c8 bb
       -0.112277664 0.054833695 -0.043916013 -0.0061208224
0000f0 de 61 6e 3c b0 68 23 bd a0 12 eb bd 64 41 41 bd
       0.014549701 -0.03989476 -0.11478162 -0.047181502
000100 dc 62 7a bc 37 8f e3 3d fa 61 e7 bc 66 4a 97 3c
       -0.015282359 0.111113004 -0.028244961 0.018468093
000110 a8 fb 47 bb 5f ca a7 bc 0e d2 6d bc a8 4e 78 bd
       -0.003051499 -0.02048224 -0.014515413 -0.060621887
000120 dc e1 44 3d 6c c1 53 bd 6e 74 22 3d da 5c 5e 3b
       0.04806696 -0.051698133 0.039661817 0.0033929856
000130 c3 8b 5a 3d 3e 6c 07 3d 9b 34 ba 3b fc 94 6c 3d
       0.053355943 0.033062212 0.0056825406 0.05775927
000140 95 48 a0 bd bb b6 b6 bb b4 ba a5 3d 43 76 4c 3d
       -0.07826344 -0.0055759824 0.080922514 0.04991747
000150 d6 59 f1 3d 65 eb 09 bd 91 63 e3 3d f3 ad 1e 3e
       0.11784713 -0.033671755 0.11102975 0.15496044
000160 d1 21 1e 3e c9 8b ed 3d 18 bb ea bc 4d 45 6b 3d
       0.15442587 0.115989275 -0.028653666 0.057439137
000170 05 fa 9b 3d 7a 85 19 bd 9c af 10 bd 74 d2 45 3d
       0.07616047 -0.03748081 -0.035323724 0.048296407
000180 ea d7 89 3d 0c cb 43 3d 78 6d 82 3d f3 70 df bd
       0.067306355 0.047801062 0.06368536 -0.10910215
000190 48 53 11 bd 49 8f 0d b9 e6 d1 83 3b ad 78 ac ba
       -0.035479814 -0.00013500186 0.0040228246 -0.0013158523
0001a0 e9 bf af bd 77 1d 04 bc b0 b1 18 bd ef 74 a8 bd
       -0.08581526 -0.008063666 -0.03727883 -0.08225428
0001b0 b0 a1 df 3d b1 b2 aa bc 3a 60 14 3d 96 b0 b3 3a
       0.10919511 -0.02083716 0.03622458 0.0013709243
0001c0 2e 70 53 bd 59 d5 8d bd ff fe a2 3d 21 2c a2 bd
       -0.051620655 -0.069254585 0.07958793 -0.07918573
0001d0 a0 aa 9b bc a8 8b ba 3d 77 1d ef 3d d0 4f 33 bd
       -0.019002259 0.091086686 0.11675542 -0.043777287
0001e0 f7 47 94 bc 33 a1 75 bd b0 db 6e bd c1 0c 85 bc
       -0.018100722 -0.059968185 -0.05831498 -0.016241433
0001f0 e9 32 cd bc 3d 6f c5 bc 7f 5a 2c 3d aa 8d 36 bd
       -0.02504869 -0.024100894 0.04207849 -0.044568695
000200 37 8a 26 3c 22 43 4b 3d b9 dd 04 bc fa 73 6c 3c
       0.010164789 0.04962457 -0.008109503 0.014431948
000210 c3 af 42 bd 0b fd 6d bc 4f 7d f5 3b 4b 20 a6 bd
       -0.0475309 -0.014525662 0.0074917446 -0.08111628
000220 5e da 23 3d 8e d3 94 bb 3a 60 d0 bc 33 d7 f1 bc
       0.040003173 -0.004541821 -0.02543651 -0.02952156
000230 e0 4c 40 bd a3 48 50 3d 47 3e 0f bd 39 7e c3 3c
       -0.046948314 0.05085052 -0.0349715 0.023863899
000240 6f fa df bd 1e d0 6a bd 0d e6 91 bd fb fd 8b bb
       -0.10936438 -0.057327382 -0.07123957 -0.00427222
000250 d5 81 3d 3c 78 4d f6 bc a2 0b 04 3e d0 56 ca bc
       0.011566599 -0.030066237 0.12895063 -0.024699599
000260 b0 2e bf 3d fb a0 33 bd 7b 2a 8c bc 32 13 b2 bd
       0.09335077 -0.043854695 -0.0171101 -0.086950675
000270 2d b7 8d bd 9a 91 a0 bd 8f c4 e2 3c d3 bf 84 bd
       -0.06919704 -0.07840271 0.027681617 -0.064819
000280 2a ed 0f 3d 89 31 1b bd 31 32 eb ba 4f 15 c2 3c
       0.035138287 -0.037889037 -0.0017944035 0.023691801
000290 59 71 d3 3d 37 8c 30 bd 72 e8 49 3c 40 68 5b 3b
       0.10324354 -0.04310247 0.012323486 0.0033478886
0002a0 96 d1 10 3d b4 60 b4 3c 4f 92 0b 3c 48 62 00 3e
       0.035356127 0.022018768 0.008518769 0.12537491
0002b0 34 d8 cb bb 7d ba c4 3c 5d c7 e3 3d 3f 4a ad bd
       -0.006220842 0.024014706 0.1112201 -0.08461427
0002c0 5a 07 6a bd e1 a5 3d bd e9 d0 f5 ba d5 d9 d6 bd
       -0.057135917 -0.046300773 -0.0018754277 -0.10490767
0002d0 6c fa 01 be 22 03 79 bd 17 fd bf bd 3b 5f 8e bc
       -0.12693185 -0.060794003 -0.09374445 -0.017379394
0002e0 01 ab 21 bd 5a 00 d7 bc 65 47 92 bd ca 4c 66 bd
       -0.039469723 -0.026245285 -0.07142524 -0.056225576
0002f0 72 51 96 bc 92 79 72 bc c7 3d 6e bb ce ed fa 3b
       -0.018349383 -0.014799492 -0.003635274 0.007657743
000300 76 84 5d bd b8 6e 1e 3d 26 62 1f bc ed a7 27 bd
       -0.054081403 0.03867981 -0.00972799 -0.04093163
000310 44 18 03 bd 8f 4e 10 3d 47 e1 51 3d 65 00 53 bb
       -0.032005563 0.03523117 0.05124023 -0.003219628
000320 8b 29 98 bc 61 55 56 3d ca 22 8d bc 81 53 00 be
       -0.018574497 0.052327517 -0.017228503 -0.12531854
000330 81 e3 e1 3c 5e 0d 22 bc e8 c7 9b bc 42 a3 04 bd
       0.027574303 -0.009890882 -0.019016221 -0.032382257
000340 d4 98 68 bd 17 dd c0 3d d1 8d b6 bd 8f 4a 80 3d
       -0.056786373 0.094171695 -0.08913768 0.06264221
000350 f1 f5 98 bd 17 b6 e0 bb ed 56 81 bc 76 72 ef bc
       -0.074687846 -0.0068576443 -0.01578852 -0.029229384
000360 7e 0d 00 3d 24 42 ed 3c f3 71 67 bd f2 d2 6d bc
       0.031262867 0.028962202 -0.056505155 -0.014515625
000370 f3 98 42 3d 8b a6 ca bc 09 7b c6 3d c5 62 8d 3d
       0.047509145 -0.024737617 0.09691436 0.069036044
000380 b9 61 02 bd b4 51 90 bd f7 60 2c bd c2 62 cd bd
       -0.031831477 -0.07046834 -0.04208466 -0.10028602
000390 58 31 77 bd 74 bf 20 bd 25 3e f4 bc bc d9 a1 3d
       -0.060349792 -0.039245084 -0.02981479 0.07902858
0003a0 8a 16 2e 3d cb f3 88 3d de 57 d7 3c 47 6e 55 bd
       0.042501964 0.06687125 0.026287016 -0.05210712
0003b0 4a 7c 78 3d d6 49 26 bc 4f dd 0f bd 80 20 63 3d
       0.060665406 -0.01014944 -0.035123166 0.055450916
0003c0 a1 3a b8 bc 57 84 98 3c 08 7d 98 bd c2 52 2d 3d
       -0.022488894 0.018617792 -0.07445723 0.042315252
0003d0 7b 2d 3d 3d b1 3c 34 bd 29 5e 0e 3d 44 c8 9c 3b
       0.04618595 -0.044003192 0.034757767 0.0047846157
0003e0 c8 5d 16 bd a5 49 ad 3d c1 4f 10 3d 8d 8a b0 3c
       -0.03671053 0.08461312 0.03523231 0.021550441
0003f0 7e a4 90 bd d7 2f 02 bd 9c 3a 2b bd 49 33 16 bd
       -0.070626244 -0.031783905 -0.04180394 -0.036670003

conv1_2.bias f4 [16]
000000 23 1d 73 bd 63 1e 74 bd 87 18 13 bd 15 6b 62 bd
       -0.05935396 -0.05959929 -0.035912063 -0.055277903
000010 c8 64 8f bd 33 83 a4 bc df ee 63 bc 13 91 1c 3d
       -0.070016444 -0.020082092 -0.013911932 0.03822429
000020 7c 28 3b 3d 4e 22 5c ba 6c df 7c bc de 50 85 bc
       0.045692906 -0.0008397446 -0.015434127 -0.016273912
000030 a3 9f 89 bd 2c ef 79 3d 63 61 97 3d 82 7c 9c bd
       -0.067199014 0.061019108 0.07391622 -0.076409355

bn1_2.weight f4 [16]
000000 53 0f 8e 3f 0b 82 90 3f a2 06 79 3f db 92 8a 3f
       1.1098427 1.1289686 0.97275746 1.0826067
000010 96 0a 96 3f 29 f0 92 3f 8e a7 81 3f 24 c9 8c 3f
       1.172198 1.1479541 1.0129259 1.0998883
000020 c2 62 88 3f 54 d9 93 3f 98 0a 8f 3f 6c d4 8c 3f
       1.0655138 1.1550698 1.1175108 1.1002326
000030 5d a5 81 3f 1b 26 7c 3f 8c 27 7f 3f d0 a8 8a 3f
       1.012859 0.98495644 0.9966972 1.0832767

bn1_2.bias f4 [16]
000000 3d c8 94 3d 0a 88 fc 3d c2 66 10 bd b5 97 94 3e
       0.07264755 0.12330635 -0.035254247 0.29021993
000010 2c da 58 3e 9a 69 41 3e 53 c4 03 3d 98 a6 b7 3e
       0.21176976 0.1888794 0.03216965 0.35869288
000020 e2 2d 18 3e 90 1a d5 3e 19 54 11 3d 9c bd 5a 3e
       0.14861253 0.41621828 0.035480592 0.21361393
000030 3d 06 99 bd da 36 60 bd 9c ea ed 3c 3f 6a 98 3d
       -0.07471893 -0.05473981 0.029042535 0.0744214

bn1_2.running_mean f4 [16]
000000 a5 e7 8c 3d f6 14 ed be 6f 5c 87 bf 01 e2 b8 be
       0.0688012 -0.46305054 -1.0575083 -0.36109927
000010 3a f9 ac 3d 8d c4 49 bf 61 0c 20 3e 49 c3 85 be
       0.08445974 -0.7881554 0.15629722 -0.26125553
000020 5f 33 0d bf f4 f0 9e be 20 53 3e bd 3e 83 33 bf
       -0.5515651 -0.31043208 -0.046465993 -0.70122135
000030 87 60 49 bd 04 ec b9 3d c5 2c 00 3e 41 24 0a bd
       -0.04916432 0.090782195 0.12517078 -0.03372598

bn1_2.running_var f4 [16]
000000 1a f1 8b 3e 79 3d 99 3e 18 08 aa 3e 35 93 53 3e
       0.27332383 0.29929712 0.332093 0.20661624
000010 d3 35 cc 3d ea 3e 08 3e e4 ad 97 3d 1d f2 2d 3e
       0.09971204 0.1330525 0.07406214 0.1698689
000020 34 2d 61 3e b2 74 54 3e c3 c6 8f 3d ba fd 19 3e
       0.219899 0.2074764 0.07020333 0.15038195
000030 99 bb 2e 3e 78 f8 51 3e d2 f3 2c 3e dd 2d 26 3e
       0.1706375 0.2050494 0.16889885 0.16228433

conv2_1.weight f4 [32, 16, 3, 3]
000000 74 01 99 bd bc 40 9b bd 14 0d b2 3c 80 90 9d b9
       -0.0747098 -0.075807065 0.021734752 -0.00030053034
000010 40 7b 91 bd 4e d7 2b 3d 30 a9 06 3d 52 8d e8 bc
       -0.07103586 0.041953377 0.032876194 -0.0283877
000020 89 57 8e bd cc de 8b 3b c2 37 8b 3d 22 1e 39 bd
       -0.0695029 0.004268503 0.06797744 -0.045194753
000030 d4 41 b4 bd e2 8c 86 3d 99 eb 60 3c b6 c2 b2 bd
       -0.08801618 0.0656984 0.013728046 -0.087285444
000040 da c2 99 3d e4 27 cb bd cb 3d 11 bd c5 33 55 3d
       0.07507868 -0.09919718 -0.03545932 0.052051324
000050 cf e8 43 bd 54 1d 80 bd 43 2f 88 bd 5b 67 49 bd
       -0.047829445 -0.06255594 -0.066496395 -0.049170833
000060 d9 52 0b 3d e2 42 fc 3c a5 05 bc bd 03 02 98 bd
       0.034014557 0.030793611 -0.09180764 -0.07422259
000070 d1 b7 b5 3c 29 1b 35 bd db 62 42 bd b9 74 a3 bd
       0.022182377 -0.044215355 -0.047457557 -0.079812475
000080 0c 71 a8 3c 9a ae 63 3d ec 23 5c 3d a5 4e e3 3c
       0.020561717 0.055586435 0.053745195 0.027747462
000090 f3 60 d5 bd c0 ce 5d bd a9 20 c3 ba 3b 33 85 bd
       -0.10418882 -0.05415225 -0.0014887053 -0.06503912
0000a0 87 ff e8 3c 34 d0 7b 3c f3 08 3c 3d 5c 96 ea 3d
       0.028442157 0.015369464 0.045906972 0.1145446
0000b0 88 e0 f7 3d 50 f4 be bd 40 a4 08 3d a3 36 32 bd
       0.12103373 -0.09323943 0.033359766 -0.043509137
0000c0 6e 2a 87 bd cd aa 55 bd f3 61 74 3d 15 8b 43 bd
       -0.0659989 -0.05216484 0.059663724 -0.04774006
0000d0 dd da 3b 3d f0 c2 53 bd ca 74 ec 3c 59 f4 df 3c
       0.04586302 -0.05169958 0.028864283 0.027338194
0000e0 fd 56 d1 bc 86 de ab ba 04 29 eb 3c 3d b1 02 bd
       -0.025554175 -0.0013112582 0.028706081 -0.03190731
0000f0 03 42 8d bd d5 6f c5 bd 11 22 88 bd 5a ab 54 bd
       -0.06897356 -0.09640471 -0.06647123 -0.051921226
000100 4b 30 3c bc f5 8a ad bb 31 aa 4e bd 98 3c cc bc
       -0.011486123 -0.005296106 -0.050455276 -0.024931237
000110 91 ab 9a 3c cd 0f 17 3d 9f 58 08 bd 96 5c 62 bc
       0.018880637 0.036880303 -0.03328764 -0.0138160195
000120 29 f6 9d bc 11 e1 2e bd 1d 11 34 3d 50 da 17 3d
       -0.019282417 -0.04269511 0.043961633 0.037073433
000130 9c d6 41 bc 3c 42 b7 bd e6 3a 0e 3c 7c 7c 42 3d
       -0.011830952 -0.0894818 0.008681035 0.047482
000140 db 34 f4 bc a6 7f 3d 3d 6b f4 a6 bd a1 5d f0 bd
       -0.02981036 0.046264313 -0.08152088 -0.11736608
000150 ec ff 7f bb ce 4d bb bc 31 5b d9 3c 98 48 bc 3d
       -0.0039062453 -0.022864249 0.026532741 0.09193534
000160 41 6c 62 3d dd e4 85 3c 4c 0e a3 bd 0d 23 40 bd
       0.05527902 0.016344482 -0.07961711 -0.046908427
000170 d2 73 8b bc 41 57 0e bb eb 2d 78 3d b2 47 8d 3d
       -0.017023 -0.0021719488 0.060590666 0.068984404
000180 d3 4a 36 bd 29 07 29 be 95 0a 0f bc 83 c8 a0 3c
       -0.04450495 -0.16506638 -0.00873055 0.019626861
000190 6d e8 be bd 30 a8 56 bd eb 75 bb 3c 81 c0 b2 bd
       -0.093216754 -0.05240649 0.022883376 -0.087281235
0001a0 1e 88 d8 bb cc d1 e0 3d ed 6e 9b 3d 1d 0d 88 3c
       -0.0066080233 0.109775156 0.07589517 0.016607815
0001b0 dc 83 a2 3d 42 86 81 3d 86 33 92 bd 6a de 0a 3d
       0.079353064 0.06324436 -0.071387336 0.033903517
0001c0 f8 a2 05 bd c4 fa 7e bd 1c 92 34 bd f7 e4 c1 bd
       -0.032626122 -0.062250867 -0.044084653 -0.094675
0001d0 46 5a 1c be 17 5c 99 bd a4 29 87 bd 23 cf 74 3a
       -0.15268812 -0.07488268 -0.06599739 0.0009338727
0001e0 38 52 82 3c 14 03 a4 3c 7d c6 0e bb 7e 88 80 3d
       0.015908346 0.020020999 -0.0021785789 0.06276034
0001f0 5d 86 80 bd 3e d5 54 bd f4 22 c5 3d 09 25 32 bd
       -0.06275628 -0.051961176 0.096258074 -0.04349235
000200 61 83 fc 3d bf 52 34 bc 8a f3 5f bd 19 e2 8b 3d
       0.12329746 -0.011006056 -0.054675616 0.06830234
000210 30 2f 93 bb cc 79 0f 3d a3 6c 01 3d 02 da bb bd
       -0.004491709 0.035028264 0.031597745 -0.09172441
000220 20 75 1c 3d 8f 29 91 ba ad 51 00 bd 99 db fc 3c
       0.038197637 -0.0011075007 -0.031327892 0.030866431
000230 6c 92 51 bd 20 ab e2 bc ae 03 06 3e 59 e2 be bc
       -0.05116503 -0.02766949 0.13087341 -0.02330129
000240 0c d1 1b bd 9f c6 06 3d f9 7f 3b bd 51 6c 74 bd
       -0.03804116 0.032904264 -0.04577634 -0.05967361
000250 da 13 4c bc 59 23 71 3d 3f d8 4a bd 7f 53 69 3d
       -0.012455905 0.0588716 -0.049522635 0.056964394
000260 a6 90 d0 bd 61 c2 04 3d 26 89 9c 3d 43 f7 8a 3d
       -0.101838395 0.032411937 0.076433465 0.06785443
000270 99 e2 2b bd 2b 93 33 bd 19 d4 a3 3d 6f c0 6f bd
       -0.041964147 -0.043841522 0.07999439 -0.05853313
000280 00 5d c0 bd 1e 5c 9c 3d ec 0d c4 3c 01 dd c0 3b
       -0.09392738 0.076347575 0.02393242 0.0058857207
000290 f8 5f af 3d 64 0c 34 3d 9e 69 16 3d 6c 66 3f 3c
       0.085632265 0.04395713 0.03672182 0.011682134
0002a0 5d 5a 9f bc ed 07 72 3b 18 02 2f 3d 2a 42 e7 bb
       -0.019452268 0.0036930994 0.042726606 -0.007057448
0002b0 9f 52 2e 3c 8d 01 8a 3d 1d 54 83 3d ac 93 e3 bc
       0.010639816 0.06738577 0.06412528 -0.027780376
0002c0 d6 c2 ce 3c 71 d9 c8 bc 03 98 9f 3d 77 16 c0 3d
       0.02523939 -0.024517747 0.07792666 0.09379285
0002d0 f2 76 86 bd 3d 8f 71 bd d5 fa 43 bd fd 1e 20 3d
       -0.06565656 -0.058974493 -0.047846634 0.039092053
0002e0 07 4f 2c bd 6c dd 08 3d 15 bc 09 be bb de 9f 3b
       -0.042067554 0.03341429 -0.13450654 0.0048788465
0002f0 57 fa 9d 3d c7 46 51 bc 2b 2b 41 bd bb d8 92 bd
       0.07713764 -0.012773222 -0.04716031 -0.07170244
000300 18 4f 9f 3d 4e 15 38 3d 69 25 4c bd 5b aa 97 bd
       0.07778758 0.044942193 -0.049840365 -0.074055396
000310 6f f4 3f 3d ec fe 9b bd 36 1e 8f 3d 05 19 5a 3c
       0.04686397 -0.07616982 0.06988184 0.013311629
000320 1f 32 e1 bb b6 98 5e bd 9c fc 0f bd 2e 3f a8 bc
       -0.00687243 -0.054344855 -0.035153016 -0.020537939
000330 33 0e a8 bd 27 ce 23 ba e0 bf f8 3c be 58 93 3d
       -0.08205833 -0.00062486756 0.03036493 0.071946606
000340 f3 56 9d 3d 79 f9 46 3a 2c 2c 90 bb 48 6a b3 bd
       0.076826 0.0007590275 -0.004399797 -0.08760506
000350 71 24 c4 3c 04 d4 9c bc 6e 70 10 3d c2 6a 76 bd
       0.023943158 -0.019144066 0.03526347 -0.060160406
000360 e0 a5 ab 3d 11 12 5c 3c aa c5 e7 3c e2 b5 84 3c
       0.083812475 0.013432042 0.028292496 0.01620001
000370 55 f3 78 bd 4a a0 a8 bd 46 4f 02 be 1a 84 c9 bc
       -0.060778935 -0.08233698 -0.12725553 -0.024599124
000380 c9 68 c8 bd de a5 91 bd af 9c 26 3d 6b 1e 90 3d
       -0.09785611 -0.07111715 0.04067677 0.07037052
000390 a5 75 71 bd ec 3b 90 3d 0c c2 9a 3c 31 04 37 bd
       -0.058950085 0.07042679 0.018891357 -0.04468173
0003a0 58 ea 28 bb b4 8c 01 bd 38 3d f2 3c e7 82 28 3c
       -0.0025774445 -0.031628326 0.029570207 0.010285116
0003b0 5b 72 94 bd 4b 72 30 3c de ee 01 bd 13 06 b0 bd
       -0.07248374 0.010769437 -0.031721942 -0.085949086
0003c0 a8 60 2c bd e1 4a 3f bd 39 e2 fe bd b1 1b 06 be
       -0.042084366 -0.04670227 -0.12445492 -0.13096501
0003d0 39 44 10 3b ab 64 47 bd e7 b5 3b bd de 8d f2 bc
       0.002201332 -0.04867999 -0.045827772 -0.029608663
0003e0 16 cb 11 38 a9 e6 3f 3b b8 ef 79 3d 70 c1 04 3d
       3.4759832e-05 0.0029281771 0.06101963 0.03241104
0003f0 28 07 5e bd 87 09 34 bc eb c1 62 bd 9e 63 40 bd
       -0.054206043 -0.0109886 -0.055360716 -0.046970002

conv2_1.bias f4 [32]
000000 05 2c 3d bd 39 35 82 bd ed 30 b2 bc 1b cc 95 bd
       -0.04618456 -0.06357808 -0.021751845 -0.07314321
000010 fd 9c 11 3d 81 35 0d bd 31 bf 29 bd e3 96 61 3b
       0.035550106 -0.034474853 -0.0414421 0.003442221
000020 69 3a c9 bc 7e 63 7d 3d 77 cc 9a 3d 1f a5 99 bd
       -0.024563985 0.06186246 0.0755853 -0.075021975
000030 c9 40 16 3d e7 fb 5a 3b 96 4f 3e 3d 17 5e 01 bd
       0.036682878 0.0033414306 0.046462618 -0.03158387
000040 86 0a 2e bc c5 b0 18 ba 7c 4c e7 3c d4 cf 2d 3d
       -0.010622626 -0.00058246806 0.028234713 0.04243453
000050 e4 94 03 3d 0f b5 38 3c e2 58 8a bd 52 38 49 bd
       0.032124415 0.0112736365 -0.06755234 -0.049125977
000060 05 ff 45 bd 1c 0c a9 bd bf 78 a3 3d 82 a9 16 bd
       -0.04833891 -0.08254263 0.07982015 -0.03678275
000070 eb cd 74 bd 0d 70 1a bd 61 4f 4a 3d b6 36 51 bd
       -0.05976669 -0.037704516 0.049392108 -0.051077567

bn2_1.weight f4 [32]
000000 d5 37 77 3f 55 3f 8d 3f 56 70 7b 3f cb 21 8d 3f
       0.9656957 1.1034952 0.98218286 1.1025938
000010 96 2e 7c 3f 14 65 8e 3f e9 af 8b 3f 39 c0 87 3f
       0.98508584 1.1124597 1.0913059 1.0605537
000020 e1 a6 86 3f 58 39 8c 3f 66 96 57 3f 6a a4 78 3f
       1.0519677 1.0955 0.84213865 0.97125876
000030 53 ce 80 3f 27 23 68 3f 91 d1 74 3f 07 83 5f 3f
       1.0062965 0.9067864 0.9563227 0.87309307
000040 bb db 87 3f fe dd 87 3f 20 73 83 3f 09 84 67 3f
       1.0613931 1.0614622 1.0269508 0.90435845
000050 55 fd 75 3f 86 05 8d 3f ea d8 74 3f a2 fe 68 3f
       0.9608968 1.1017311 0.95643485 0.9101354
000060 1e 1e 79 3f a7 19 7c 3f a8 53 7e 3f 49 c8 87 3f
       0.9731158 0.9847664 0.993464 1.0607997
000070 8b 61 72 3f 0e dc 64 3f 3c 73 6b 3f a1 a9 7d 3f
       0.9468009 0.89398277 0.9197271 0.9908696

bn2_1.bias f4 [32]
000000 60 1e 8c 3a 42 8d e8 3d 8f 8b e1 bd 47 7a d7 3d
       0.0010690205 0.11355068 -0.11012947 0.105213694
000010 50 61 18 bd 0c 88 f3 3d 61 a8 f3 3d c8 5f 83 3d
       -0.03720218 0.11891183 0.1189735 0.06414753
000020 a4 29 ce 3d de ef 23 3e 76 a6 0b bd f2 f1 b4 3c
       0.10066536 0.16009471 -0.034094296 0.022088025
000030 c3 ff a7 3c 07 85 f6 bd 8a e0 44 be e5 00 e8 bd
       0.020507699 -0.12037092 -0.1922628 -0.113282956
000040 11 de 9e 3d 13 68 de 3d 89 55 c0 3d 50 17 df bd
       0.077571996 0.10859694 0.093913145 -0.108931184
000050 75 a4 06 bd 7d 06 b0 3d 11 76 44 bd 62 19 79 bd
       -0.032871682 0.085949875 -0.04796416 -0.060815223
000060 35 35 90 bd 0d ee 32 3c 30 9a 32 b9 ab 1a cb 3d
       -0.070413984 0.010921014 -0.00017032842 0.09917196
000070 c0 15 69 bd 56 4a cf bd df 19 a3 bd c6 aa 57 3d
       -0.056905508 -0.101216 -0.07963919 0.052653097

bn2_1.running_mean f4 [32]
000000 92 59 a1 bf 2a f7 2e bf 92 dc 1f bf 9d 50 e9 be
       -1.260546 -0.6834589 -0.6244594 -0.45569316
000010 e7 91 29 be dd 10 4d 3e ee fd 46 bf ba dd b2 3e
       -0.16559564 0.20025964 -0.77731216 0.3493479
000020 c6 6d 3e be dc 74 3b be c5 90 99 be 3d 06 5e be
       -0.18596563 -0.18306297 -0.29993263 -0.21682067
000030 f1 f2 a2 bf dd aa 0f bf f8 48 4a bf e5 04 1b bf
       -1.273039 -0.5612009 -0.7901759 -0.60554343
000040 df 15 59 bf d7 ae 1f bf 13 ad 81 3e c7 d1 21 3f
       -0.84799 -0.6237616 0.25327358 0.6321072
000050 c9 ce 97 3e fb 03 35 bf ca 64 60 bf 2d eb 39 be
       0.29649952 -0.707092 -0.8765379 -0.18156119
000060 bb 00 05 bf a0 23 9d be 0e 5b 26 3d ef bd 74 be
       -0.5195424 -0.30691242 0.04061418 -0.23900579
000070 d9 72 8e be 1a 55 04 3e 11 98 7a be 00 2a 8a bf
       -0.27821997 0.12923089 -0.24472071 -1.0794067

bn2_1.running_var f4 [32]
000000 f4 15 0e 3f 76 36 bd 3e e2 39 df 3e 3b 12 c1 3e
       0.5550225 0.36955613 0.4359885 0.3770922
000010 0d 85 a1 3e 85 f6 19 3f 12 81 bb 3e 75 67 c9 3e
       0.31546822 0.60141784 0.3662191 0.39336744
000020 31 0c 8d 3e 98 e7 62 3e 17 94 0b 3f 22 21 b2 3e
       0.27548364 0.22158659 0.5452284 0.34790903
000030 41 d7 c4 3e c0 1a 35 3f 2d 3d 9e 3e 23 74 86 3e
       0.38445476 0.7074394 0.30906048 0.2626048
000040 e0 97 97 3e 8a ae eb 3e 3e e8 05 3f 4a b7 1b 3f
       0.2960806 0.460316 0.523075 0.6082655
000050 72 d0 4b 3e 21 74 2b 3f cf cd 05 3f 39 9f 65 3f
       0.19903734 0.66974074 0.52267164 0.8969608
000060 71 4e 06 3f 9f 96 80 3f 14 08 71 3e 26 b4 b5 3e
       0.5246344 1.0045966 0.23538238 0.35489005
000070 9c 04 a2 3e 3c 43 9a 3e 2f 67 97 3e e1 5a c0 3e
       0.31644142 0.3012942 0.2957091 0.37569335

conv2_2.weight f4 [32, 32, 3, 3]
000000 e7 f4 3f bd 55 64 4f bd 2e 6d 24 3d a8 a0 23 bd
       -0.046864416 -0.050632793 0.040143184 -0.039948136
000010 42 22 0b be e5 0e 7c bd 40 80 aa 3d 0f ec ea 3d
       -0.13587287 -0.061537642 0.08325243 0.11470806
000020 36 59 ac 3d 42 b4 a3 bc da 0b 38 bd f2 1f d2 bc
       0.08415453 -0.019983415 -0.044933178 -0.025649998
000030 6b 64 a7 bc 68 4f 02 bd e7 cc 37 3a 7c a7 f2 bc
       -0.020433625 -0.03181401 0.0007011429 -0.029620878
000040 ab 4b 0f ba 28 85 c7 3c 05 df a0 3d 32 3e 78 3d
       -0.00054662925 0.024355486 0.078550376 0.06060619
000050 d5 c1 81 3c eb 4f 05 bb fd 92 76 bd 4e b6 da bc
       0.015839497 -0.0020341824 -0.060198773 -0.026698258
000060 ba 49 fd 3c 99 0e d9 bc c6 5c 19 bd ac 11 0b 3d
       0.030918945 -0.026496219 -0.03744199 0.0339524
000070 b5 70 1a bd 75 28 ac bd ff 84 54 3c 76 8a 65 bd
       -0.037705142 -0.08406154 0.012971162 -0.05604025
000080 30 44 d4 bd 2f 06 d4 bb 3b d5 b6 bb 8c 57 b2 bb
       -0.10364568 -0.0064704637 -0.0055796183 -0.0054425653
000090 f2 c7 97 bd b6 b0 4e bb 7e 41 8b bd dd 26 70 3c
       -0.074111834 -0.0031538433 -0.06799601 0.014657703
0000a0 60 00 b8 3a 7f f3 e6 ba f7 bc 8a 3c 18 99 2c bd
       0.0014038198 -0.0017620175 0.016935809 -0.04213819
0000b0 2f 7d 29 bd 73 f5 cc bc a8 23 18 3b e8 98 10 3d
       -0.04137915 -0.025019383 0.0023214612 0.035302073
0000c0 57 b9 44 bd c9 c6 d7 3b 27 d8 ce bc 1d 5e 8f bd
       -0.048028316 0.0065849763 -0.025249554 -0.070003726
0000d0 57 0c 89 3c fa b1 61 3d 22 f3 f5 3c 38 35 26 bd
       0.016729517 0.055101372 0.030023161 -0.040578097
0000e0 7b 72 05 bd 5f 48 47 bc d8 ac 7e bb e8 a5 0f bd
       -0.03257988 -0.012163251 -0.0038860347 -0.03507033
0000f0 14 b1 9c 3b 9c b2 28 3a b3 05 b2 bb 27 7e 78 3c
       0.0047818515 0.0006435306 -0.0054328083 0.015166796
000100 a5 2b 3b bd 60 e9 0f be 39 e8 d4 bc 1b 90 51 3d
       -0.04569592 -0.14053869 -0.025989639 0.05116282
000110 17 ef 88 bd 12 80 a9 3d e4 bf 59 3c ad 18 52 3c
       -0.06686228 0.082763806 0.013290379 0.012823266
000120 a3 5a 09 3d 3c cd 4b bd 74 d9 16 bd 58 74 1b bb
       0.033533704 -0.049756274 -0.036828473 -0.002372047
000130 53 c7 40 bd e0 9f cf 3c 95 0a 77 3d e8 f5 28 3d
       -0.04706509 0.025344789 0.060312826 0.04125014
000140 82 b7 81 bc 1d 5b 25 bb 61 c7 b9 bc d9 e0 b3 bd
       -0.015834574 -0.002523131 -0.02267808 -0.08783121
000150 a6 97 38 3d 67 97 49 3c 4f 4b 96 3c ea 81 ce 3c
       0.0450665 0.012304164 0.018346457 0.025208432
000160 79 d8 38 bc c1 89 cf 3d 1d 22 9a 3d ca 48 50 bc
       -0.01128208 0.10133696 0.07526038 -0.012712667
000170 83 f8 b0 3d e1 e6 61 3d a6 c9 88 3c 13 31 97 3d
       0.0864115 0.055151824 0.016697716 0.07382407
000180 79 e9 87 3b 7a 62 bc 3c f7 3b 98 3c 06 b0 37 3c
       0.004147705 0.022996176 0.018583281 0.011211401
000190 a3 57 fb 3b 29 45 23 3b 20 39 e5 3c 9e 8c c3 bc
       0.007670359 0.002491305 0.02798134 -0.023870762
0001a0 cf 4e 46 3c 91 a3 ae bd 79 e5 c7 bd b7 db 64 bd
       0.01210375 -0.085272916 -0.09760565 -0.0558736
0001b0 16 1f 15 bd 3e 25 15 3d eb 7f 70 bd e9 3d 86 bd
       -0.0364066 0.03641247 -0.058715742 -0.06554777
0001c0 a2 87 2e 3d 47 d7 60 bd 38 ff 03 be b5 20 75 bd
       0.04260982 -0.054892804 -0.12890327 -0.059845645
0001d0 af 50 dc bc bb 20 63 3c cb df 82 bb 61 7d 13 bd
       -0.026893942 0.013862784 -0.0039939634 -0.036008243
0001e0 95 70 64 bd 16 51 89 bb b3 5d 17 bd c4 a2 fd bc
       -0.05577143 -0.0041905744 -0.036954593 -0.030961402
0001f0 81 03 86 bd 1f 26 9f bd a8 0f 1d 3c a0 2f cd bb
       -0.06543637 -0.07770943 0.009586252 -0.006261781
000200 d6 1b 87 3d 96 fb 62 3d c6 29 88 bd ec 66 6f 3b
       0.06597106 0.055415712 -0.06648593 0.0036529852
000210 74 04 dc 3d 2d dd 58 3d 37 e1 07 3d 17 8a d7 3b
       0.10743037 0.052945305 0.033173766 0.006577741
000220 cb fd e4 bc 4b 26 47 bd 5b ae 14 3d 49 e3 3f 3c
       -0.02795305 -0.048620503 0.03629909 0.011711904
000230 ff 94 71 bc 46 a1 44 3d 4d 92 d2 3c fd 10 1f 3b
       -0.014744996 0.048005365 0.025704527 0.00242716
000240 ea 64 02 b9 a0 b1 23 3d 02 30 81 3d 08 0b 79 3b
       -0.0001243536 0.03996432 0.06307985 0.003800096
000250 fd b6 9c 3c 08 e5 ff ba ca 92 31 bd e1 81 be 3c
       0.019130224 -0.0019523213 -0.04335288 0.02325529
000260 93 0e 2a 3d b5 61 75 3c 7f 60 0a 3b 71 20 94 bb
       0.041517805 0.014976908 0.0021114645 -0.004520469
000270 6d 53 cf bc 4b 6e 56 3d 72 d5 e9 3c b9 54 5c bd
       -0.025308335 0.052351277 0.028544161 -0.053791735
000280 cf f4 a8 bb 04 ba b5 bc c7 86 25 bd 6b e7 0e 3d
       -0.0051561366 -0.022183426 -0.040411737 0.034888666
000290 dc 4c 10 3c 68 27 47 bd 6b f1 46 bd 07 44 c7 ba
       0.008807387 -0.048621565 -0.048570078 -0.0015202769
0002a0 02 18 19 bd 90 c3 14 3d c6 81 b3 bd 9c f9 b9 bc
       -0.03737641 0.036319315 -0.08764987 -0.02270203
0002b0 04 14 6b bd b1 0b 9e 3d c5 61 15 3d f7 12 77 3d
       -0.057392135 0.07717074 0.036470193 0.06032082
0002c0 b6 2e b5 3c 50 ca a4 3c 64 4d c5 bc 00 12 fc bc
       0.022117 0.020116001 -0.024084754 -0.030770302
0002d0 c2 77 ce 3d d3 37 88 bd 33 90 b2 bd 7f 39 84 3c
       0.10081436 -0.066512726 -0.0871891 0.016140698
0002e0 52 19 19 bd a3 5d e0 bc fb 70 c6 3d 55 2f c0 bd
       -0.037377663 -0.0273884 0.09689518 -0.09384028
0002f0 7e 80 33 bd 29 b5 70 3d 71 34 8f bc 8a c6 b0 bc
       -0.04382371 0.058766518 -0.01748106 -0.021579046
000300 c5 06 6e 3b cf 75 5b bc 98 1e 30 3d 16 14 ca 3c
       0.0036319953 -0.013394787 0.042997926 0.02466778
000310 60 a7 cd 3c 47 04 1b 3d 44 26 b2 3d 8c 83 ad 3a
       0.025104225 0.037845876 0.08698705 0.0013238057
000320 9a 0e 51 bd 93 89 88 bc d9 4a 37 3c 29 69 d3 bc
       -0.051039316 -0.016667163 0.011187279 -0.02580698
000330 a8 76 c5 bd 36 b2 84 3d 8d 8e 74 bc 7c 8b 29 bd
       -0.096417725 0.064793035 -0.014926565 -0.04139279
000340 78 b2 71 bd a5 7b d9 bd d9 00 6a bd 4d e1 37 bd
       -0.05900809 -0.106192864 -0.057129715 -0.044892598
000350 7f 4a 42 3c 97 a5 77 bc b5 f3 7d bc 78 05 70 3c
       0.011858582 -0.015115163 -0.015499999 0.014649741
000360 f0 aa 70 bd 83 ce 39 bd 58 04 29 bb 0f 85 6f bd
       -0.05875677 -0.04536296 -0.0025789943 -0.058476504
000370 19 f6 2c bd 12 14 87 bd 30 a1 b5 bc 0f 7a f5 3c
       -0.042226885 -0.06595625 -0.022171587 0.029965429
000380 62 19 74 3d ca 71 1a 3d 6c 4b 29 3c 41 41 84 ba
       0.05959452 0.037706174 0.010332923 -0.0010090248
000390 20 8f 11 bd fa e5 b0 bc e9 bd ac bc 3d 85 0a bb
       -0.035536885 -0.021594036 -0.02108665 -0.0021136545
0003a0 85 57 d0 3a db cc e8 bc de 6c 85 3c 37 ed 46 bd
       0.0015895223 -0.028417995 0.016287263 -0.04856607
0003b0 d3 ed 05 bd 2d b0 4a 3c 48 99 23 3c bc 70 1d 3d
       -0.03269751 0.012371105 0.009985276 0.03843759
0003c0 25 e7 03 bd 41 11 79 3d 91 6a fd 3c 4f 0b aa 3c
       -0.03220286 0.06080747 0.030934604 0.020757345
0003d0 1c b9 14 3d cc cc 1a bc 45 3f e2 bb 90 9c 3c 3d
       0.036309347 -0.009448241 -0.006904515 0.046047747
0003e0 ef e4 2d 3c 87 b1 97 3d 60 4c 37 3b d1 01 3c bd
       0.010613664 0.074069075 0.0027969107 -0.04590017
0003f0 13 49 43 3d 9b 6f da 3c 60 78 49 3d e8 ec 48 bd
       0.04767711 0.026664546 0.049187064 -0.049054056

conv2_2.bias f4 [32]
000000 a2 f9 de 3c 60 cd 71 3d 9c ce 38 bc 62 53 8b bc
       0.027218644 0.05903375 -0.011279728 -0.017007533
000010 63 3a 1c bd 66 4d e1 3b 2f 1b 42 3d 33 98 e1 bb
       -0.03814162 0.0068756817 0.047389206 -0.0068845986
000020 2d 18 a7 bc 4a f7 17 3d 84 7c 76 3b 2c e9 05 3c
       -0.02039727 0.037101068 0.0037610838 0.008173268
000030 fc ec 5e 3d 15 14 64 3d 5c d6 6f 3d a9 f0 5a bd
       0.054425225 0.055683214 0.05855404 -0.053452168
000040 3f d0 2d 3c b1 f4 48 3d 8c 9c 57 3d 5c 2b 54 bd
       0.010608732 0.04906148 0.05263953 -0.051799163
000050 e3 4d 35 3d 6f 3e e1 bc b3 48 f7 bc e9 81 03 bd
       0.04426373 -0.027495591 -0.030186033 -0.032106314
000060 05 c1 fe bc e8 21 1e bc b4 66 1f 3b 56 96 d7 bc
       -0.031097898 -0.009651639 0.002432269 -0.026316803
000070 19 c3 1b 3d 51 2f 13 bd 4e 91 58 3d 2b 1a 5b bd
       0.038027856 -0.035933796 0.05287295 -0.053491753

bn2_2.weight f4 [32]
000000 34 f0 80 3f 49 01 98 3f 7c 9a 87 3f e6 91 9c 3f
       1.0073304 1.1875392 1.059402 1.2232025
000010 2c 6e 8d 3f 90 16 94 3f 2b 1c 98 3f 39 5c 9e 3f
       1.1049247 1.1569386 1.1883596 1.2371894
000020 b8 c0 98 3f 50 02 99 3f 49 f5 83 3f 84 f6 a3 3f
       1.1933813 1.1953831 1.030923 1.2809606
000030 7c de 8b 3f d0 7c 85 3f 4c d9 8a 3f 76 10 89 3f
       1.0927272 1.0428715 1.0847564 1.0708148
000040 10 df 9f 3f fe 10 95 3f 0e 92 9d 3f 38 91 86 3f
       1.2489948 1.1645811 1.2310197 1.0513067
000050 40 98 85 3f f7 a6 95 3f fa 67 82 3f 00 1b 84 3f
       1.0437088 1.1691579 1.0187981 1.032074
000060 b2 c6 8b 3f ca 67 8c 3f f6 af 8f 3f a2 09 9a 3f
       1.0920012 1.0969174 1.1225574 1.203419
000070 05 1f 82 3f 86 6b 88 3f 4b c8 84 3f 2e f3 98 3f
       1.0165716 1.0657814 1.0373625 1.1949213

bn2_2.bias f4 [32]
000000 3d 10 d8 bd fe 16 0a 3e 29 fc a6 bd 6e 7b 0c 3e
       -0.10549972 0.13485333 -0.081535645 0.1371896
000010 5c 08 a8 3d ac bb 12 3e 72 5e 20 3e b7 f9 37 3e
       0.082047194 0.14329404 0.15661028 0.17966352
000020 1a 5b 29 3e b8 7f 29 3e 66 70 0f be 37 2a 85 3d
       0.16538659 0.16552627 -0.1400772 0.065021925
000030 5d 4e 84 3d 6d f9 35 be da 02 d8 bd 38 34 0e 3c
       0.06460259 -0.1777093 -0.10547419 0.008679442
000040 f2 2f 14 3e 9f 0b 0a 3e 16 15 10 3e cf 87 9c bd
       0.14471415 0.13480996 0.14070544 -0.07643091
000050 8c ab 9f bc d1 03 36 3e c2 49 d4 bd ef 83 05 be
       -0.01949098 0.17774893 -0.10365631 -0.1303861
000060 14 07 20 bc 5c 86 9f bd e9 d4 42 bd ec a6 28 3e
       -0.009767313 -0.07789299 -0.04756633 0.16469926
000070 87 cd 00 be 77 55 d0 bd 8b eb 6c be 14 e3 2d 3e
       -0.12578402 -0.10172551 -0.23136728 0.16981155

bn2_2.running_mean f4 [32]
000000 ac e1 02 bf 8b a3 1b 3f b4 5c 49 3d 9a e9 07 bf
       -0.511256 0.6079642 0.049160674 -0.5309082
000010 84 31 20 bf e0 70 63 be f3 6a 9a be cc 66 81 bf
       -0.62575555 -0.22211027 -0.3015972 -1.0109496
000020 55 d6 1a bf b5 e1 4d 3e 41 15 ae be f6 13 be be
       -0.60483295 0.20105632 -0.3400059 -0.37124604
000030 3a 07 48 bf a8 95 41 be 1c 52 ae be 9d de a2 bf
       -0.78136027 -0.18904746 -0.3404702 -1.2724186
000040 40 cf 13 be f3 a5 8f be c9 8c 0f be 60 18 bb be
       -0.14434528 -0.28056297 -0.14018549 -0.36542034
000050 05 2b 12 bd 8d c9 e9 be 91 7d f8 be cd cc 18 bf
       -0.035685558 -0.45661584 -0.485333 -0.596875
000060 46 e2 e0 bd bf bb 28 bf 0c 9d d9 be af 10 66 bf
       -0.10980658 -0.6591148 -0.4250263 -0.8986921
000070 28 b1 e2 be 7a fa fb be 9d 3b 33 bd f5 7c 3d bf
       -0.44275784 -0.49214536 -0.043758024 -0.74018794

bn2_2.running_var f4 [32]
000000 4d ff ea 3d 79 03 6e 3e 35 da 08 3e 87 0d 84 3e
       0.11474476 0.23243512 0.1336449 0.2579157
000010 c1 4b 29 3e 28 0f c2 3e c9 29 1b 3e b5 47 ca 3e
       0.16532804 0.37902188 0.15152659 0.39507833
000020 a8 b8 26 3e 75 b9 6e 3e 21 38 ec 3d 68 bd a3 3e
       0.16281378 0.23312934 0.11534143 0.31980443
000030 e6 87 90 3e 14 ec c8 3d f2 cc 75 3e ef 9d 3b 3e
       0.28228682 0.09810653 0.24003962 0.18321966
000040 94 83 f7 3d d2 26 62 3e a0 20 6c 3e db 38 05 3e
       0.120856434 0.22085121 0.2305932 0.1300997
000050 05 b8 23 3e 8b 95 13 3e 95 48 ff 3d 25 79 df 3d
       0.15988167 0.14412515 0.12465016 0.10911778
000060 3d 76 fd 3d 16 3d 95 3e 4f 01 9e 3d 63 16 45 3e
       0.12376068 0.29148167 0.07715093 0.19246821
000070 c0 c9 df 3d e7 4f 67 3e 64 63 06 3e fa e2 c2 3e
       0.10927153 0.22589074 0.13123852 0.38063794

conv3_1.weight f4 [64, 32, 3, 3]
000000 c5 c2 74 3c 0a 28 3c 3c 4e 4d fc bc 15 a0 27 bc
       0.014939015 0.011484155 -0.03079858 -0.010231038
000010 07 ea a1 3c 1a 1b 1b bd fb 0a bb bc 55 1d ca 3c
       0.019764913 -0.037867643 -0.022832384 0.02467219
000020 8a 73 aa bc 8b de 5e bb 62 c1 e2 3c 52 97 ef 3c
       -0.020807046 -0.0034007158 0.027680103 0.02924696
000030 ce a3 e4 3c 01 71 9e 3c a3 57 82 3d e4 2b 0d 39
       0.02791014 0.019340994 0.06364372 0.00013463158
000040 3b aa c8 bb 48 eb 90 bc 2c 61 80 bd 7a e4 20 3d
       -0.0061238087 -0.017690316 -0.06268534 0.039280392
000050 f1 ea 2d bc 08 4e 8e 3c 51 2d a3 3c c1 f8 25 bd
       -0.010615096 0.017371193 0.01991907 -0.040520433
000060 e5 19 6a bd a5 8b 91 3c 1d 49 f3 bc 0d d5 ba 3b
       -0.0571536 0.017766783 -0.029697949 0.005701667
000070 60 43 a8 bb 9f 7f 86 3d e2 54 8d 3d 1a 49 9a bc
       -0.005134985 0.065673105 0.06900956 -0.018833686
000080 f5 f1 de bc 85 8f 56 bd 6f 44 30 3c a0 ec 92 bd
       -0.027214983 -0.052382965 0.010758503 -0.07174039
000090 50 8c 18 bd 3f 10 84 bc 73 4b c9 bc 9c 7b 24 3d
       -0.037243187 -0.016121028 -0.02457211 0.040156946
0000a0 45 d0 a9 bc c6 65 a2 bc aa 56 93 bd 2c 43 3c bd
       -0.020729193 -0.01982392 -0.07194264 -0.045962498
0000b0 21 06 dd bd 70 0f 97 bd 48 05 8b 3c e5 44 07 bd
       -0.107921846 -0.07375991 0.016970292 -0.033024687
0000c0 b5 ad 8e 3c 48 e3 cd bc 99 be 88 3c a3 93 ee 3c
       0.017416814 -0.02513279 0.016692447 0.029123133
0000d0 e5 09 2f bc 4e 4d f7 3b 5f 18 d6 bb d2 18 a6 ba
       -0.010683511 0.0075470572 -0.006533667 -0.0012672192
0000e0 e9 9f 11 3d 58 84 19 3d 79 8f 39 bc 8b 3b a2 3c
       0.035552893 0.03747973 -0.01132571 0.019803783
0000f0 08 fe 10 bd b8 64 43 bd 63 7c e3 3c c9 3e 7c bd
       -0.035398513 -0.047703475 0.027769273 -0.061583314
000100 8a f4 14 3d 98 8e a7 bb 04 d8 0c 3d 61 af 28 3d
       0.036366023 -0.005113434 0.034385696 0.04118288
000110 b6 3d 26 3d 20 04 c5 bc 4d 4e 5e 3d 34 7a 07 bd
       0.040586196 -0.024049819 0.054273892 -0.033075526
000120 79 b1 6e ba 6c ba 43 3d a2 2c 26 bd 5a bf 9b bd
       -0.0009105425 0.047785208 -0.04056991 -0.07604857
000130 7d 1f c0 3c 13 f8 66 bc 82 05 c0 bd 6f a7 f5 3c
       0.023452515 -0.014097231 -0.093760505 0.029987065
000140 74 a7 53 bc 33 81 5e bc 96 2b 08 bd ac ef 1d bd
       -0.012918342 -0.013580608 -0.03324469 -0.038558647
000150 fb 03 f7 bc 3f ff 0e bc 85 fb 68 bd 7d 97 ad bb
       -0.030153265 -0.008727848 -0.056880493 -0.0052976
000160 70 14 89 bc 3d 80 a5 bc fc b8 25 3e b5 59 28 3c
       -0.016733378 -0.02020275 0.16183847 0.010275294
000170 9a 8e 68 bd 45 e0 8a bd b8 c6 89 3d 86 e9 a3 bd
       -0.05677662 -0.06781057 0.06727356 -0.080035254
000180 67 d9 58 3a 7b 65 ac 3d 88 8f 87 3c a7 17 d0 3b
       0.00082721416 0.08417793 0.016547933 0.006350476
000190 69 36 f5 3c c9 28 8c bd 98 95 53 3d 1f e6 99 3d
       0.029933171 -0.06843717 0.051656336 0.07514595
0001a0 57 58 b3 ba 8a d1 c4 3b 37 5c 54 3d 82 4b 72 bc
       -0.0013682944 0.0060064243 0.051845755 -0.01478851
0001b0 44 f7 42 3d a9 63 11 3c d8 ca 41 bd 8d 8b 11 3d
       0.047599092 0.0088738585 -0.047312587 0.035533477
0001c0 04 4d 64 bd fd ca 7a bd 4e fb 21 3d 23 b6 8f bc
       -0.05573751 -0.06122874 0.039546303 -0.017542904
0001d0 e1 b9 61 bc 84 b1 d1 3d c8 9f 37 bc c7 0d a1 bb
       -0.013777227 0.102389365 -0.011207528 -0.0049149725
0001e0 29 b8 a3 3d 51 f5 84 bd 3f 0d 30 bd 53 b0 ee 3c
       0.0799411 -0.06492103 -0.042981382 0.029136812
0001f0 1b a7 80 bd 99 0c 1a bd 2d c4 6c bd 03 03 a6 3c
       -0.06281873 -0.03760967 -0.057804275 0.020265108
000200 d3 bc 81 3b c4 87 8c 3c 81 6a 1a 3d dd 2a d6 bb
       0.003959277 0.017154582 0.037699226 -0.0065358714
000210 73 7f 46 bc 50 8d 4a 3d d4 36 31 3d e7 23 ad bd
       -0.012115347 0.049451172 0.04326518 -0.084541135
000220 ec f8 1b bd b6 49 f4 bd d8 e2 3a 3d 34 25 3a 3d
       -0.038079187 -0.11928122 0.04562649 0.045445636
000230 80 c0 90 bb 5d 9e 2e bd a2 86 33 3c 26 90 11 3c
       -0.004417479 -0.042631496 0.010957392 0.008884465
000240 17 82 a7 3c 64 c0 5a 3d a8 74 68 bd a4 e4 0f 3d
       0.020447774 0.053406134 -0.056751877 0.035130158
000250 27 8f 0b bd 5e ff 9e 3c fe ac 5d bd a7 71 25 bc
       -0.034072068 0.019408878 -0.054120056 -0.010097898
000260 79 66 6f 3c 6d 91 4a 3d 41 de d5 3d ff 5f ba bc
       0.014611834 0.049455095 0.10442782 -0.022750853
000270 26 6f c0 bc f2 04 13 bd 41 72 53 3b 7d 28 c1 bc
       -0.0234905 -0.035893388 0.0032264146 -0.023578877
000280 5a 5a d6 3a ee 40 d7 ba 0f 02 42 3b dc 18 3c bc
       0.0016353831 -0.0016422549 0.0029603278 -0.011480536
000290 e1 5b 93 bd da 47 72 3c e0 ae eb bb 44 86 b0 bd
       -0.07195259 0.014787639 -0.0071924776 -0.08619359
0002a0 01 33 b7 3c 48 c3 36 bc 6a b9 0f bd e8 80 1a 3d
       0.022363188 -0.011154957 -0.035088934 0.03772059
0002b0 19 86 59 bd 89 51 7a bc 2d c8 ae ba da 42 c4 bd
       -0.0531064 -0.015278229 -0.0013334804 -0.095830634
0002c0 d7 91 f9 bc ee f4 19 bd 20 90 af bd 13 8a e8 3c
       -0.03046505 -0.0375871 -0.085724115 0.028386151
0002d0 c8 77 ac bd 3f e0 11 3d 49 74 49 bd e2 41 74 bc
       -0.08421284 0.03561425 -0.049183164 -0.014908286
0002e0 e4 b0 65 bd 99 b6 81 bd f6 16 4b bd 8e a1 57 3b
       -0.0560769 -0.06333656 -0.049582444 0.003290269
0002f0 21 d3 b1 bc 55 b2 20 bd 90 26 14 3d 6c 70 5b bd
       -0.02170712 -0.03923257 0.03616959 -0.05357401
000300 e2 ce ed bc 47 59 25 3d df 76 e5 b9 1f 98 44 3c
       -0.029029313 0.040368345 -0.0004376685 0.011999159
000310 83 a7 00 3d 1e 7d db 3b 21 4e b3 3d 9d bc 4f 3d
       0.03140975 0.0066982647 0.08755136 0.050716985
000320 2b 97 7c 3c e0 69 76 3d a1 06 59 3d ed 9f 24 3d
       0.015416901 0.060159564 0.052984837 0.04019158
000330 7b ff 51 3b ce b7 13 bb ef 59 1e bd 94 7a bb 3d
       0.0032043147 -0.0022539976 -0.038659986 0.09154239
000340 8a dc 78 3c 8a f2 5b 3d 04 5a 01 bd 19 c8 44 bd
       0.015189299 0.0536981 -0.031579986 -0.04804239
000350 f9 f0 ed bb 33 f3 53 bd eb a1 7c 3c 0c 15 8c 3d
       -0.007261392 -0.051745605 0.015419464 0.06839952
000360 39 e1 34 3c f0 72 4e 3d ef 44 57 bc 7b eb e6 3c
       0.011040025 0.05040258 -0.013138994 0.028188458
000370 38 13 0f bd b8 ca 78 bd 25 b4 dc 3c 05 3a fc bb
       -0.034930438 -0.060740203 0.026941368 -0.007697346
000380 a4 0c 45 bd fb ad 08 3d 46 ca ba 3d 38 05 cd 3d
       -0.04810776 0.033369046 0.09120612 0.10010761
000390 c7 78 d4 3c 07 44 14 3c f6 f0 06 3b aa cf 89 3b
       0.025936497 0.009049422 0.0020590401 0.0042056637
0003a0 70 07 2b 3d 6b f3 60 3d d0 07 50 3d 31 4e c9 b8
       0.04175514 0.05491964 0.0507887 -9.598991e-05
0003b0 96 54 2d bc e5 97 01 bd 76 13 6a 3c ff ef 5c bd
       -0.010579249 -0.031639 0.014286866 -0.053939816
0003c0 be 29 4f bc bc 6b 0a 3d a6 e2 3a bd 90 25 24 3d
       -0.012644229 0.03379415 -0.045626305 0.040074885
0003d0 b7 e8 1f 3c 67 9e e4 bc 66 4c f1 3c 74 9e 56 bd
       0.009760073 -0.027907563 0.029455375 -0.052397206
0003e0 98 8e d9 bc 2b 93 59 3c d3 53 27 bc 91 ce f1 bc
       -0.026557252 0.0132797165 -0.010212856 -0.029517444
0003f0 5b a0 b5 bd 95 14 a8 bc 3e 16 11 bd 39 de 06 bd
       -0.08868476 -0.020517627 -0.035421602 -0.03292677

conv3_1.bias f4 [64]
000000 69 aa 4d bc 8a a2 c2 bc 52 68 2a bc 7b 3c 23 3c
       -0.012552836 -0.023759145 -0.010400848 0.00996315
000010 da f3 07 3d ce 83 00 bd 52 e3 1f bc c6 0a 5c bd
       0.03319154 -0.0313757 -0.009758787 -0.05372121
000020 2d 71 5b 3d bb 82 10 bd 61 ee a2 3c 15 74 a8 bb
       0.05357473 -0.035280924 0.019889059 -0.005140791
000030 c7 56 d2 bc 6d e5 83 3c 4a ac 5e 3d e2 8e 69 3d
       -0.025676144 0.01610061 0.054363526 0.05702103
000040 a9 94 ff 3c 11 8f fd 3c 6d 6d 0f 3c 35 60 20 3d
       0.031198816 0.030952008 0.0087541165 0.03915425
000050 7c c8 5c bd 77 ac 81 bc d8 b8 13 bc 1a c4 4c 3c
       -0.053902134 -0.015829308 -0.009016238 0.012497926
000060 c4 e6 28 bd 1a 10 15 bb 25 f0 cb b9 d6 1e 12 3d
       -0.0412357 -0.0022745193 -0.000388981 0.03567394
000070 ac 0e d1 3b 6b b8 5f 3d 8f 6a 53 bd 5f 93 19 3d
       0.006379923 0.054619234 -0.051615294 0.03749406
000080 1b f2 4a bb 29 9a 2a bd 98 88 92 3b 68 86 4d 3d
       -0.003096706 -0.041650925 0.0044718497 0.050177008
000090 34 7c 40 3d 65 76 39 bd 5f 0c cf bc 5d d1 3d bd
       0.04699345 -0.045278925 -0.025274454 -0.046342243
0000a0 b4 4b 6e 3d c5 46 16 bd 64 a5 0b 3d 00 a2 c7 3c
       0.058177665 -0.036688585 0.034093276 0.02436924
0000b0 13 2a e6 bc 22 b4 70 3d f5 ab 8b 3b 96 fa 69 bd
       -0.028096234 0.058765538 0.0042624422 -0.057123743
0000c0 13 e5 b8 3b 22 dc 18 3c 88 9a 0c 3d 27 d3 99 bc
       0.005642542 0.0093298275 0.03432706 -0.018777443
0000d0 30 0f 22 3d 19 28 45 bd f2 75 af 3c 24 07 bf 3c
       0.039565265 -0.048133943 0.021418545 0.023318835
0000e0 c9 90 36 3d 2f f2 09 bc 08 80 25 bd b4 e3 55 3d
       0.04457167 -0.0084195575 -0.040405303 0.052219108
0000f0 7c dc d2 bc d9 5d 4f bd e7 34 a1 3c 02 76 b9 bc
       -0.0257399 -0.05062661 0.019678546 -0.022639278

bn3_1.weight f4 [64]
000000 95 13 6c 3f fb e5 92 3f bb 5e 86 3f fc 71 95 3f
       0.9221738 1.1476434 1.049766 1.167541
000010 85 28 80 3f 4a e0 7f 3f f3 a8 97 3f 6a 4f 70 3f
       1.0012366 0.9995161 1.1848434 0.93871176
000020 a4 68 69 3f ff 14 96 3f cd 39 94 3f 4e 2c 87 3f
       0.91175294 1.1725157 1.1580139 1.0560396
000030 15 9a 9b 3f 90 f9 6b 3f 7e 49 97 3f f4 74 96 3f
       1.2156397 0.9217768 1.1819303 1.1754441
000040 c1 ec 9b 3f 9e 97 9c 3f c3 05 86 3f 80 db 99 3f
       1.2181627 1.223377 1.0470508 1.2020111
000050 90 cd 95 3f c0 0a 93 3f ea f1 9a 3f 61 e6 96 3f
       1.1703358 1.1487656 1.2105076 1.1789056
000060 02 ef 7b 3f 44 96 77 3f 8b 6b 83 3f 3b bb 96 3f
       0.9841157 0.9671366 1.0267195 1.1775888
000070 5c 43 81 3f fc bc 93 3f 43 72 95 3f 3c 84 97 3f
       1.0098681 1.1542048 1.1675495 1.183723
000080 6e c3 9d 3f b6 6f 92 3f c2 f7 90 3f c9 f1 93 3f
       1.2325265 1.1440341 1.132561 1.1558162
000090 8c 01 6b 3f 56 33 71 3f da f0 66 3f 31 42 92 3f
       0.91799235 0.9421896 0.9021126 1.142645
0000a0 7e 63 9b 3f c0 0d 7f 3f e9 9f 6b 3f a1 2f 66 3f
       1.2139738 0.99630356 0.9204088 0.89916426
0000b0 b4 84 9a 3f 93 94 97 3f c3 97 9a 3f 84 b4 9d 3f
       1.2071748 1.1842216 1.2077564 1.2320714
0000c0 27 8c 9b 3f 39 0a 84 3f 39 19 7d 3f 75 e1 6d 3f
       1.2152146 1.031562 0.9886661 0.92922145
0000d0 94 9d 94 3f 68 99 93 3f 08 d3 71 3f fd f2 93 3f
       1.1610589 1.1531191 0.94462633 1.1558529
0000e0 99 8f 90 3f 63 6b 75 3f 38 53 9d 3f 51 0e 95 3f
       1.1293823 0.95866984 1.2291021 1.1644994
0000f0 ef 00 6a 3f f3 2b 90 3f 9f b1 98 3f 4c d7 94 3f
       0.91407675 1.1263412 1.1929206 1.1628203
