model_folder/best_model_17-03-2025.pth (torch, 908258 bytes, 87 tensors)

conv1_1.weight f4 [16, 1, 3, 3]
00000000: 5705 aa3e 2b0e 653e 4a8c 1c3d 8955 843e
00000010: f6c7 22be d777 813e fe52 d53d ad8d 85bd
00000020: 8570 c0bd 6e1e 333d 4f96 a73d c7e1 9ebe
00000030: a137 45be 2ec9 acbd d326 313e a52a 33bd
00000040: 0755 e8bd 0e62 573e 599a 00be 6924 a1bd
00000050: d5a7 13bb 0082 58be 336f 833e c0cb 0fbd
00000060: f73f a63d ff3a 09be 0d68 853e aa16 843e
00000070: 2729 8f3e 59d8 c8bd dc7e cbbe 7d1a 1d3e
00000080: b076 94be 1a1b c23d 45cc d33d 5a62 7f3d
00000090: 1e4a ce3b 3b90 8dbd 5a56 713e 48a8 9fbe
000000a0: 4a7e 953e db91 923e ad77 903b a59b 92be
000000b0: 240f 82be ba1d 62bd 389c ac3c a4b3 8bbd
000000c0: 3bae babe c782 9bbd 5f23 20bd 5039 92bd
000000d0: fc04 90bd 380d a239 0149 df3d 2c9d 823e
000000e0: 9e44 23be da4b 20be f14d a8be 47d7 f43c
000000f0: cd26 b23e dee3 ea3d 8fc0 f4bd 0d96 5dbd
00000100: 2bb7 b8bd 7f05 38be a78f cfbd 5cd8 75be
00000110: 9b51 09be 18bb 8e3d 1a01 a9be 69e8 0abe
00000120: ffa4 8f3e 9d3f c8bd fc70 8abe e8b3 e1bd
00000130: c6f2 733e a433 0a3e 9726 b1bc 8b62 93be
00000140: 03d9 7c3e 21a1 b2bc bfeb 8bbe 541c 953e
00000150: 5d03 d0bd 8f14 bc3d db48 8ebd d6e2 fe3d
00000160: b244 01be 67e1 933c b071 9e3e 217a 3c3e
00000170: 161b 433e 1163 163e d4c6 a43e ce8f b83e
00000180: 3aca 9c3e 60da 1f3e aed9 89be 5b61 58bd
00000190: 2869 7c3e d4ae 50be 6dc2 bc3d 0d12 693e
000001a0: e9b0 f43d b4b5 9ebc 2d01 2c3e 916c c9be
000001b0: cc2f a5be 3b25 1dbe f865 06be 0516 8d3e
000001c0: eca5 763c 994d 86be 9a05 7b3e 84fb cbbd
000001d0: 74fd 2c3e 205f b03d 0fb1 8dbd 6978 663e
000001e0: 1b0b 803d 00e5 28be 9697 a9be 508b 68be
000001f0: 63fd 8d3e 5630 a03e 81b7 af3e c204 f8bd
00000200: 349e 95be 5876 8fbd e044 2c3e 1632 82be
00000210: f0c5 a9bd f707 653b 09c5 81be 9a9b 9abe
00000220: f2ba 2dbe fde9 a7be 9893 623c 7441 8bbd
00000230: fd16 8d3e 26dd 76be af43 0a3d f6cb 87be
0.332072 0.22368686 0.038219728 0.25846508 -0.15896592 0.25286743 0.1041622 -0.06521163
-0.093964614 0.043730192 0.08182966 -0.3103163 -0.19259502 -0.084368095 0.17299967 -0.04374184
-0.11344343 0.21033499 -0.12558879 -0.07868273 -0.0022530456 -0.21143341 0.25670776 -0.03510642
0.08117669 -0.13401411 0.26055947 0.2579854 0.27961084 -0.0980689 -0.39745224 0.15342136
-0.289968 0.094778255 0.10341696 0.062349655 0.0062954566 -0.069122754 0.23568097 -0.31183076
0.29197913 0.28626904 0.0044087977 -0.28634372 -0.25402176 -0.05520413 0.021070585 -0.06821373
-0.36461052 -0.07593303 -0.039096233 -0.07139838 -0.07032201 0.00030908897 0.10902596 0.25510538
-0.15944144 -0.15653935 -0.32871965 0.029887808 0.34795228 0.114692435 -0.1195079 -0.054098178
-0.090193115 -0.17970847 -0.101348214 -0.24008316 -0.13410036 0.06969279 -0.33008653 -0.1356522
0.2805557 -0.09777758 -0.27039325 -0.110206425 0.2382308 0.13496262 -0.021624846 -0.2878612
0.24692158 -0.021805348 -0.27328297 0.29123175 -0.101568915 0.09183609 -0.0694749 0.12445609
-0.12623861 0.018051816 0.30946112 0.18405963 0.19053301 0.14686228 0.32182944 0.36047214
0.30623037 0.15610647 -0.2692389 -0.05282722 0.24649489 -0.20379192 0.09216771 0.22760792
0.119478054 -0.019373752 0.16797324 -0.39340642 -0.3226303 -0.15346234 -0.13124835 0.27555862
0.015054207 -0.26231077 0.24513856 -0.09960082 0.1689356 0.08611894 -0.06918537 0.2250687
0.06252118 -0.16493607 -0.33123463 -0.22709394 0.2773238 0.31286877 0.3431969 -0.121102825
-0.29222262 -0.07004994 0.16823149 -0.25428838 -0.08289707 0.0034947374 -0.25345638 -0.3019684
-0.16965845 -0.32795706 0.013829134 -0.067995936 0.275566 -0.24107799 0.033755954 -0.26522797

conv1_1.bias f4 [16]
00000000: dc90 e13d 977f aabe efca eb3d c0cc 81bd
00000010: 6bc8 893e 7b8d 483e f261 e23d e589 dd3d
00000020: e1ee 36bd 0c44 82be 9c75 6a3e 06a2 523e
00000030: 225a 2ebe b957 9b3e 724c 97be 1e1b 88be
0.11013958 -0.33300468 0.11513316 -0.06337881 0.2691072 0.1958522 0.11053838 0.10817317
-0.044661406 -0.2544254 0.22896427 0.2056962 -0.1702657 0.30340365 -0.2955051 -0.2658319

bn1_1.weight f4 [16]
00000000: 237a 793f 7fb0 7d3f e155 843f 9a2e 773f
00000010: 7d9d 853f af84 6f3f 332c 6b3f bce1 753f
00000020: 8f65 7b3f 51ad 7a3f be08 763f fa51 793f
00000030: b0ea 7a3f d7f3 763f 8fde 743f 84e2 703f
0.9745199 0.99097437 1.0338708 0.96555483 1.0438687 0.93561834 0.9186432 0.9604757
0.9820184 0.9792071 0.9610709 0.9739071 0.98014355 0.9646582 0.956521 0.94095635

bn1_1.bias f4 [16]
00000000: 6f78 dd3c 3a42 e4ba d992 dd3d 39ff 8a3d
00000010: 7aef 283d 7e06 4bbc 91f6 903d fa75 28bd
00000020: 1b9d a13d bf7b 1a3c fe3c e5ba f9c4 bc3d
00000030: 01fd cf3d 5e7a 613e 8aef 373c 75f6 b6bc
0.027034966 -0.0017414757 0.108190246 0.06786961 0.041244008 -0.012391685 0.07078279 -0.041128136
0.078912936 0.009428917 -0.001748949 0.09217257 0.101556785 0.22019336 0.011226544 -0.022334317

bn1_1.running_mean f4 [16]
00000000: bcd0 143f 205c eabe 4c43 f83d 0ac3 c63c
00000010: d596 5f3e 8993 3fbe 2082 223e 3e5f 06bf
00000020: 5cc9 773c 4ca6 94be feed 903f a508 9c3e
00000030: 3ccf 9ebe 385d c93e 8e42 17bf f80f 52bf
0.58131003 -0.4577341 0.12122211 0.024262924 0.21834882 -0.18708624 0.15869951 -0.5248908
0.015123691 -0.29033124 1.132263 0.30475345 -0.31017482 0.39328933 -0.5908593 -0.82055616

bn1_1.running_var f4 [16]
00000000: 3da3 573d 4a72 9d3b 1437 3f3b a7c7 5f3b
00000010: b14a f73b c77e 0c3d 1e31 4f3b 3b77 be3d
00000020: c370 da3a 3cd1 a13a 0c3f 403e 95dc cf3b
00000030: d908 483c 5a0e 2b3b e0b1 db3c b0e5 863d
0.05264591 0.004804884 0.0029177116 0.0034146102 0.0075467457 0.03430059 0.003161497 0.09300085
0.0016665686 0.0012345682 0.1877405 0.006343434 0.012209141 0.0026101083 0.026818216 0.06586778

conv1_2.weight f4 [16, 16, 3, 3]
00000000: a266 e7bc d33a 33bc 993f 96bd 3737 cf3c
00000010: e095 37bd d66a d83d 3360 9e3d d0fc 113d
00000020: f9cc 7f3d 2597 ca3c d99b a3bc bbaf 1abc
00000030: 5236 be3d f59c 993d e3d2 e23c ae76 acba
00000040: a2c0 eb3c 5eb1 8d3c f8fb 503c 253d 6c3c
00000050: 6898 d63c f17a 5a3d 46c5 853d 1432 87bd
00000060: 0892 e4bd ebda b33d ed8c a6ba 49c9 1c3d
00000070: c86f 2fbc 1cd1 2c3d 7ae6 86bd 82f6 4dbd
00000080: efa2 6ebd 8788 033c 8f7a aebd c129 503d
00000090: d3b2 73bc 4f08 e3bd a953 5abd b00a ac3c
000000a0: d501 6e3d 3408 10bd 65d3 0c3d 8b46 24bd
000000b0: ab4b 1f3d facf 6ebd a07d 493d f32d cd3c
000000c0: bc6d b2bd 0adb 6bbd cd32 4f3d c1fa 553d
000000d0: 3299 693d 8ee2 40bd 589a 923c cc4d a33c
000000e0: 5e82 a6bd 0c04 6dbd 2fa9 81bd 6ea3 2a3d
000000f0: c1fa 633b a320 5c3c 5ceb abbd f734 a73d
00000100: 3fd6 9b3d 0522 aabd 46d9 31bd d6a2 0abd
00000110: fe53 183d 9a8c aabc 0c3c 42bd 8ef1 42bb
00000120: ab4c 8cbd 7361 173c 6c94 103d 5dc0 693d
00000130: 54ef cf3c a4fa 7d3d 0e93 d1bc b8d7 173d
00000140: f04b b93d 7af3 0abd a152 a4bd d74a 9ebd
00000150: 2ebf df3b 03cd e138 6d93 ca3b 94e6 80bd
00000160: 9e08 783d 9136 593c 1b90 c2bc 117f 513d
00000170: b2c6 823d 31b8 893d 4b26 943d 18eb fe3c
00000180: 06d7 35bd 0f60 3c3d 0fbb a23d a4f6 813d
00000190: 93d1 f13b c8a2 953c f545 853c 06c4 8e3c
000001a0: 4c08 aa3d c3ea dcbc 0ba2 543c 3f63 603c
000001b0: 9ad8 6e3c ef88 00be 361a ecbc 8927 a33d
000001c0: 771b cfbd b48b afbd 6fd2 ae3a 686c 5fbd
000001d0: 7914 4a3d 6bc2 99bd 2703 3c3d a828 bf3d
000001e0: 943b 16bd 591c 693d 501e 08bd 8a87 143d
000001f0: f837 9e3d 9389 2ebd e079 ae3c 07e9 e7bb
00000200: 68e1 34bd 6052 b8b9 543b 083d ecab a1bd
00000210: dde1 88bc 267e a3bd f85f aabd 9518 cfbb
00000220: ab19 38bd 74ed 25bd 60c0 293d b518 c8bb
00000230: d05c 3dbd 21f1 9c3c 6cf0 bdbc bcd4 a2bd
00000240: a65b d83d 94bb 5fbc b73b b6bd fbaf 37bd
00000250: af8f 90bc acce 38bc 3a75 13bd 65e3 15bd
00000260: 41df 76bc 382c 703d 0fee c5bd ac7f 5b3d
00000270: 404a 233d 27f3 4abd d25b 0fbd ca0a a63d
00000280: c498 b6bb 1dc4 eebd 1a7b 883b 0414 5bbd
00000290: fd6a 42bd 4d2e 5ebd 0311 133c 7caa 653d
000002a0: 40e1 3e3d c96f 95bc 28ff 7abd 162a 4d3c
000002b0: 3fed 203d bb9d b23d 3a53 133d 220d 69bd
000002c0: 8f10 5eb9 9c45 f73b d5de c23c 120c 893d
000002d0: 6aba c6bd 29de 7a3d 9b1d c63c baf2 273d
000002e0: b8e8 663d 1cc4 2abd 3c42 f0bc 4b5e 94bd
000002f0: f4a0 d83d eab5 08bd c974 c23b b04b 9f3d
00000300: d69b c0bc caac b0bc 862e e5bc 6f7c 8a3d
00000310: 7f84 873d 3046 92bd 3a3a 583c ae35 e83b
00000320: 55d1 8ebd 1d79 bebc 034e 16bb 17ec 353d
00000330: 494a 91bd 53f1 b73d 6bd5 753d 3e26 f03c
00000340: 60f2 e63c 7621 ca3b d715 7fbd 928b 913d
00000350: d39b 2c3d a40c 163c c691 3fbd eda6 21bd
00000360: 27ca bb3c be7f 0b3c ef35 013e b29f 1c3d
00000370: b2c2 863c f789 dcbb f380 a23b e6bd 88bc
00000380: dda7 a4bd ea4f c7bd bd5c a93c 3058 aebd
00000390: 2c79 733c 25ad 81bd 5630 6d3d 30c6 bdbc
000003a0: d9a1 5b3d 8e60 6c3c daa3 1f3d fc8d 4b3b
000003b0: cc6f bbbd b6a1 0a3d f417 5cbd ae54 0f3d
000003c0: a44e 0c3b b783 003d e09f 6cbd d35b bd3c
000003d0: 4779 c53c 35ea d1bd 4fe0 c9bd 4d6b 15ba
000003e0: 2b15 5a3c 971d a2bd e701 173d 8b58 b83c
000003f0: 77c9 ec3c 52d7 5ebc 1133 ca3d ba33 953c
-0.028247181 -0.010939318 -0.07336349 0.025294883 -0.044820666 0.10567252 0.07733192 0.03564149
0.062451337 0.024730274 -0.019971775 -0.0094413115 0.092877045 0.0750064 0.02768845 -0.0013157928
0.028778378 0.01729649 0.0127553865 0.014418875 0.02619572 0.053339902 0.065317675 -0.066013485
-0.11160666 0.0878199 -0.0012706794 0.038277898 -0.010707803 0.04219161 -0.06586929 -0.050283916
-0.058260854 0.008028156 -0.0851947 0.05082107 -0.014874178 -0.11085569 -0.05330244 0.02100119
0.058107216 -0.035164073 0.03438129 -0.040106338 0.038890522 -0.05830381 0.04919207 0.025046324
-0.087123364 -0.05758194 0.050585557 0.05224109 0.057030864 -0.04709106 0.017895862 0.019934557
-0.08130334 -0.057865188 -0.06331097 0.041659765 0.0034786912 0.013435516 -0.083945006 0.08164399
0.076092236 -0.0830727 -0.0434201 -0.0338467 0.037189476 -0.020818997 -0.047420546 -0.0029746029
-0.06850561 0.009239542 0.035297796 0.057068218 0.025382675 0.062006608 -0.025582816 0.03707096
0.09047687 -0.033923604 -0.08023573 -0.07729118 0.0068282103 0.000107670225 0.0061821253 -0.06293979
0.060555093 0.013257639 -0.023750355 0.05114657 0.063855544 0.06724585 0.07233866 0.03111796
-0.044394515 0.045990046 0.07945835 0.06345871 0.0073797195 0.018266097 0.01626871 0.017427456
0.08302364 -0.026967412 0.012978087 0.013695537 0.014578009 -0.12552236 -0.028821092 0.07966525
-0.101126604 -0.08571568 0.0013337861 -0.054546744 0.04933593 -0.075077854 0.045901444 0.093339264
-0.036677912 0.0569118 -0.033232033 0.036262073 0.07725519 -0.04261167 0.021298349 -0.0070773396
-0.044160277 -0.0003515659 0.033259705 -0.078941196 -0.016709263 -0.07983045 -0.08319086 -0.006320069
-0.044946354 -0.040509656 0.04144323 -0.006106461 -0.04623109 0.019157948 -0.023185931 -0.07950732
0.105643556 -0.013655562 -0.088981085 -0.044845562 -0.017646639 -0.011279743 -0.036000468 -0.036593813
-0.015067876 0.05863592 -0.09664547 0.053588554 0.039865732 -0.049548294 -0.034999676 0.081075266
-0.0055724103 -0.116584994 0.0041650655 -0.053485885 -0.047465313 -0.054243375 0.008976224 0.05607079
0.046601534 -0.01824178 -0.061278492 0.012522241 0.039288756 0.08721491 0.035968043 -0.05689729
-0.00021177738 0.00754614 0.023787895 0.06691755 -0.097035244 0.061247025 0.024184039 0.041002966
0.05637428 -0.04169093 -0.029328458 -0.072445475 0.10577574 -0.03337661 0.005934332 0.07778108
-0.023511808 -0.021566767 -0.027976286 0.06762015 0.066170685 -0.071422935 0.013197476 0.0070864772
-0.06973521 -0.02325111 -0.0022934682 0.044414606 -0.07094247 0.08981576 0.060017984 0.02931511
0.028191745 0.0061685396 -0.062276687 0.07106699 0.042140793 0.009158287 -0.04676988 -0.039465833
0.022923542 0.008514343 0.1261823 0.038238235 0.01645026 -0.006730314 0.0049592196 -0.016692113
-0.0803983 -0.09732039 0.020674104 -0.08512914 0.014860433 -0.06331853 0.057907425 -0.023165792
0.053621147 0.014427317 0.03897462 0.003105997 -0.09152183 0.033845626 -0.05373378 0.034992866
0.0021409178 0.031375613 -0.057769656 0.023115074 0.024105681 -0.102497496 -0.098572366 -0.0005699888
0.013310711 -0.079158 0.03686705 0.022503158 0.02890466 -0.013601141 0.098730214 0.018213142

conv1_2.bias f4 [16]
00000000: 2850 6b3d 2959 8f3c e8ee 993d 9c27 903d
00000010: fcd4 a63d bc59 a4bd bc67 a0bd a34c 0e3d
00000020: a6c1 ebbc 8aac 933d 520e b23c caf2 5abd
00000030: ce73 e3bc be87 b23b a1d9 e6bc c971 893d
0.05744949 0.01749857 0.07516271 0.07038805 0.08146092 -0.08024928 -0.07832286 0.034741055
-0.028778862 0.072106436 0.021735344 -0.053454198 -0.02776518 0.0054483106 -0.028179945 0.06711156

bn1_2.weight f4 [16]
00000000: d930 7b3f 0f2a 853f 4820 8a3f 6050 753f
00000010: 6002 823f d77d 9c3f c222 8b3f 897c 733f
00000020: 47fb 803f 697e 863f 64c6 823f f262 843f
00000030: f77f 813f 3a7c 893f ebf8 883f 8b4c 8d3f
0.9812141 1.040346 1.0791101 0.9582577 1.0156975 1.2225903 1.0869982 0.951119
1.0076684 1.0507327 1.0216794 1.0342696 1.0117177 1.0741036 1.0700964 1.1038984

bn1_2.bias f4 [16]
00000000: 0455 5d3a 33e3 86bc 8178 9c3d 33b4 05bd
00000010: 4e56 00bc 91ea 3b3c d548 7f3d f72b d5bc
00000020: 938f 8b3c 2c23 6e3d ba98 cd3b 5303 7b3d
00000030: 9a1c db3c e63a 123d 9ef9 98bd 1946 133d
0.0008443149 -0.016465759 0.07640172 -0.032642554 -0.007833077 0.011469499 0.062325317 -0.02602194
0.017036235 0.05813901 0.00627431 0.061282467 0.026747037 0.0357007 -0.07469486 0.035955522

bn1_2.running_mean f4 [16]
00000000: e55b c83d f4cf 9ebd ddd1 e5bc 55cd 1f3e
00000010: 7871 9b3d e8d3 1dbe 08fa 2ebe c6f2 a4be
00000020: ee01 80be ddf1 00be 3840 5dbe 7b3e 80be
00000030: cfac ecbe 8b6d 08be 7175 d9bd 2e43 f1bd
0.097831525 -0.07754508 -0.028054172 0.15605672 0.07590002 -0.15412867 -0.17087567 -0.3221647
-0.25001472 -0.12592264 -0.21606529 -0.2504767 -0.46225592 -0.13323037 -0.10618103 -0.11780392

bn1_2.running_var f4 [16]
00000000: a1cd f83e 8260 143d 136c e03d af87 323e
00000010: c78c 933d a3f2 ac3d 6396 773d 2e85 d23e
00000020: ff29 253e e4c8 073e b2e6 e63d ec3a b53d
00000030: 362c 723d 083e 763d 35ca 223d a5ad 4b3d
0.48594382 0.03622485 0.109581135 0.17434572 0.072045855 0.08444717 0.060446154 0.41117233
0.16129301 0.13260227 0.112744704 0.08849129 0.059124194 0.06011775 0.03974362 0.049726147

conv2_1.weight f4 [32, 16, 3, 3]
00000000: dfb0 7cbd 0641 30bd b10b 1f3d 78e9 6d3d
00000010: 5620 193d 3a95 61bd 6d5c 4dbd 7537 333d
00000020: 079e 923d 7a23 e13c 2998 8fbb ce5f bcbd
00000030: 48d1 07bd 88e5 753d ec85 8ebc 8604 9bbd
00000040: 1fe9 1ebd ba1a c2bc c34d c6bc 823b 6e3d
00000050: cecd 3e3d c7e9 273d 0e4c b63c d96b 83bd
00000060: a588 ec3d c1c5 803d e9c8 ddbc 811c 32bd
00000070: c044 83bc 7ae1 e83c 8808 8c3d b405 5cbc
00000080: cd80 f2bb ba6c 703d 9651 89bc 9d23 26bc
00000090: 499d bf3d 61d9 09bb 2ab6 f7bc 6c27 2c3d
000000a0: 11b6 2d3d 7336 d03d 7f06 87bc 67c5 0dbc
000000b0: 1cc0 173d e3c4 463d 96f5 88bd 5fed c1bc
000000c0: 0acd 21bd ad31 7ebc 1f78 57bd 0cfd 09be
000000d0: b659 9dbd c3d5 d23c 0283 31bc 57a1 debc
000000e0: d850 e3bb 5d24 99bd 600b 1d3d 654e ae3c
000000f0: a16e 8e3c 9a52 323d 6f75 a73d 2e1c 54bd
00000100: ff34 23bd feed 6cbb 20d7 de3b 08b9 8fbd
00000110: eda5 9dbd e900 45bc 9f97 293d dde5 233d
00000120: d461 6f3d 2ca9 5d3d 327d 82bd 35ca 83bd
00000130: c7d3 c6bd 2797 8ebd efaf a63c 4581 80bd
00000140: 63c3 563a 6221 e7bc 25cc 94bc cdc4 823d
00000150: 8f5d c6bc c01f 8b3d c048 763d 4ce0 8b3c
00000160: 2f41 993d 34f1 25bd 5075 38bd 72a9 323b
00000170: b8a6 8ebd 8466 593d 21d8 09bd 73b5 913d
00000180: c662 733c 2823 59bd 2988 983d 410a ecbc
00000190: f269 793c 069c b03d ee7a 3c3d 7474 183d
000001a0: 8e01 193c ed04 f23c a120 10bd fdd0 053d
000001b0: f304 1c3d e3d2 093d 0548 e63a 8f98 63bb
000001c0: 8ee5 3b3c 1e6b f7bc 89de b63d 926f 8bbc
000001d0: 2465 793d 0b4c 92bc d978 87bd a141 95bd
000001e0: cddc bc3d ac08 34bd 5f27 273d 9216 81bc
000001f0: 4684 0bbd 7206 e2bc 9110 72bd ba68 03bd
00000200: 7d4b 253d 4fd0 1dbd 2821 7fbd d664 7b3d
00000210: b0fa 39bd 6435 fcbc b0f5 993c 5b48 d03d
00000220: ef80 383d 310b 6fbd 40bd a03d 9680 66bd
00000230: 25d1 f63c c657 98bc 77b1 4f3d 4030 793c
00000240: ec2e 0d3d d633 ad3c 96a1 793d 720a b6bd
00000250: eb4a 3f3b c1da 193d 9b65 e73c 2bb5 92bd
00000260: cc37 863b b427 3ebd 0d22 e0bd a5fe a4bc
00000270: 110c 413d 503a c5bd ae58 e1bd 7810 dc3c
00000280: af73 bf3c 5c14 0cbe 6f03 aa3d e8c2 993d
00000290: 2cd4 f33d 8cb1 26bd fdce 663d 24f1 903d
000002a0: af6c 46bd 3dd7 883d 6c39 c23d 1dcb 053c
000002b0: f07d 1fbd 76a1 99bc 8f04 6c3d d70b a73c
000002c0: 14e5 31bd 23c9 b8bd d03c dbbc 0f2d 5b3d
000002d0: cbce 4338 880c a0bd d934 d83c 761d a83c
000002e0: a159 27bd 48d6 3abd 488c c43c e607 7d3d
000002f0: 93dc 453d f110 aebd 3595 a9bc 9185 9dbd
00000300: c586 3fbd 1f13 fa3c 9ce5 f4bd 58b9 03bd
00000310: 71d7 303d bcd0 de3a 4e77 7fbd 1a10 bdba
00000320: 2448 d3bd 3051 13bd 5b64 023d 1719 7abd
00000330: 36bf 513d c77c 9c3c 91cf 7cbd a4ab eabc
00000340: 2a02 32bd 7f4f df3c 2cc4 85bd 2f63 ed3c
00000350: ccf4 1f3d d59f 5d3d a3a8 a03b fe20 2d3d
00000360: 6789 9bbb 48c4 43bc 207a 2e3d 02e4 893b
00000370: fc87 22bc 5bfc a9bd 6353 52bd 4971 043d
00000380: 5b39 503c a045 c53d cf62 7ebd e53d fd3c
00000390: 2329 26bc 1c39 5ebd d8b5 47bc 8071 423b
000003a0: fbc7 a7ba 99a9 abbb 8a48 00bd 0652 913d
000003b0: 29bf 373b c991 c13d 178e 7cbd f742 2c3c
000003c0: fb7c b83d a959 07bc 41c5 a53c 689b a5bc
000003d0: b604 c6bc c39c a03b 16e9 21bd 3462 21bb
000003e0: 9e7b 38bd 5824 cd3d 03b9 a93c 29e5 413c
000003f0: 3e04 8f3d d651 6cbd d713 03bd 3799 4bbc
-0.061692115 -0.04303076 0.03882951 0.05808398 0.037384354 -0.055073954 -0.050136972 0.04375406
0.071590476 0.027482737 -0.0043821526 -0.09197961 -0.03315857 0.06003335 -0.017397843 -0.07569222
-0.03879654 -0.023694385 -0.024207002 0.05816222 0.04658299 0.04099443 0.022253063 -0.06417055
0.115495004 0.062877186 -0.02707334 -0.043484215 -0.016023993 0.028427828 0.06837565 -0.013429094
-0.007400608 0.05869744 -0.016762536 -0.010140327 0.09356172 -0.002103411 -0.03023823 0.042029783
0.04240996 0.10166635 -0.01648259 -0.008653021 0.037048444 0.04852761 -0.06687467 -0.023672758
-0.03950218 -0.015514773 -0.05260479 -0.13475436 -0.07683127 0.025736695 -0.010834457 -0.027176542
-0.0069371276 -0.07477639 0.038340926 0.021277616 0.017386736 0.043535806 0.081766956 -0.051784687
-0.039845463 -0.0036152597 0.0068005472 -0.07017714 -0.076976635 -0.012024143 0.041404363 0.040014137
0.058442906 0.054116413 -0.06371535 -0.06435052 -0.09708362 -0.06962424 0.020347564 -0.06274656
0.0008192567 -0.02821416 -0.01816375 0.06385193 -0.024214534 0.06793165 0.060127974 0.017074727
0.07483136 -0.040513232 -0.045033753 0.0027261642 -0.06965393 0.053076282 -0.033653382 0.07114687
0.014855092 -0.053012043 0.074478455 -0.028813483 0.015223013 0.08623509 0.046015672 0.037220433
0.00933875 0.029543364 -0.035187367 0.03267001 0.038090657 0.033648383 0.0017569071 -0.0034728383
0.011468304 -0.030202445 0.08929164 -0.017020974 0.06088747 -0.017858526 -0.06614847 -0.07287908
0.09221802 -0.043953583 0.04080903 -0.015757833 -0.034061693 -0.027590964 -0.05909783 -0.032082297
0.040355194 -0.038528737 -0.06228748 0.06137546 -0.04540509 -0.030787177 0.01879391 0.10170051
0.045044836 -0.058360282 0.078485966 -0.056274973 0.030129025 -0.018596541 0.050706353 0.015209258
0.034468576 0.021142881 0.060945116 -0.08888711 0.0029188942 0.037562136 0.028246691 -0.07163461
0.004096007 -0.046424583 -0.10943995 -0.020140955 0.047130648 -0.09630263 -0.110032424 0.026863322
0.023370592 -0.13679641 0.08301436 0.075078785 0.11905703 -0.040696666 0.056349743 0.07077244
-0.048443493 0.066816784 0.094836086 0.008166102 -0.038938463 -0.018753748 0.057621535 0.020391388
-0.043431357 -0.09022739 -0.026762396 0.053509768 4.6684214e-05 -0.0781489 0.026392387 0.02052186
-0.04085696 -0.04561451 0.023992673 0.06177511 0.04830606 -0.08499325 -0.02070103 -0.076914914
-0.046759386 0.030526696 -0.11957857 -0.03215918 0.04317421 0.0016999464 -0.062369637 -0.0014424354
-0.10316494 -0.0359661 0.031833988 -0.061059084 0.051207744 0.019102467 -0.06172139 -0.028646298
-0.043459095 0.027259586 -0.065315574 0.028977958 0.039051816 0.054107506 0.0049029156 0.042267792
-0.0047466042 -0.011948653 0.042596936 0.004208089 -0.0099201165 -0.08300086 -0.051349055 0.0323346
0.012708987 0.096324205 -0.06210595 0.030913303 -0.010141644 -0.054253682 -0.012189351 0.0029669702
-0.0012800688 -0.0052387235 -0.03131918 0.07095723 0.0028037524 0.094516344 -0.061658945 0.010514013
0.09008213 -0.008261123 0.02023566 -0.020215705 -0.024172168 0.0049015 -0.03952893 -0.0024625184
-0.045039766 0.10016698 0.020718103 0.011834421 0.06983231 -0.057695232 -0.032001343 -0.012426666

conv2_1.bias f4 [32]
00000000: 9fbf 493c 7cc1 903d a8c7 86bd 0ce5 c23b
00000010: 1d44 fcb9 8877 0f3d d0ca 5d3d c226 3abd
00000020: 17b7 193c b56e e2bb 364f 8b3d 69a1 823b
00000030: 6580 35bd 2bf7 ca3c 5d6f 993d 79d2 f73c
00000040: 86cf 493d f7d3 8d3c cc10 573d 6060 3f3c
00000050: e23d 33bd 78fb 4b3c 1d39 ddbb 4311 6abc
00000060: a248 e33b b8d3 1c3d e42e 4a37 37af 9e3d
00000070: fffc cdbc 0c9c bd3b 3e33 92bd ed06 18bd
0.012313752 0.07068154 -0.0658105 0.0059477147 -0.00048115934 0.035026103 0.054148495 -0.04544712
0.009382031 -0.00691017 0.06802218 0.0039865267 -0.0443119 0.024776062 0.07491944 0.030251728
0.049270175 0.017312987 0.052506253 0.011680692 -0.043760188 0.012450092 -0.006751193 -0.014286342
0.0069361487 0.03828785 1.2051056e-05 0.07748263 -0.025145052 0.0057864245 -0.0713868 -0.03711598

bn2_1.weight f4 [32]
00000000: 2b24 7d3f c3f9 7c3f 298e 723f b146 793f
00000010: cfa7 7a3f 586c 7c3f ac2a 773f df95 783f
00000020: e1aa 723f 9690 7d3f d8a8 6b3f 2bb1 753f
00000030: a5d9 783f a136 6c3f a26e 753f d0f8 793f
00000040: 500e 783f a696 723f 9ce7 713f 9bdb 6e3f
00000050: 0896 743f 9723 763f a9b5 703f 0fed 733f
00000060: 6bb6 703f ea05 713f 98cf 723f bd32 7c3f
00000070: cc9a 6c3f bb38 6d3f e008 7f3f d8ed 7c3f
0.9888331 0.98818606 0.9474817 0.9737349 0.97912306 0.9860282 0.9654949 0.97103685
0.9479199 0.99048746 0.9205451 0.9597346 0.972071 0.9227086 0.9587194 0.9764528
0.9689684 0.9476112 0.9449403 0.9330384 0.9554143 0.96148056 0.9402719 0.952836
0.9402835 0.9414965 0.9484801 0.9851492 0.924237 0.9266469 0.9962292 0.9880042

bn2_1.bias f4 [32]
00000000: 0234 303d 3e4e 88bc bbe6 04be ed13 91bd
00000010: bc7d 55bd 096f 94bd 46ea 4ebd 2b00 e13b
00000020: 8450 3dbd 6585 9dbd 5b6b bcbd 2e0e b4bd
00000030: 04ae 13be 452f aebd ca83 f3bd ec00 bdbc
00000040: 91e5 aebc 2e45 c3bd b2f7 05bb 9698 d3bb
00000050: 2c27 3dbd 2bc0 4cbd a64d a93c cc54 57bd
00000060: 53cd 9cbc f0f3 33bc 8ac0 84bd 0684 b8bc
00000070: ef52 72bd 10a8 91bc 6ad3 c3bc 4e64 89bc
0.04301835 -0.016638871 -0.12978642 -0.07083879 -0.052121863 -0.07247741 -0.05051639 0.006866475
-0.046219364 -0.076914586 -0.09200164 -0.08791767 -0.1442185 -0.0850511 -0.11890371 -0.023071729
-0.0213497 -0.09534679 -0.0020441827 -0.0064573986 -0.046179935 -0.049987953 0.020666908 -0.052571103
-0.019140875 -0.010983452 -0.064820364 -0.022523891 -0.059161123 -0.017780334 -0.023904521 -0.016771462

bn2_1.running_mean f4 [32]
00000000: f9da 4c3e 1a7a bf3d 0d52 b9be fc30 6dbe
00000010: ebba 1fbf c2b5 10bf 1365 c33d 7570 d8bd
00000020: a6fb 76bf 4568 2abc 674a 773f 51f4 183f
00000030: e0fe 3bbf 62c9 553f 70ad 3f3e 54ab 753f
00000040: 991b 903f f3ae a3be 1853 613f 3584 efbf
00000050: 8244 a93d f5ff 90bd 78a7 cdbf 719b 373e
00000060: c5d7 10be 569f a4bf 2c84 8dbf da79 0d3e
00000070: ce59 cfbf e159 e03e dbce 8ebd baf3 523e
0.20005406 0.09349461 -0.36195412 -0.23163217 -0.6239459 -0.5652734 0.09540763 -0.105683245
-0.96477735 -0.010400836 0.96597904 0.597478 -0.73435783 0.8351041 0.18718505 0.9596455
1.1258422 -0.31969413 0.88017416 -1.8712221 0.0826502 -0.0708007 -1.6066732 0.1793039
-0.1414481 -1.2861125 -1.1055961 0.13816014 -1.6199281 0.43818572 -0.06973048 0.20600787

bn2_1.running_var f4 [32]
00000000: 512d 9a3e e048 c53e 6f64 9d3e 8217 383e
00000010: 7214 bf3e bbf9 b63e bd3b 963e 5243 953e
00000020: 569f 303f de52 0f3f 990d 0c3f 01b6 983e
00000030: 73b0 633e 6088 e43e 61d7 783e 9e8a 563f
00000040: 9c99 8f3f 5938 9d3e 944a 213f 53cb b93e
00000050: 8daa 763e 77a7 863e 6c4f a23e 94bc 9d3e
00000060: 759c 093f 46b3 b73e 853b e63e 11d9 333e
00000070: bb65 1b3f 5f1f 603e 7fc2 943e 118e 963e
0.301127 0.38532162 0.30740687 0.17977718 0.37320286 0.35737404 0.29342452 0.29152924
0.6899313 0.5598582 0.5470825 0.29826358 0.22235279 0.44635296 0.2430091 0.83805263
1.1218753 0.30707052 0.6300442 0.36287937 0.24088497 0.2629964 0.3170122 0.30807936
0.5375436 0.35878962 0.44967285 0.17563273 0.60702103 0.21886967 0.2905464 0.29405263

conv2_2.weight f4 [32, 32, 3, 3]
00000000: 423e 88bd 90f5 cf3c 8f94 f2bc 896c 57bc
00000010: a473 82bc 1274 7e3d 4c5d 773c 14cd 9fbc
00000020: a56e ba3c 5054 abbc e409 9abc 03f3 d8bc
00000030: c348 74bc 9870 243d e888 d3bc 3d38 88bd
00000040: ce17 ee3c 1af5 b03c da12 023d e44f e13b
00000050: 03f8 f73c af4d f13c 7488 cbba 162b cf3c
00000060: 53d5 0fbd 85fa 4bbc 962a 90bc 3d07 d3bc
00000070: 91ff 413d e251 02bd 5bd0 743d 5a39 3fbc
00000080: ee45 e93c 0c6d 953d 0d77 673d 14d7 813c
00000090: bb56 ec3c ecfd c13b 584a 8cbd a857 cd3b
000000a0: 426e ed3c 71b1 6fbd 1675 3fbd 728f 4ebc
000000b0: 8403 81bd ca4a ecbc 2c18 7dbd 0674 7c3b
000000c0: 215c 123c 695e e3bc cc17 153c 969c 33bd
000000d0: 099e a4bd a489 9abc 3867 8cbc 801f 5eba
000000e0: 6def 84bc eaa0 473d c3ef 913b d542 19bc
000000f0: d4e1 443d d500 373d 772f 263c 879f a0bd
00000100: c205 513d 829a 4bbc 571c 3dbc 06aa 863b
00000110: 5ca3 6abd 6b5e bcbc e2fe c8bc debe 163d
00000120: eda4 13bc 4370 8f3c 21f5 2d3d 34b5 febc
00000130: a695 c43b b00e 01bd 0710 b03c 4a3a a6bd
00000140: 0403 31bc 70e6 7b3d 060d b23c 8f3d 1c3d
00000150: 845b 333d c7d6 0d3d d2a2 3d3d ef72 423d
00000160: 08dd a9bb 907f e3bc 4026 e63c afa4 3b3d
00000170: 8028 4d3c de8c 50bc 80ac e938 887d 99bc
00000180: 354d 83bd c30a bdb9 2029 a7bb 9bb1 2cbd
00000190: 8dad 403d 9a11 84bc 0d26 4c3d 60cb 2cbd
000001a0: ad52 163d 2e6e 46bd 76a7 603c c2d0 fa3b
000001b0: 8147 a6bc 5a52 713d 6f35 b73c bd3e 1d3a
000001c0: 49df 103d 3529 e0bc 44f5 833d 42e9 9e3d
000001d0: ba94 943c 33b8 d13c 0dec 893c 69d0 193d
000001e0: af04 973d fc77 db3c eb17 383d e816 9cbc
000001f0: eaee 0b3d c825 173c cfd5 c83c 4003 1c3d
00000200: 1130 453d 36c9 da3d 0d99 553c a4c6 7fbb
00000210: 9488 a33d 5ae4 683d a3ad 223a 8181 bebd
00000220: 8268 363c 7779 50bd 2edc 3dbd 5d11 5ebd
00000230: b842 3f3c 2d80 35bd 575b 3a3d 4bb2 68bd
00000240: 6eda 71bd 164e 433a ee20 993c c244 26bd
00000250: e945 1abd b46e babb 3b14 85bc 748f 0fbd
00000260: 12ce 55bd 5777 58bd 5ec7 5ebc 5eab 03bd
00000270: 8f32 ddbc b7b8 923c f0c8 293d 2e1a 4b3b
00000280: 9e94 553b 09ea d3ba c3d6 1abd 8e21 76bc
00000290: b89d 033d 436e 10bc e359 a9bc 2e61 f7bc
000002a0: fa81 793d d6b7 c1bc bf1a 5abc 54ee 42bb
000002b0: d130 5abd 514d 4bbd 451d 3d3d dcfa 6c3d
000002c0: 1c40 86bc de93 36bd b6f7 1bbd b2d3 183c
000002d0: 86df 32bd d3e5 84bd ff0f 95bd 6f4a 4bbd
000002e0: bb04 c7bc 81d7 95bd 432c bf3c b176 44bd
000002f0: aee8 82bd 5fa5 de3c 2974 d9bc 8491 62bd
00000300: e31b 903c 0d4b 383c 2978 59bd 0d2a 8b3d
00000310: 4cf2 57bd 934d 39bc 2cbc f9bc b37b 37bc
00000320: fc86 243d 117c ac3c 205f edba a032 02bd
00000330: 9885 03bd 1aa6 a33c 03c7 d23c bc8a e6bc
00000340: beaa 8bbd fea5 89bb 8794 023c c50a 98bd
00000350: 27b1 62bd 5ce9 c9bc 79b2 373c 8430 cbbc
00000360: 32d4 ed3c c91f f73b 8813 cfbc 98ea 3d3c
00000370: dc23 61bc e647 94bc 1d06 24bc df76 043d
00000380: 0165 4bbd cc19 c53b ea85 9d3d ce0d 8c3d
00000390: bf11 653d f333 ec3b e1ba f0bc 486d af3c
000003a0: 1627 293b 8abf a7bc c523 6d3d 2cd4 f73c
000003b0: 68c6 d03c f044 d13c 1db4 04bd 33b0 c73c
000003c0: 3424 b3bc 6bcd ad3c 6662 b4bc c0e7 d73b
000003d0: 2745 64bd 9b1a 40bd 4b58 933c 888b b5ba
000003e0: fa6b f6bc 6ca4 95bc 97ee 82bc 0079 07bb
000003f0: 45ea 84bd 7805 8abd b147 2b3d a668 11bd
-0.066525 0.025385648 -0.029611854 -0.013148435 -0.015924282 0.062122412 0.015097927 -0.019506969
0.022757838 -0.020914227 -0.018803544 -0.026483065 -0.014909926 0.04014644 -0.025822118 -0.066513516
0.029064085 0.021601249 0.03175626 0.006875979 0.030269628 0.029455988 -0.0015528337 0.0252891
-0.03511555 -0.012449865 -0.017598432 -0.025760287 0.047362868 -0.03181637 0.059769016 -0.0116713885
0.028475728 0.0729619 0.05651002 0.015849628 0.02884995 0.0059201624 -0.068501174 0.006266553
0.02898324 -0.05851883 -0.04674252 -0.012607442 -0.06299499 -0.028844256 -0.06179063 0.0038521304
0.008933098 -0.02775498 0.009099912 -0.043850504 -0.08037955 -0.01886446 -0.017139062 -0.0008473322
-0.016227448 0.048737444 0.0044536307 -0.009354313 0.04806693 0.044678528 0.010143152 -0.078429274
0.05103088 -0.012426974 -0.011542401 0.004109624 -0.057284698 -0.02299424 -0.0245356 0.03680312
-0.009011489 0.017509585 0.0424701 -0.031092264 0.005999285 -0.031508148 0.021492017 -0.081165865
-0.010803942 0.06149906 0.021734726 0.038144644 0.043788448 0.034628656 0.046297856 0.04747289
-0.0051838197 -0.027770787 0.02809441 0.04581135 0.012521863 -0.012728898 0.000111424364 -0.018736616
-0.064112104 -0.00036056907 -0.005101338 -0.042161565 0.04704051 -0.016121674 0.049840976 -0.04218614
0.03669994 -0.04844492 0.013711801 0.0076542804 -0.020297768 0.058916427 0.022364346 0.00059984234
0.03536919 -0.027363399 0.06443265 0.07759334 0.018137325 0.025600528 0.01683619 0.03755227
0.0737394 0.026790611 0.044944685 -0.019053891 0.034163393 0.009225316 0.024516014 0.038089037
0.048141543 0.10682909 0.013036978 -0.003902831 0.079850346 0.056858398 0.00062056835 -0.09302045
0.011133315 -0.050897088 -0.046352558 -0.054215778 0.011673622 -0.04431169 0.045497265 -0.05681066
-0.0590462 0.00074502954 0.01869246 -0.040592916 -0.037664328 -0.0056894664 -0.016244998 -0.035048917
-0.052198477 -0.052848186 -0.0135973375 -0.03214585 -0.027001647 0.017910345 0.041451395 0.0030990946
0.0032589803 -0.001616777 -0.03780247 -0.0150226485 0.032132834 -0.008815351 -0.020672744 -0.030197706
0.06091497 -0.02364723 -0.013312041 -0.0029744105 -0.05326921 -0.04963428 0.04617049 0.057856426
-0.016387992 -0.04457461 -0.038078032 0.009327816 -0.0436702 -0.06489148 -0.07278442 -0.049631532
-0.024294248 -0.07316495 0.023336535 -0.047964755 -0.063920364 0.027178464 -0.026544647 -0.055314556
0.017591422 0.011248362 -0.05309311 0.0679513 -0.052721307 -0.011309999 -0.030485235 -0.011198926
0.040167794 0.021055253 -0.0018110014 -0.03178656 -0.032109827 0.019976664 0.025729662 -0.028142326
-0.06819676 -0.004200696 0.007969982 -0.07423929 -0.055344727 -0.024647407 0.011211985 -0.024803407
0.029031847 0.007541631 -0.025277868 0.011591576 -0.01374146 -0.01810069 -0.010011223 0.032339927
-0.04965687 0.006015038 0.07691558 0.068385705 0.055925127 0.0072083413 -0.029385986 0.021414414
0.002581065 -0.020477075 0.05789544 0.030252539 0.025485232 0.025545567 -0.032398332 0.02437601
-0.021867849 0.021216115 -0.022019576 0.006588906 -0.05573001 -0.046900373 0.017986437 -0.0013850788
-0.030080784 -0.018266879 -0.01598291 -0.0020671487 -0.06489996 -0.06739324 0.041816417 -0.03550019

conv2_2.bias f4 [32]
00000000: 48a6 84bc e349 81bc a188 673a aa16 55ba
00000010: 6e22 68bd 6ef6 bd3c 3523 633d 3bdf a3b9
00000020: e0d8 47bd 6fe4 e4bb 99d2 e13c 950e d63c
00000030: 2fc0 edbc b089 21bd 11bd 69bc f2c8 083c
00000040: fb77 4d3d 27a6 de3c 49ed 1ebd 242f 0e3d
00000050: 0bb6 49bd 9e33 15bd e424 c93b 99dd 4cbb
00000060: 7633 5ebd ac0b 383d 7583 1bbc cefb d2bc
00000070: 30c5 e03c 0194 2b3d 023d 3e3d b570 1b3d
-0.01619257 -0.015782302 0.000883231 -0.00081286824 -0.05667346 0.023188796 0.055453498 -0.00031256102
-0.048790812 -0.006985239 0.027566241 0.02613 -0.029022304 -0.03943795 -0.014266268 0.00834869
0.05016325 0.027178837 -0.03880051 0.034712926 -0.049245875 -0.03642618 0.006138431 -0.0031260012
-0.054248296 0.044933006 -0.009491791 -0.025754835 0.027437776 0.041889194 0.0464449 0.037949283

bn2_2.weight f4 [32]
00000000: eff3 833f c795 863f 419e 843f 701e 9b3f
00000010: ca96 8a3f 36b4 823f b9db 9c3f b930 8e3f
00000020: cbca 833f aec7 823f 546a 803f 921f 7f3f
00000030: 0e66 8e3f 8017 923f be12 ac3f a87c 883f
00000040: 8bc7 853f 61e0 8e3f eea9 803f fb43 9c3f
00000050: 8b07 8c3f b078 823f 9e4c 9a3f 561c 8c3f
00000060: 18df 8c3f bd9a a93f 58ae 903f f1b3 913f
00000070: 713a 883f 562e 9a3f a1d2 863f 8f6f 8a3f
1.0308818 1.0514458 1.0360795 1.2118664 1.0827267 1.0211246 1.2254554 1.1108619
1.0296263 1.0217187 1.0032449 0.9965755 1.1124895 1.1413422 1.344322 1.0663042
1.0451521 1.1162225 1.0051858 1.2208246 1.0939802 1.0193081 1.2054632 1.0946147
1.1005583 1.3250347 1.1303205 1.1383039 1.0642835 1.2045391 1.0533029 1.0815295

bn2_2.bias f4 [32]
00000000: d4ca 1ebd b329 bfbc f191 36bc a8a5 babb
00000010: da29 ac3c 61a8 f83a e2a7 883c 2319 00bd
00000020: ad08 25bc c6fc 0dbd 324e 0bbd 89be fb3b
00000030: 2350 28bc ad35 ae3d 29de e6bd 8eb1 f4bb
00000040: 0aa5 4cba 2ab1 00bc 5992 84bc 12b5 983d
00000050: 317e 153c aaa4 2ebc 4a67 78bd ba02 0d3d
00000060: 7746 613d e726 91bd 2622 73bd 3678 8cbd
00000070: 9955 aebb 9ebb 103c 81ff adbc 0238 66bd
-0.03876765 -0.023335313 -0.011143194 -0.0056960173 0.02101605 0.0018971079 0.016681615 -0.031273972
-0.010072869 -0.03466489 -0.03401012 0.0076826257 -0.010273012 0.085063316 -0.112728424 -0.007467455
-0.0007806575 -0.007854739 -0.016183065 0.074564114 0.009124325 -0.010659376 -0.06064538 0.03442643
0.05499884 -0.07087498 -0.05935874 -0.06858866 -0.0053202626 0.008833794 -0.021239998 -0.056205757

bn2_2.running_mean f4 [32]
00000000: 108e 9cbe 530d 3fbf 1108 dcbe cace e93d
00000010: c571 91be 380c 2e3e fd10 7dbe 96f8 09bf
00000020: 929e 39be bd2c b83d d4ae 99bc c85c 10bc
00000030: 447d 7b3d dcf9 7ebf 2e4e 0e3d 09b6 d3be
00000040: ebe9 9f3e 92af af3e 2280 fe3e 14d5 3bbe
00000050: a763 85bd 7360 1cbe ec7a f23e 05f8 89be
00000060: 9239 91bd 5207 51be 83a8 8b3d 648e 863e
00000070: 8f66 afbd 5bae 9abd bac5 a6be 7d79 d73d
-0.30577135 -0.74629706 -0.42974904 0.11416395 -0.28407112 0.16996849 -0.24713512 -0.5389494
-0.18126896 0.08992908 -0.018760122 -0.008811183 0.06139876 -0.99600005 0.034742527 -0.4134982
0.31233153 0.34313637 0.49707133 -0.18343002 -0.06513148 -0.15271167 0.47359407 -0.26947036
-0.07091059 -0.20412949 0.068192504 0.2628051 -0.085644834 -0.07552787 -0.32572728 0.10521219

bn2_2.running_var f4 [32]
00000000: fcac 363e 9deb 2b3e 271b 4a3e c54b e73d
00000010: 0104 ea3d 0ca4 453e 3fa2 283e acbf ee3d
00000020: 3b85 473e 700d 273e 9e3a f53d 19c1 2b3e
00000030: 5f57 4b3e 3bf7 5e3e eddf 0f3e c105 2a3e
00000040: d4ec 3a3e 0843 003e f851 2b3e 646d 013e
00000050: ef74 123e 272a 6e3e 35e0 193e a930 123e
00000060: 61df 033e 92ef fa3d 06d7 2b3e 8ca2 1a3e
00000070: 9b44 203e a412 2f3e 1147 133e ae77 ff3d
0.17839426 0.16789098 0.1973692 0.11293749 0.11426545 0.1930086 0.16468142 0.11657652
0.19484417 0.1631372 0.11974071 0.1677288 0.19857548 0.21773998 0.14050265 0.16603757
0.18254405 0.1252557 0.16730487 0.12639385 0.14302419 0.23258267 0.15026934 0.14276375
0.12878181 0.12252726 0.16781244 0.15101069 0.15651171 0.17096955 0.14382578 0.12473999

conv3_1.weight f4 [64, 32, 3, 3]
00000000: ff2a 333d 98eb 603d dadf f8bc 6916 eebc
00000010: 56cf b03c 8605 3ebd e081 a1bc 41d0 02bd
00000020: fb92 0c3d e6b8 e6bd ed73 02bd b076 34bc
00000030: 0d29 91bd 5949 9bbd 2345 ccbb 3665 8ebd
00000040: cc9b 0c3d f792 3ebc f587 62bd 2c9e 49ba
00000050: a1d8 80bb 8916 33bd 07b3 9b3c 16a3 df3c
00000060: c35e 473c 6e80 12bd c441 803d f3b3 083b
00000070: a432 fe3c b9bd c83c 2b5a d93c 197f 06bd
00000080: 8df4 4b3c d5f2 4b3d ab1e 263d a839 f53d
00000090: ed08 2fbd 3b77 c4bb fbe6 6cbd 3602 50bd
000000a0: 3cd9 013b 7730 bf3d dd11 303d 87fd bd3c
000000b0: 3c68 4cbb 62a4 ee3c 22c3 c73c 393c 4ebb
000000c0: 1f5c 2d3d fd74 5abb fbd3 18bd 4ac4 2e3c
000000d0: ba2f a43d 8048 b53d 9dd9 8f3d ac27 853c
000000e0: 6b94 623c c573 ce3d 3870 38bd 4816 433d
000000f0: 68a5 803d 6b2d 1dbd 72a1 babc 249e bdbd
00000100: eddd 39bd 627d 02bd 1d28 5dbc c3dd 1a3d
00000110: 5f91 48bc 11cc 493c ebcc 2bbd 13fa 36bd
00000120: 8084 88bc 9513 9bbd 7871 273d ffc9 65bc
00000130: a604 29bd c067 073d 6b9e bcbd cecc 87bd
00000140: a562 f63b 92e3 94bb a18b ab3c 364e 5cbc
00000150: 3389 803d 4d67 593d 084f b8bc e8c8 b6bb
00000160: b618 573d 56e6 28bd 6154 3bbd fd26 d13c
00000170: d018 57bd 1d28 823b 5291 fd39 bb98 163d
00000180: dfcc 583d f07c ec3a d4f9 22bd 05d3 44bc
00000190: d966 13bc 438b f2b9 5ade 303c 505e 1cbd
000001a0: f5f0 47bc 086a c6bc 21c8 dcb9 3ff4 5b3c
000001b0: 7230 833d f392 c0bc c916 2c3d 6602 dc3c
000001c0: d1b9 87bd b7e4 3a3c 01e7 333d e890 e4bb
000001d0: 4c57 cf3c 0979 1b3d c4d9 93bc 0563 13bc
000001e0: 6de9 7a3d 5634 973c d075 343b 80a9 f83c
000001f0: 250c b6bc 6884 7d3d badb 9abb ea61 1c3d
00000200: 51f6 223d 8d57 1b3d 4c24 9bbd 79e2 543d
00000210: 7c97 c23b 15e8 b33c f62f bbbc b558 72bd
00000220: a6c4 46bd 4711 5ebc 3e14 b8bd 81c6 83bd
00000230: 5b65 5ebd 12ff 2cbd 744c 8abd 362c 0e3d
00000240: b155 ce3c cd6c 84bd e7c2 983d 5197 93bd
00000250: 9854 7dbc e8bb 4b3c 0336 edbb 5c6f f5bc
00000260: f725 623d 7e91 733d 14bb 8fbc 2bb5 873d
00000270: 2e1c 843b 1fd0 283c 7ae5 5b3c cb1e c83d
00000280: b8e2 28bd 6766 65ba 970d 28bd 9697 7a3c
00000290: 91af aeba 5d5d f5bc 1d01 abba f36b 23bc
000002a0: 4e45 993b f346 b73c 2d41 a23d 4212 023d
000002b0: 8127 143d 478b 463d c903 c9bc a5e5 43bd
000002c0: 4092 a2ba cf2a 83bd 8d16 db3c 2db0 c43b
000002d0: ac97 f33d 41d6 fbbc 7074 143d fc89 a1ba
000002e0: 5a13 31bd 1a6c 453d 4c68 37bd 8650 25bd
000002f0: f809 a53d 2b6c e3ba c975 59bd 1600 9d3d
00000300: e79f 703d 999d 333d 8e46 b63d 66ca 03bd
00000310: ada6 ea3b 5adf 003e 74ae 2b3d 876c 87bd
00000320: cc57 77bb 3654 e2bb b1f9 c2bc 4682 8c3c
00000330: dd7a f2bc 253e 58bd df65 043d 4b76 0a3c
00000340: 3743 50bc a5ae 473d fef0 8cbc f037 2c3d
00000350: 3c07 49bd 1e41 013c 359c 0bbb 599e e8bc
00000360: 12ff f0bc b282 84bc 3d68 e33b e1aa 6f3d
00000370: 9525 533c 116d 053a aa29 1f3d 49cd 823c
00000380: da9d e63c 65d0 ef3c cdb7 aa3b 85e9 7e3c
00000390: faf6 38bd 85b3 813c 32e1 af3d b5c6 8cbc
000003a0: 2631 c5ba b5e1 623d 8808 2d3d d5c5 4a3d
000003b0: 5b84 643d b379 79bd 2e13 5abd 8281 41bc
000003c0: 32b0 1a3c 5c69 043d 2e51 6d3c 7a66 063e
000003d0: 4404 48bc ed4f 28bc e01a 68bb 4326 523c
000003e0: e202 86bc 1184 9b3b 3e83 0e3c 4b50 e83c
000003f0: 9f7d 76bd 4734 173d b3e2 783d d027 7e3c
0.043742176 0.05491218 -0.030380178 -0.02906342 0.02158324 -0.046391986 -0.01971525 -0.031936888
0.03431986 -0.11265735 -0.031848837 -0.011014625 -0.07087908 -0.07582349 -0.0062338277 -0.06952898
0.034328267 -0.011631719 -0.05530544 -0.0007691111 -0.003932074 -0.043722663 0.019006265 0.027299445
0.012168589 -0.03576701 0.06262544 0.0020859211 0.031030007 0.02450453 0.026532253 -0.032836054
0.012448442 0.04979213 0.04055659 0.11973888 -0.04273312 -0.0059956587 -0.057837468 -0.05078336
0.001981332 0.09335416 0.042985786 0.02319218 -0.0031190058 0.029131118 0.024385039 -0.0031469
0.04232418 -0.003333389 -0.037311535 0.010666916 0.080169156 0.08851719 0.07023928 0.016254269
0.013829331 0.10080675 -0.045028895 0.04762867 0.06281549 -0.038373392 -0.022782061 -0.092586786
-0.04537766 -0.031857856 -0.013498333 0.037809145 -0.01224169 0.01231672 -0.041943472 -0.044672083
-0.016664743 -0.07572094 0.040879697 -0.01402521 -0.0412642 0.033057928 -0.09209903 -0.0663086
0.0075190836 -0.00454373 0.020940604 -0.013446381 0.06276169 0.05307703 -0.022498623 -0.005578149
0.0525138 -0.04123529 -0.045734767 0.025531286 -0.052513897 0.003972067 0.00048364192 0.03676675
0.052929755 0.0018042605 -0.039789036 -0.012013202 -0.008996689 -0.00046261595 0.0107952 -0.03817588
-0.012203445 -0.024220482 -0.00042110778 0.013424932 0.064057246 -0.02350757 0.042013917 0.026856612
-0.066272385 0.011407069 0.043921474 -0.006975282 0.025310181 0.037957225 -0.018048175 -0.008995776
0.06125777 0.018457573 0.0027536042 0.030354261 -0.022222588 0.06189385 -0.0047259005 0.038179316
0.039785687 0.03792529 -0.075752825 0.051973794 0.0059384685 0.021961251 -0.022850018 -0.05916663
-0.048527382 -0.013553924 -0.08988236 -0.06434346 -0.05429588 -0.04223544 -0.067528635 0.03471013
0.025187345 -0.064660646 0.0745905 -0.07206596 -0.015462063 0.012434937 -0.0072391047 -0.029960327
0.055211987 0.059464924 -0.01754526 0.06626352 0.0040316796 0.010303526 0.013421411 0.09771498
-0.04123184 -0.0008750916 -0.041028585 0.01529493 -0.0013327469 -0.029951746 -0.0013046596 -0.009974468
0.004677451 0.022372698 0.079225875 0.031755693 0.036170486 0.04847267 -0.024537938 -0.047826428
-0.0012403205 -0.064046495 0.026744151 0.006002447 0.118941635 -0.030741813 0.036243856 -0.0012324448
-0.043231346 0.048198797 -0.0447772 -0.040359996 0.08058542 -0.0017350962 -0.053090844 0.07666032
0.058746245 0.04385147 0.08900176 -0.032175444 0.0071609826 0.12585202 0.04191442 -0.06612497
-0.003774154 -0.0069070114 -0.023800703 0.017151963 -0.029599601 -0.05279364 0.032323714 0.008451055
-0.012711338 0.04875054 -0.017204758 0.042045534 -0.049079165 0.00788906 -0.0021302823 -0.028395819
-0.029418502 -0.016175602 0.0069399164 0.058512572 0.012887378 0.00050897995 0.038858093 0.015967028
0.028151441 0.029274175 0.005209899 0.015558605 -0.04515741 0.015832672 0.085878745 -0.017184595
-0.0015044555 0.055391032 0.042244464 0.049505074 0.055790287 -0.060907077 -0.053240947 -0.011810662
0.009441422 0.03232704 0.014484687 0.13125029 -0.012208048 -0.010272962 -0.003541641 0.012826505
-0.016358797 0.004745968 0.008698283 0.0283586 -0.060178395 0.03691509 0.060763072 0.015512422

conv3_1.bias f4 [64]
00000000: 2125 213d 0ec2 5d3c 3a69 37bd 3f75 0d3d
00000010: 338f 6f3d 68de 273d 2784 cb3c 4c55 5dbc
00000020: 7c30 933c 8b36 32bd 5489 26bd aa68 993c
00000030: f0ad 94bc b4a4 803c e750 49bd ae95 073d
00000040: 59fb 06bd 4e66 193d e9ff 463d a767 20bd
00000050: a49b 443d 6ddf 3cbd 39ca 533c 079a 183d
00000060: 4050 16bd 3330 97bb 5532 bfbb c532 3a3d
00000070: 4ebd 68bd 8178 04bb 5eb7 3fbc af2a 853c
00000080: 3bd6 4e3d c65e 123d c247 4dbd 034b 973b
00000090: c600 c439 7ee9 d93c 52aa 553d 067f dc3c
000000a0: 5d3e 3abb 6ffe 68bd 95e3 553d f863 40bd
000000b0: 9b36 da3b 39c0 233c 2458 5c3d e883 ed3b
000000c0: e078 93bb 97d2 153d 30ab 913c ae66 cfba
000000d0: 5cac acbc a240 0f3c c38d adba 3c18 04bd
000000e0: 2f3a 503d e689 54bd 558d abbc d23e 103d
000000f0: 6c6f 3c3c 6ba2 153c d54f 3c3b 47fe 0bbd
0.03934205 0.013535036 -0.044778086 0.034535643 0.058486175 0.040983588 0.024843289 -0.013509106
0.017967455 -0.043509047 -0.04065831 0.018726666 -0.018149346 0.015703537 -0.04914942 0.03310173
-0.032954548 0.03745108 0.0485839 -0.03916135 0.047999993 -0.046111513 0.012926632 0.037256267
-0.036697626 -0.0046139 -0.0058348575 0.045458574 -0.05682116 -0.0020213427 -0.011701433 0.016255705
0.050497275 0.035734914 -0.05011726 0.0046170964 0.0003738461 0.026600596 0.052164383 0.026916038
-0.002841852 -0.05688327 0.052218992 -0.046970338 0.0066593415 0.00999456 0.053794995 0.0072483905
-0.0045004934 0.036577787 0.017781824 -0.0015823448 -0.021078281 0.008743437 -0.0013241101 -0.032249674
0.05083674 -0.051889323 -0.020941416 0.03521616 0.011501174 0.009132962 0.0028734107 -0.034178045

bn3_1.weight f4 [64]
00000000: 0795 853f 1630 823f 10ee 873f 0eed 783f
00000010: 4f2c 843f 5ed4 8b3f 28a4 7a3f b066 843f
00000020: 49ae 853f 1577 833f 1251 783f 3e2d 883f
00000030: 48b8 863f d02c 823f 8772 823f 268a 8d3f
00000040: 93e1 833f e5c3 8c3f 1894 873f f32d 813f
00000050: 3924 7d3f e71a 833f 6f27 813f bbd3 833f
00000060: c7c8 823f 9112 833f 65f7 833f 02b8 8e3f
00000070: 8a9f 813f 432f 863f ffb0 833f a4ae 863f
00000080: 9371 8d3f c0f8 883f c6f7 793f 681d 993f
00000090: ef3e 863f 487a 863f 7238 8b3f f059 783f
000000a0: aa00 7f3f 1981 903f 9c5f 863f aec9 8f3f
000000b0: ab20 7a3f edb5 7d3f c8e3 773f f30e 823f
000000c0: 22b4 8e3f 058c 903f 9493 973f 887d 6f3f
000000d0: fd64 803f 2da1 8b3f 2473 893f 9c1e 913f
000000e0: 8d5b 843f f49f 833f a99c 8a3f 2f93 7e3f
000000f0: 63a5 823f a2c3 8b3f 368d 773f f463 8b3f
1.0436105 1.0170925 1.0619526 0.97236717 1.0326022 1.0924184 0.9790673 1.0343838
1.0443813 1.0270716 0.96998703 1.0638807 1.0524988 1.0169926 1.0191201 1.1057785
1.0303215 1.0997282 1.059207 1.0092148 0.98883396 1.0242585 1.0090159 1.029899
1.0217522 1.0240041 1.0309874 1.1149905 1.0126812 1.0483173 1.028839 1.0522046
1.1050285 1.0700912 0.976437 1.1962099 1.0487956 1.0506067 1.0876601 0.97012234
0.9961039 1.1289397 1.0497928 1.1233423 0.977061 0.9910572 0.9683194 1.0160812
1.1148722 1.129273 1.1841912 0.9355092 1.0030819 1.0908562 1.0738263 1.1337466
1.0340439 1.0283189 1.0829059 0.99443334 1.0206722 1.0919077 0.96699846 1.0889878

bn3_1.bias f4 [64]
00000000: 57c1 afbc 2ca6 353d a778 24bc 1d7e 20bc
00000010: a45b 323d aa75 5bbc 853a 30bd 1461 bd3c
00000020: c8dd dd3b 9a43 903c d554 b9bd 5940 bc3c
00000030: 6e05 f63c bbff d23c db2d 3bbb 31f1 bd3d
00000040: 3ef5 b03b f9d2 1ebc 1701 8ebc e5f6 f7bc
00000050: 6f5d 223c 7065 013d 6cdd 15be 2c60 11bc
00000060: 754b 9cbc a151 103d d7ef 8c3c 76e2 93bc
00000070: 2bad 303d 61d2 573c fe54 2f3d 7b39 7f3c
00000080: 35a4 2abe 530d e0bb 46dc aabc 141f 13be
00000090: e5eb 23bd 693a 843d 0ddf 93bd 6dc8 a8bc
000000a0: 4a26 4c3d c033 3d3d d456 31bd 9e6d bbbc
000000b0: 09f8 a0bd 24c8 c5bc 590d 86bd dd56 3f3c
000000c0: 09e1 863b 9545 cfbb 8156 15bd 78ae 9cbd
000000d0: 89e9 d8bb 5a07 73bc 709b d4bc bfe4 45bd
000000e0: 129a 643d 5489 e13c 044f bd3d 1264 803c
000000f0: 5ff4 373c b0ab 7bbd d295 d3bc 9c83 f33b
-0.021454496 0.044347927 -0.010038531 -0.009795693 0.043544427 -0.0133947525 -0.04302456 0.02311758
0.006770823 0.01761036 -0.090493836 0.022979902 0.030031886 0.025756707 -0.0028561268 0.09274519
0.005400329 -0.0096938545 -0.017334504 -0.030269096 0.009909972 0.03159088 -0.14635247 -0.008873027
-0.01907895 0.035234097 0.017204208 -0.01805232 0.043133896 0.013172717 0.042805664 0.015577669
-0.16664203 -0.006837526 -0.020856988 -0.14367324 -0.04001989 0.06456453 -0.07220278 -0.020603383
0.049841203 0.04619193 -0.043295696 -0.022879418 -0.07859809 -0.024143286 -0.065455146 0.011678425
0.0041161817 -0.0063254335 -0.03645945 -0.07650465 -0.0066196364 -0.014833296 -0.025953025 -0.048313852
0.055810995 0.027531303 0.09243587 0.015672717 0.011227696 -0.06144303 -0.025828276 0.0074314605

bn3_1.running_mean f4 [64]
00000000: 9b58 553f 16b3 cfbf d12b 6bbd dae1 c1bf
00000010: 5e06 15bf 7e3f f03d 8a54 08c0 0fd9 e2bc
00000020: 41ad 8e3e c505 31bf 2f0c 6b3f e3ea 733f
00000030: e4d1 c6be 88e9 6ebf 9b31 c7be 62bd 4c3f
00000040: 3eab 93bf a68d 9a3f 7ac2 0340 96c4 04bf
00000050: 81aa 80be 483d 18c0 4d94 24bf 471d 443f
00000060: 1133 56bf fda9 03bf 87d6 afbf aa69 2a3f
00000070: 89f1 2ebe c3e9 0240 adc0 9dbf 0a3e 16bd
00000080: 6d08 ad3d d1bd 40be f4f2 e4bf 7238 033d
00000090: 5d6f 833e d320 31bf e70e 6f3e 10b3 debe
000000a0: f50c c7be 6786 28be 3593 ca3f 2244 483f
000000b0: 7ce9 313f d230 aebf 377c 873f ab91 e4bf
000000c0: 942d 9d3e 1fa3 8fbc ee5a 873d 65e2 f4bf
000000d0: ff09 01c0 ef7b 8abe 500d fb3e 68a8 ad3e
000000e0: 3e5c 40bf 7b0f 05bf 9521 cabf c02a 47bf
000000f0: 6bae 78bf b141 593d 09e5 0abf 8866 243e
0.83338326 -1.6226528 -0.057414833 -1.514705 -0.5821284 0.1173086 -2.1301599 -0.027691392
0.27866557 -0.6914943 0.91815466 0.95280284 -0.3883201 -0.9332509 -0.38905033 0.79976475
-1.1536634 1.2074478 2.058745 -0.51862466 -0.25130084 -2.3787403 -0.6428879 0.76607174
-0.8367167 -0.51431257 -1.3737344 0.6656748 -0.17084326 2.0455177 -1.2324425 -0.03668026
0.08448873 -0.18822409 -1.7886643 0.032036252 0.256709 -0.6919071 0.23345529 -0.4349599
-0.38877073 -0.1645752 1.5826174 0.7822896 0.69496894 -1.3608649 1.0584782 -1.7856954
0.30698836 -0.017533837 0.0660914 -1.913159 -2.016235 -0.2704768 0.49033594 0.33917546
-0.7514075 -0.51976746 -1.5791498 -0.77799606 -0.9714114 0.053041164 -0.5425573 0.16054738

bn3_1.running_var f4 [64]
00000000: c219 2e3f 94ac 643f bf89 8f3f 9e9f 273f
00000010: ec56 dc3e 5a88 0f3f fa73 503f 18cc b33f
00000020: afce 713f f383 833f 953f 033f e8bd 063f
00000030: 3197 f43e 91fa 253f 19d9 a73f 41bd 293f
00000040: 57ff 1c3f 5440 073f 8b62 9c3f 9d05 593f
00000050: 9227 ab3e 20d1 8e3f cc4a 103f e592 c83f
00000060: 60b4 a43f 6d3b c93e fff5 fd3f 3f58 8c3f
00000070: 1b61 d33e fbda b83f efc1 0f3f 79e2 a63f
00000080: d47a 053f f878 463f d6b7 593f 067b 6b3f
00000090: a2ea 253f d9a4 273f 9b2e 4b3f 3270 183f
000000a0: 8aa3 453f c039 0b3f 2809 463f 46bc 583f
000000b0: 9576 093f f66b 323f 3791 273f fb56 cd3f
000000c0: 9e13 093f e24b 863f e547 303f 3efe 753f
000000d0: 20d4 f63f 972d 513f 365a b23f 49f7 423f
000000e0: 529c 3d3f 6da6 303f fa4d c13e aeb9 df3e
000000f0: 7cd2 fb3f 4bbd 063f 96e0 6b3f 735c fe3e
0.68008053 0.89325833 1.1213912 0.6547793 0.43035066 0.5606743 0.81426966 1.404666
0.94456 1.0274643 0.51268893 0.52633524 0.477716 0.6483546 1.3113128 0.66304404
0.6132712 0.5283253 1.2217573 0.8477419 0.33428627 1.115757 0.5636413 1.5669829
1.2867546 0.3930315 1.9840697 1.096443 0.41285023 1.4441828 0.56155294 1.3037864
0.52140546 0.77528334 0.85046136 0.91984594 0.64811146 0.6548591 0.7936799 0.59546196
0.77202666 0.54384995 0.7735772 0.8466228 0.53696567 0.69695985 0.65455955 1.6042169
0.5354556 1.0491908 0.688597 0.9609107 1.9283485 0.8171019 1.393378 0.7615858
0.7406665 0.69003946 0.37754804 0.4369635 1.967361 0.5263259 0.92139566 0.49679908
