model_folder/best_model_12-03-2025.pth (torch, 908258 bytes, 87 tensors)

conv1_1.weight f4 [16, 1, 3, 3]
-0.33630303 0.2052226 -0.29614824 -0.32591978 -0.15904479 -0.23479131 0.25219157 -0.037828516
0.22242482 -0.19279058 0.104456395 -0.19936316 -0.16809651 0.23185922 -0.13214047 0.0003950889
0.23681027 0.11289819 0.31301498 -0.076340675 0.16218919 -0.060286943 0.2415073 -0.0027062283
-0.07852252 -0.32205698 -0.17069313 -0.13940287 -0.12179638 0.34713188 -0.15265848 -0.07210767
-0.18259867 -0.05886865 0.1280929 0.25633323 0.03735023 0.0007911608 -0.0763049 -0.1569676
0.14677688 0.2213722 -0.18984188 -0.035230435 0.2666986 -0.25000066 -0.120632045 -0.0018781963
-0.124340564 0.21037592 -0.2853738 -0.10858042 0.11478412 0.14914487 0.2639756 -0.18468443
-0.03608649 -0.046113864 -0.2844413 -0.10451719 -0.19811326 0.32024747 0.2700595 0.07662157
0.32952905 -0.37360257 -0.25357392 0.032121383 -0.14259827 0.34926775 -0.2730811 0.19288802
-0.12086392 -0.28630024 0.321642 0.30586007 -0.123939134 -0.2691243 0.21160744 -0.2093664
0.17168753 0.10333435 0.28934777 -0.07877079 0.09097953 0.22545424 -0.14757286 -0.32070994
-0.14347866 -0.01963718 -0.058126695 -0.31169283 0.031023363 -0.27381495 0.1877392 -0.026556682
0.08421724 0.22934756 0.14388433 -0.2526966 0.100588225 0.18846618 0.08555522 0.22111277
-0.052718166 0.3071241 -0.054091882 -0.15460917 0.025574008 0.258844 0.03552016 -0.042332157
0.13638102 0.006432114 -0.35105658 -0.00834429 0.19464637 -0.08158025 -0.014416755 0.15981726
0.16620602 0.11363813 -0.18744262 -0.21531515 -0.056436386 0.113530025 0.23660001 -0.2940158
-0.06596738 0.23005557 0.25834793 -0.022931293 -0.039009653 -0.12083327 -0.17443423 0.12992235
0.18217206 0.1640589 -0.17311294 0.22193663 0.14030874 0.17199802 -0.3253105 -0.11686279
00000000: e92f acbe e025 523e bea0 97be f5de a6be
00000010: a3dc 22be 226d 70be 411f 813e 13f2 1abd
00000020: 55c3 633e e56a 45be 3ced d53d db25 4cbe
00000030: 7e21 2cbe 816c 6d3e d54f 07be ef23 cf39
00000040: 647e 723e 2b37 e73d 8043 a03e 8058 9cbd
00000050: ec14 263e 71ef 76bd b14d 773e fa5a 31bb
00000060: 6ad0 a0bd a7e4 a4be 2eca 2ebe a0bf 0ebe
00000070: 6170 f9bd 45bb b13e 8152 1cbe 30ad 93bd
00000080: 25fb 3abe 4120 71bd c92a 033e 1c3e 833e
00000090: 8efc 183d e765 4f3a be45 9cbd 1dbc 20be
000000a0: ae4c 163e 65af 623e e965 42be ca4d 10bd
000000b0: b88c 883e 1600 80be ef0d f7bd cf2d f6ba
000000c0: 44a6 febd c96c 573e 841c 92be 695f debd
000000d0: f013 eb3d 6fb9 183e cf27 873e ea1d 3dbe
000000e0: 6dcf 13bd e4e1 3cbd 4aa2 91be 1c0d d6bd
000000f0: 34de 4abe 7af7 a33e 3d45 8a3e c5eb 9c3d
00000100: 08b8 a83e d648 bfbe 71d4 81be b691 033d
00000110: 4805 12be 39d3 b23e 49d1 8bbe 7084 453e
00000120: 8187 f7bd f295 92be 43ae a43e b199 9c3e
00000130: cdd3 fdbd a9ca 89be 9faf 583e 2564 56be
00000140: dbce 2f3e f6a0 d33d 6425 943e 9452 a1bd
00000150: 7a53 ba3d 7add 663e 571d 17be 1834 a4be
00000160: 12ec 12be 27de a0bc 4216 6ebd 3496 9fbe
00000170: b524 fe3c 7931 8cbe b43e 403e 668d d9bc
00000180: 177a ac3d 16da 6a3e 6a56 133e 7361 81be
00000190: 3301 ce3d 47fd 403e 9337 af3d 636b 623e
000001a0: 01ef 57bd 5f3f 9d3e 738f 5dbd de51 1ebe
000001b0: 9580 d13c 3387 843e 967d 113d 7c64 2dbd
000001c0: 77a7 0b3e 7cc4 d23b b0bd b3be 7db6 08bc
000001d0: 6151 473e 8c13 a7bd 4134 6cbc 23a7 233e
000001e0: e931 2a3e 1cbb e83d f5f0 3fbe 937b 5cbe
000001f0: d729 67bd 6e82 e83d 4647 723e 3d89 96be
00000200: e819 87bd b093 6b3e 2e46 843e 68da bbbc
00000210: 96c8 1fbd 6f77 f7bd e39e 32be 5d0a 053e
00000220: 508b 3a3e 0eff 273e 8544 31be 5b43 633e
00000230: 18ad 0f3e 4020 303e 198f a6be c255 efbd

conv1_1.bias f4 [16]
0.1463379 0.03410364 -0.25829935 -0.20254707 0.038845927 -0.07127752 0.24289416 -0.054315213
-0.039312784 0.0022065395 0.071971476 -0.15653358 0.045501743 0.04353059 0.08749472 0.07923072
00000000: 9ad9 153e 42b0 0b3d d03f 84be 8068 4fbe
00000010: e81c 1f3d f3f9 91bd 3fb9 783e a179 5ebd
00000020: 7106 21bd 979b 103b c865 933d 574a 20be
00000030: 0960 3a3d 224d 323d 6f30 b33d b743 a23d

bn1_1.weight f4 [16]
0.8377134 0.9555493 1.0295242 0.99607915 0.8485513 0.93666935 0.99665385 0.8794869
1.0713238 0.9857738 1.0306978 0.8972302 0.9655028 0.96539474 1.0601076 0.93948185
00000000: 6374 563f e19e 743f 73c7 833f 0bff 7e3f
00000010: a83a 593f 90c9 6f3f b524 7f3f 0e26 613f
00000020: 2321 893f ac5b 7c3f e8ed 833f e1b0 653f
00000030: 312b 773f 1c24 773f 9bb1 873f e281 703f

bn1_1.bias f4 [16]
-0.04812251 0.15793185 0.03321925 0.12863857 0.012869899 -0.030746743 0.030757558 0.049210194
0.12717283 0.14431083 0.01413186 -0.043753896 0.019903678 0.010470177 0.14848016 -0.054213386
00000000: 1c1c 45bd e3b8 213e e910 083d d4b9 033e
00000010: 45dc 523c 98e0 fbbc 46f7 fb3c a190 493d
00000020: 9839 023e 38c6 133e 5189 673c 4937 33bd
00000030: 0a0d a33c 1b8b 2b3c 2f0b 183e db0e 5ebd

bn1_1.running_mean f4 [16]
-0.20821539 0.031994995 -0.25530604 -0.20105317 0.14646193 -0.27861476 0.24221428 -0.085861035
-0.03982797 0.0025192555 0.0749297 0.0377725 0.17346023 0.042798534 0.09177051 0.27577728
00000000: 6a36 55be 2f0d 033d 79b7 82be e2e0 4dbe
00000010: 1efa 153e 98a6 8ebe 0507 783e e9d7 afbd
00000020: a722 23bd 181a 253b be74 993d 56b7 1a3d
00000030: 8f9f 313e 844d 2f3d 2df2 bb3d ae32 8d3e

bn1_1.running_var f4 [16]
0.013676747 0.0011245148 0.0020205027 0.001602686 0.0025632705 0.004821108 0.0006815752 0.00090419536
0.0006579482 0.0016073135 0.0017367847 0.003977378 0.003262994 0.00022201425 0.0013958256 0.0049265595
00000000: 6f14 603c 7564 933a 696a 043b 3811 d23a
00000010: 8bfc 273b 63fa 9d3b bdab 323a 8607 6d3a
00000020: 287a 2c3a 7eac d23a d3a4 e33a aa54 823b
00000030: f5d7 553b 7fcc 6839 23f4 b63a fa6e a13b

conv1_2.weight f4 [16, 16, 3, 3]
-0.02624643 -0.040721018 0.02898875 0.038959544 0.053216144 0.019857941 -0.006217988 -0.0728144
0.008660536 -0.096753135 0.0117367655 0.0059121302 0.025639676 0.022654712 0.00016727664 0.01580099
0.025705442 -0.012395543 0.007750157 -0.09475666 -0.09915072 0.06632344 0.022073464 -0.12259732
0.09125391 -0.030148204 -0.11099607 0.11575335 0.015234395 0.034364495 0.0050183693 -0.01498533
0.07523907 0.06966876 0.035304196 0.0625979 0.011315758 0.0612587 -0.032603312 -0.017950272
0.046194457 -0.046763107 -0.05524522 -0.06954245 0.03217567 -0.02626264 0.028813833 0.007366696
-0.015665723 -0.06304851 0.030793179 -0.054714832 -0.017320085 -0.055921324 0.005970173 0.0121499365
-0.079959884 -0.041292932 -0.031665716 -0.009952113 0.074903406 -0.09698762 0.011711827 0.057333507
-0.017570231 -0.11483345 -0.019667078 -0.019953305 -0.023223186 0.028927458 0.034209836 -0.0011857416
0.06863171 -0.0536462 -0.07552734 0.022156795 -0.022730242 -0.053806167 0.044202067 -0.03838893
0.027551929 0.03506447 0.103799365 -0.044217646 0.10239219 -0.023068555 -0.05231869 0.10280221
0.083005704 -0.09059972 0.03332097 -0.0038744828 -0.050292283 0.033611234 -0.07091257 -0.029168338
0.102176934 -0.05044394 0.014433686 0.010786153 0.030468114 0.035317663 -0.002081208 0.0047011464
0.009790636 -0.0050753835 -0.01000774 -0.04010936 -0.035172697 -0.04505243 0.05054479 0.010920965
-0.0015108901 -0.078806266 0.007786772 -0.04964475 0.040650494 0.07464764 -0.044959415 -0.07533183
0.021871889 0.044765115 0.027858967 -0.014487019 0.058927424 -0.100601375 0.08928765 0.054948866
-0.1188791 0.032062966 -0.045169644 -0.026128 0.06191659 -0.03965419 -0.023844883 0.023244603
-0.016957633 0.019703804 -0.081029676 -0.022680454 0.033976767 0.02276055 -0.023583705 0.00295806
-0.04592044 0.040962722 0.07841392 -0.026718514 0.026029047 -0.014973796 0.0655433 -0.0333194
-0.008494163 -0.045687966 0.008608145 -0.016941324 0.030270196 -0.052218527 0.0743982 -0.09145597
-0.08633884 -0.06578713 0.063949145 0.07183587 -0.0010419503 -0.009305217 0.03142757 0.034427535
-0.026793063 0.0449403 -0.022801908 0.10355615 -0.015943874 0.014567441 0.14803533 0.04244706
0.012872123 0.019628774 -0.009586981 -0.061710894 0.08280826 -0.011848857 -0.044440046 0.03763007
0.018256111 0.010735629 -0.028316917 0.0074140686 -0.06465872 -0.052803192 0.052481953 -0.00603229
0.041578 -0.07549893 -0.058803145 -0.013577318 0.03715947 0.027898123 0.05446397 0.04627491
0.049756642 0.054354087 0.060245212 -0.084520906 0.038992554 -0.10355877 0.0074634175 -0.06636896
0.08769105 -0.020379828 -0.06466661 -0.044376567 0.015852895 -0.06263293 -0.05685884 0.020373605
-0.073080994 0.031765446 0.13010897 -0.0442418 -0.045982033 -0.042334873 0.0065536215 0.07592727
-0.0978627 -0.08229049 -0.049858276 0.0029358885 -0.024626099 -0.057091773 -0.032906003 -0.009568014
0.015778234 0.10720079 -0.04426465 0.09963073 0.0027296639 -0.031690337 -0.05200742 0.050016563
-0.03684833 -0.020568017 -0.09530203 0.028601749 -0.06325412 -0.0068802633 -0.0389028 -0.020006463
0.057375956 -0.045600824 0.059040226 -0.054024544 -0.055696268 0.0036279093 -0.041202772 0.0719469
00000000: c102 d7bc 15cb 26bd d179 ed3c 0b94 1f3d
00000010: 2cf9 593d 1fad a23c 44c0 cbbb b71f 95bd
00000020: ece4 0d3c 8226 c6bd 904b 403c 8bba c13b
00000030: 4c0a d23c 6096 b93c fb66 2f39 1471 813c
00000040: 3894 d23c ad16 4bbc 07f5 fd3b c80f c2bd
00000050: 880f cbbd 95d4 873d 69d3 b43c 4e14 fbbd
00000060: 54e3 ba3d 5ef9 f6bc e851 e3bd 1810 ed3d
00000070: af99 793c c9c1 0c3d 2271 a43b 0885 75bc
00000080: f116 9a3d 7fae 8e3d 229b 103d 5433 803d
00000090: bb65 393c 67ea 7a3d 0d8b 05bd 730c 93bc
000000a0: 6636 3d3d ac8a 3fbd d048 62bd 466c 8ebd
000000b0: a3ca 033d bf24 d7bc fd0a ec3c 5364 f13b
000000c0: 6755 80bc 941f 81bd fa41 fc3c a91c 60bd
000000d0: dae2 8dbc c20d 65bd 71a1 c33b 8710 473c
000000e0: 02c2 a3bd c722 29bd e9b3 01bd 300e 23bc
000000f0: f566 993d 72a1 c6bd f6e2 3f3c 8ad6 6a3d
00000100: 72ef 8fbc cd2d ebbd da1c a1bc 1d75 a3bc
00000110: 8d3e bebc 47f9 ec3c 9d1f 0c3d e36a 9bba
00000120: c88e 8c3d 1ebc 5bbd 14ae 9abd 2b82 b53c
00000130: c634 babc db63 5cbd 3a0d 353d b63d 1dbd
00000140: 95b4 e13c c39f 0f3d c394 d43d 901d 35bd
00000150: ffb2 d13d 44fa bcbc 1f4c 56bd f789 d23d
00000160: e5fe a93d 598c b9bd 927b 083d 09eb 7dbb
00000170: 48ff 4dbd efab 093d 9c3a 91bd 70f2 eebc
00000180: 2442 d13d 4e9e 4ebd 447b 6c3c 68b8 303c
00000190: 4498 f93c 41a9 103d e064 08bb 130c 9a3b
000001a0: e768 203c 674f a6bb 81f7 23bc b649 24bd
000001b0: 3f11 10bd e688 38bd 0e08 4f3d d9ed 323c
000001c0: 0f09 c6ba 2e65 a1bd 2e28 ff3b 4b58 4bbd
000001d0: 2281 263d dde0 983d 5d27 38bd 9347 9abd
000001e0: ad2c b33c a05b 373d 7d38 e43c f65a 6dbc
000001f0: e25d 713d 1808 cebd 72dc b63d 1012 613d
00000200: e376 f3bd 7554 033d ce03 39bd 630a d6bc
00000210: 409c 7d3d 6f6c 22bd 5856 c3bc 776b be3c
00000220: bcea 8abc df69 a13c e3f2 a5bd 5ccc b9bc
00000230: 392b 0b3d 5574 ba3c 9d32 c1bc 03dc 413b
00000240: 1217 3cbd 87c8 273d 7a97 a03d c9e0 dabc
00000250: de3a d53c a754 75bc 913b 863d ec79 08bd
00000260: 1a2b 0bbc 4e23 3bbd 2d09 0d3c 88c8 8abc
00000270: 34f9 f73c 18e3 55bd 155e 983d 454d bbbd
00000280: 6bd2 b0bd 67bb 86bd c5f7 823d af1e 933d
00000290: 0d92 88ba e974 18bc 32ba 003d e303 0d3d
000002a0: 207d dbbc 5213 383d 11cb babc 3f15 d43d
000002b0: ba9c 82bc 47ac 6e3c 9396 173e f8dc 2d3d
000002c0: 99e5 523c 86cc a03c b612 1dbc 90c4 7cbd
000002d0: 6197 a93d b521 42bc c406 36bd fd21 1a3d
000002e0: d78d 953c 7ee4 2f3c e1f8 e7bc b7f1 f23b
000002f0: ca6b 84bd 2948 58bd 51f7 563d 84aa c5bb
00000300: b14d 2a3d 2f9f 9abd 91db 70bd 6673 5ebc
00000310: 8734 183d 9b8a e43c 9d15 5f3d c38a 3d3d
00000320: 9fcd 4b3d 64a2 5e3d afc3 763d 4c19 adbd
00000330: a8b6 1f3d 9f16 d4bd af8f f43b 73ec 87bd
00000340: 5d97 b33d 99f3 a6bc ed6f 84bd 34c4 35bd
00000350: eedd 813c b245 80bd d1e4 68bd 8ce6 a63c
00000360: 7dab 95bd 7c1c 023d 493b 053e e436 35bd
00000370: a857 3cbd 5567 2dbd c3bf d63b c27f 9b3d
00000380: 3d6c c8bd eb87 a8bd 3138 4cbd 0968 403b
00000390: acbc c9bc 10d9 69bd 72c8 06bd 29c3 1cbc
000003a0: 5b41 813c 168c db3d da4e 35bd 320b cc3d
000003b0: 29e4 323b bacd 01bd bc05 55bd 2bde 4c3d
000003c0: 46ee 16bd 427e a8bc b62d c3bd 374e ea3c
000003d0: 608b 81bd d573 e1bb 8b58 1fbd 98e4 a3bc
000003e0: 0d03 6b3d eec7 3abd 2ad4 713d d748 5dbd
000003f0: c521 64bd 38c2 6d3b 3dc4 28bd e558 933d

conv1_2.bias f4 [16]
-0.051320788 -0.041154407 0.0023893693 -0.0022810835 0.07043135 0.032135468 -0.037630223 -0.022684904
0.008253312 0.053542238 0.036767207 -0.0683538 -0.05264062 -0.022689573 -0.009884492 -0.06980352
00000000: bf35 52bd 8691 28bd f796 1c3b 3b7e 15bb
00000010: 503e 903d 7ba0 033d 2622 1abd b1d5 b9bc
00000020: e638 073c 1b4f 5b3d 3699 163d 14fd 8bbd
00000030: b19d 57bd 7cdf b9bc 90f2 21bc 26f5 8ebd

bn1_2.weight f4 [16]
1.1022445 1.1736779 1.0093591 1.114234 1.2046038 1.0488416 1.111674 1.137446
1.0453235 1.0547483 0.97329724 1.0666087 1.0060414 1.0975037 0.97751075 1.2076739
00000000: 5916 8d3f 143b 963f ae32 813f 389f 8e3f
00000010: 7530 9a3f 7140 863f 554b 8e3f d597 913f
00000020: 29cd 853f fe01 873f 022a 793f a286 883f
00000030: f7c5 803f 007b 8c3f 253e 7a3f 0f95 9a3f

bn1_2.bias f4 [16]
0.071976185 0.038937237 0.033269808 -0.020254971 0.037946757 0.020076284 -0.010921909 -0.028742397
0.014054646 -0.016993873 -0.011284923 0.0075677847 0.013859865 -0.012203871 -0.06656086 0.04015654
00000000: 4068 933d a77c 1f3d ec45 083d c1ed a5bc
00000010: 0f6e 1b3d 0577 a43c cef1 32bc 2d75 ebbc
00000020: 7545 663c bc36 8bbc 66e4 38bc 2efb f73b
00000030: 7d14 633c bff2 47bc 0f51 88bd 2f7b 243d

bn1_2.running_mean f4 [16]
-0.14866167 -0.11808479 -0.15612312 -0.06454978 -0.15434802 -0.32016435 -0.13316897 -0.06348569
-0.0015311663 -0.16515559 -0.3246476 -0.46822494 -0.10980807 -0.12607585 -0.5579796 -0.30754128
00000000: c43a 18be 70d6 f1bd bdde 1fbe ad32 84bd
00000010: 680d 1ebe 95ec a3be 725d 08be c904 82bd
00000020: 6ab1 c8ba 8c1e 29be 3638 a6be 2ebb efbe
00000030: 0ee3 e0bd 071a 01be c0d7 0ebf 0d76 9dbe

bn1_2.running_var f4 [16]
0.11824284 0.1726223 0.17651914 0.12049483 0.16423878 0.20330158 0.1227051 0.15094429
0.21651427 0.17709339 0.26624933 0.27025148 0.1892878 0.17012218 0.6846994 0.3207141
00000000: 4d29 f23d e6c3 303e 6fc1 343e fec5 f63d
00000010: 362e 283e 4a2e 503e d04c fb3d 2491 1a3e
00000020: ebb5 5d3e f857 353e d551 883e 675e 8a3e
00000030: a9d4 413e 8234 2e3e 7648 2f3f a334 a43e

conv2_1.weight f4 [32, 16, 3, 3]
0.08191336 0.048583332 0.0828165 0.044755824 -0.08854983 -0.02237717 -0.07773879 -0.022707319
-0.01707011 -0.021933176 -0.064247854 -0.04818193 0.0868613 0.02002142 0.030107366 0.11026268
-0.029976256 -0.044253826 -0.041966498 -0.06306022 -0.06844285 0.00029613462 -0.042004853 0.06268546
0.011336458 0.09133933 0.034754146 -0.029475003 -0.0032573645 0.088482425 0.006546496 -0.07896455
0.0039006409 0.014680199 -0.045952205 -0.004306132 -0.015595112 0.07259837 0.04617167 -0.0023823807
0.050261896 -0.032742452 0.022046989 0.0067895083 0.05103623 -0.0031502268 0.10203827 0.08392691
0.08935517 0.022453738 0.056911908 0.013971536 0.023939975 0.018093491 -0.014184116 -0.10783643
-0.041896336 -0.09193016 -0.071921274 -0.057985593 0.043321338 -0.025720539 -0.11800861 -0.060368374
-0.023640383 0.04664997 0.08518115 -0.0445054 0.061449327 0.018816445 0.012084508 -0.02549416
0.017845912 -0.050416097 -0.106682055 -0.048838563 -0.009778068 -0.08127511 0.017930761 0.07806246
-0.062648386 -0.105320424 -0.06703383 -0.006198201 -0.048505783 -0.043500684 0.07944269 -0.06163576
-0.06594982 0.06461668 0.05400052 -0.076114066 0.01573438 -0.014154726 0.056832515 -0.061835952
0.011711769 0.026823686 -0.04085784 0.088011526 0.033233617 0.056452464 0.09237825 -0.07409649
0.022104625 0.019943103 -0.04123385 -0.018689599 0.030522445 0.051208574 0.0067934575 -0.038615573
-0.042206556 0.012389276 -0.051135026 -0.012592894 0.04641073 0.019066708 0.0399082 -0.07791301
0.09374186 -0.03141299 0.100455 0.08604209 0.037243396 -0.074131794 -0.07898427 0.03385345
-0.08847246 -0.05396188 -0.057472292 -0.024585957 0.060854815 -0.009853007 -0.033222243 -0.0027879311
0.062211893 0.040695857 0.04763961 -0.030870754 0.03675543 -0.08694257 0.05362185 -0.04874561
-0.037733257 0.008956712 -0.01986247 0.02718118 -0.020150691 -0.018314797 -0.0053087105 -0.06015614
-0.0420467 -0.0629709 -0.04589863 -0.0636709 -0.0694639 -0.035197128 0.02147314 0.050887603
0.09385084 0.09918365 -0.053599544 -0.043105736 -0.0051303813 -0.07483034 -0.06475973 -0.07552789
0.06387302 -0.06474683 0.038598347 0.021264844 0.018282074 -0.028633334 -0.016818332 -0.009168832
-0.035769638 0.004929899 0.0058254437 -0.055031512 -0.08134107 -0.023410609 -0.034259804 -0.02911134
0.0034604997 -0.063634574 0.0068838997 0.04502526 -0.0627245 0.015011446 -0.106280245 -0.038788863
-0.036398444 -0.0712312 0.027283756 0.036329374 0.040508587 0.119742446 0.08470733 0.059918184
-2.5370218e-05 0.020755181 -0.004208205 0.017534023 -0.112630695 -0.018336259 -0.13777165 0.016318614
0.056393657 -0.05739379 -0.07353393 -0.05974412 -0.0052514104 0.065494336 0.034832716 0.006668371
0.020142142 0.02553763 0.07469079 0.07597112 -0.016673526 -0.068273075 0.030876864 0.02878458
-0.0634692 0.06193141 0.023517964 0.0283572 -0.033135 0.025437146 -0.016729854 0.05533078
0.03180501 0.0717247 -0.017764477 -0.038945302 -0.06728155 -0.036075167 0.04091479 0.04635154
-0.00838968 -0.019269193 0.028528271 -0.036205824 0.056587864 0.03227008 -0.07875383 -0.03657304
0.016843164 0.013753955 -0.018636538 -0.041731257 -0.060777914 0.06875234 0.03327085 0.047077384
00000000: 31c2 a73d 51ff 463d b29b a93d e251 373d
00000010: 9d59 b5bd 5450 b7bc 8435 9fbd b304 babc
00000020: 9ed6 8bbc 34ad b3bc 6194 83bd 6a5a 45bd
00000030: 56e4 b13d f603 a43c b9a3 f63c 66d1 e13d
00000040: c490 f5bc 8043 35bd 10e5 2bbd b725 81bd
00000050: c42b 8cbd 8442 9b39 480d 2cbd 3c61 803d
00000060: 8dbc 393c 1d10 bb3d 5d5a 0e3d 9075 f1bc
00000070: 8279 55bb 4636 b53d fd83 d63b 2ab8 a1bd
00000080: e5a1 7f3b 3885 703c 6138 3cbd 741a 8dbb
00000090: a482 7fbc 74ae 943d 811e 3d3d b721 1cbb
000000a0: 6bdf 4d3d f31c 06bd e39b b43c 867a de3b
000000b0: 5e0b 513d 0974 4ebb 71f9 d03d dfe1 ab3d
000000c0: d8ff b63d e7f0 b73c 761c 693d dfe8 643c
000000d0: c41d c43c cd38 943c 7f64 68bc 59d9 dcbd
000000e0: 7e9b 2bbd e145 bcbd 764b 93bd 4d82 6dbd
000000f0: b771 313d e1b3 d2bc 80ae f1bd d444 77bd
00000100: 7aa9 c1bc 0a14 3f3d 7473 ae3d 4b4b 36bd
00000110: 4ab2 7b3d f224 9a3c 1afe 453c 21d9 d0bc
00000120: 9731 923c 1c81 4ebd 1f7c dabd f20a 48bd
00000130: 3134 20bc 9173 a6bd 88e3 923c 36df 9f3d
00000140: cc4d 80bd 3cb2 d7bd 0849 89bd 471a cbbb
00000150: 00ae 46bd c62d 32bd d9b2 a23d c775 7cbd
00000160: b310 87bd c055 843d a62f 5d3d b1e1 9bbd
00000170: 63e5 803c 39e9 67bc 36c9 683d b247 7dbd
00000180: b8e2 3f3c 59bd db3c 8d5a 27bd 633f b43d
00000190: f91f 083d b33a 673d cf30 bd3d e7bf 97bd
000001a0: c214 b53c b85f a33c d3e4 28bd ee1a 99bc
000001b0: 350a fa3c 15c0 513d a79b de3b 5d2b 1ebd
000001c0: c8e0 2cbd 64fc 4a3c f672 51bd 6d52 4ebc
000001d0: 2d19 3e3d c931 9c3c c876 233d db90 9fbd
000001e0: bbfb bf3d e8aa 00bd 5abb cd3d d636 b03d
000001f0: 888c 183d 69d2 97bd 81c2 a1bd eaa9 0a3d
00000200: 0d31 b5bd 2207 5dbd 1168 6bbd 7d68 c9bc
00000210: e642 793d 826e 21bc 0c14 08bd b9b5 36bb
00000220: e6d1 7e3d b3b0 263d c021 433d aae4 fcbc
00000230: dd8c 163d f20e b2bd 96a2 5b3d 7aa9 47bd
00000240: 308e 1abd 2cbf 123c 9eb6 a2bc 11ab de3c
00000250: 1013 a5bc ea08 96bc b1f4 adbb 4966 76bd
00000260: 2939 2cbd e3f6 80bd 3400 3cbd e465 82bd
00000270: 1743 8ebd dd2a 10bd 70e8 af3c 856f 503d
00000280: df34 c03d cc20 cb3d 328b 5bbd a48f 30bd
00000290: c21c a8bb a640 99bd c0a0 84bd 5eae 9abd
000002a0: dccf 823d fc99 84bd 4d19 1e3d 9c33 ae3c
000002b0: 4ac4 953c 7490 eabc 99c6 89bc de38 16bc
000002c0: 2f83 12bd fd8a a13b 5de3 be3b b968 61bd
000002d0: 2696 a6bd 9bc7 bfbc 0254 0cbd e87a eebc
000002e0: 8dc9 623b d852 82bd 5692 e13b 686c 383d
000002f0: b475 80bd 91f2 753c 75a9 d9bd 12e1 1ebd
00000300: 8916 15bd aae1 91bd 2f82 df3c 1cce 143d
00000310: 55ec 253d 873b f53d 097b ad3d c56c 753d
00000320: 21d2 d4b7 c506 aa3c fbe4 89bb 83a3 8f3c
00000330: ecaa e6bd ec35 96bc 0314 0dbe 9dae 853c
00000340: 09fd 663d c015 6bbd f598 96bd 40b6 74bd
00000350: 0614 acbb e521 863d c0ac 0e3d 5a82 da3b
00000360: 2201 a53c 4b34 d13c 7cf7 983d bf96 9b3d
00000370: eb96 88bc c1d2 8bbd 7af1 fc3c a4cd eb3c
00000380: 24fc 81bd caab 7d3d bfa8 c03c 5c4d e83c
00000390: 91b8 07bd 9061 d03c 0c0d 89bc 87a2 623d
000003a0: f845 023d 66e4 923d cf86 91bc 1c85 1fbd
000003b0: e9ca 89bd 8ec3 13bd 4496 273d 1ddb 3d3d
000003c0: de74 09bc 6dda 9dbc 1fb4 e93c 8f4c 14bd
000003d0: adc8 673d a22d 043d b049 a1bd 9dcd 15bd
000003e0: adfa 893c 4558 613c a7ab 98bc 65ee 2abd
000003f0: 43f2 78bd 07ce 8c3d 0447 083d 37d4 403d

conv2_1.bias f4 [32]
0.025113508 -0.063638486 0.054590277 -0.026152747 -0.079265624 -0.058081426 0.018719573 0.0065022064
-0.059668913 0.02639176 0.07058621 0.01538049 0.046645723 0.050548173 0.015354928 -0.024392636
0.007485469 -0.055466603 -0.040168 -0.05778102 0.07818495 0.045521062 -0.023026064 -0.034719557
0.065857895 0.064397 -0.022151548 0.052301235 0.031649522 0.009681011 0.044001896 -0.004725442
00000000: d8ba cd3c e554 82bd 0e9a 5f3d 493e d6bc
00000010: 0456 a2bd cae6 6dbd ca59 993c 7610 d53b
00000020: 6467 74bd 8833 d83c 818f 903d 73fe 7b3c
00000030: 960f 3f3d 9a0b 4f3d 3c93 7b3c 11d3 c7bc
00000040: aa48 f53b f330 63bd 3387 24bd caab 6cbd
00000050: 6e1f a03d 4b74 3a3d 28a1 bcbc 1836 0ebd
00000060: 81e0 863d 93e2 833d 2a77 b5bc d239 563d
00000070: eea2 013d 1a9d 1e3c 553b 343d e1d7 9abb

bn2_1.weight f4 [32]
0.8507011 0.97577715 0.92677176 0.9335013 0.90865946 0.94691116 0.9038343 0.9903842
1.0219297 0.9078846 0.95415235 0.94339335 0.95502734 0.9069723 0.9537039 0.9454929
0.95318836 0.96259344 0.95646954 0.97436976 1.0159777 0.9595803 0.94334614 0.9125082
0.97175604 0.9432561 0.9971684 0.98581886 1.0095307 0.8959712 0.98212904 0.9530391
00000000: 8cc7 593f 88cc 793f ea40 6d3f f1f9 6e3f
00000010: e89d 683f c568 723f af61 673f d289 7d3f
00000020: 98ce 823f 206b 683f 5443 743f 3a82 713f
00000030: ac7c 743f 562f 683f f025 743f d30b 723f
00000040: 2704 743f 866c 763f 30db 743f 4c70 793f
00000050: 8f0b 823f 0ea7 753f 227f 713f 239a 693f
00000060: 01c5 783f 3b79 713f 6e46 7f3f a05e 7c3f
00000070: 4d38 813f 5e5e 653f cf6c 7b3f 5ffa 733f

bn2_1.bias f4 [32]
-0.15563944 -0.095862165 -0.10356383 -0.09534145 -0.09679761 -0.0910762 -0.12185902 -0.12143057
-0.06029033 -0.1103589 -0.065191865 -0.059771862 -0.14101356 -0.102857806 -0.031792484 -0.051531658
-0.11818294 -0.10052667 -0.037321128 -0.13992335 -0.16558604 -0.05971246 -0.1447569 -0.115623504
-0.0859317 -0.113190286 -0.11271557 -0.047914024 -0.11078289 -0.13252018 -0.12285957 -0.056526262
00000000: f25f 1fbe 6253 c4bd 4619 d4bd 6142 c3bd
00000010: d33d c6bd 2986 babd 3991 f9bd 97b0 f8bd
00000020: fef2 76bd d903 e2bd 5083 85bd 57d3 74bd
00000030: dc65 10be 1da7 d2bd d638 02bd dc12 53bd
00000040: e609 f2bd ede0 cdbd 0ade 18bd 1148 0fbe
00000050: 638f 29be 0d95 74bd 273b 14be 04cc ecbd
00000060: f6fc afbd 4fd0 e7bd 6cd7 e6bd 7f41 44bd
00000070: 24e2 e2bd 5fb3 07be cc9d fbbd 1588 67bd

bn2_1.running_mean f4 [32]
-0.01067933 -0.546057 -0.13460627 -0.9099532 -0.3812856 -0.48032564 -0.51669794 -0.098998055
-0.28020692 -0.39323553 -0.17246862 -0.47863945 -0.41934577 -0.3828379 -0.39002967 -0.4395162
-0.58436763 -0.29946917 -0.4578308 -0.23645711 -0.22573051 -0.21304576 -0.24275841 -0.33280307
-0.14320643 -0.38262218 -0.32623145 -0.22327513 -0.31011015 -0.38261193 -0.34545317 0.104436085
00000000: 5bf8 2ebc 64ca 0bbf 3ad6 09be b1f2 68bf
00000010: de37 c3be 3eed f5be 5146 04bf 7ebf cabd
00000020: 4877 8fbe 2b56 c9be 9d9b 30be 3b10 f5be
00000030: 7db4 d6be 5403 c4be f8b1 c7be 4408 e1be
00000040: 1e99 15bf 0654 99be cc68 eabe d021 72be
00000050: e625 67be ab28 5abe a995 78be 2a65 aabe
00000060: b5a4 12be 0ee7 c3be cf07 a7be 3ca2 64be
00000070: c2c6 9ebe b6e5 c3be 3ddf b0be 96e2 d53d

bn2_1.running_var f4 [32]
0.7800392 0.28208584 0.5202594 0.94696575 0.27513188 0.30175647 0.4882695 0.3835537
0.4042853 0.2770936 0.4864193 0.35046953 0.46201575 0.2510781 0.40051147 0.53770125
0.45517623 0.320149 0.28693062 0.2260364 0.30648366 0.52131426 0.32139003 0.42950732
0.38390946 0.41724336 0.27165136 0.31744725 0.39572498 0.330329 0.3630161 0.21462104
00000000: a6b0 473f 8e6d 903e b82f 053f 596c 723f
00000010: 16de 8c3e d37f 9a3e 76fe f93e 2761 c43e
00000020: 7cfe ce3e 36df 8d3e f30b f93e be70 b33e
00000030: 548d ec3e 4f8d 803e d70f cd3e caa6 093f
00000040: dc0c e93e 92ea a33e 92e8 923e 1676 673e
00000050: 6deb 9c3e da74 053f 3c8d a43e 62e8 db3e
00000060: c88f c43e eca0 d53e e315 8b3e 7288 a23e
00000070: 779c ca3e e220 a93e 3fdd b93e 9ec5 5b3e

conv2_2.weight f4 [32, 32, 3, 3]
0.04480071 -0.04631557 -0.069420874 -0.017490245 0.022648225 0.02241356 -0.0135817295 0.027137788
-0.011155251 0.009694576 -0.021929227 0.003653246 0.018837295 0.027649442 -0.009737641 -0.0069129253
-0.014507647 -0.052789852 0.014453525 -0.009583468 -0.06691676 -0.0071669314 0.024810705 -0.038355887
0.04781379 -0.024964461 0.038651034 0.030875731 -0.036514718 0.012471265 -0.0002857396 -0.0046521556
0.04774319 -0.017340278 0.022435497 -0.017094199 0.027682057 0.036485426 -0.024360863 0.02770795
-0.010205438 0.0052824225 0.059716366 0.037411723 -0.04777135 -0.01562141 -0.04173088 -0.012033814
0.034063224 0.0077656684 -0.031462822 -0.052621108 -0.040180467 0.014002921 0.037086766 0.04241598
-0.027933057 0.055937897 0.035428513 -0.01916616 0.042901013 -0.024041621 -0.0043197363 -0.040165633
-0.028728554 -0.1096015 0.02885488 -0.018439814 -0.06613682 -0.04408409 0.01100913 0.011555476
-0.12609734 -0.031237002 -0.08302087 0.026710179 -0.043879878 -0.08643647 -0.04235406 -0.025360322
-0.0238854 -0.08368585 0.020473717 -0.066469714 0.0037888403 0.0071359053 -0.016841872 -0.08436953
0.048740238 -0.018360177 0.068042606 -0.013922619 0.018231915 0.004161961 0.0038339498 -0.05444763
0.009279913 -0.03562125 -0.06612921 -0.086872235 -0.05009301 -0.06805624 0.015300909 -0.024286823
0.022090819 -0.02007557 0.022424519 0.013644382 -0.06953616 -0.11109459 -0.06816048 0.0046122735
-0.049325075 -0.05554661 -0.037109055 -0.035124715 0.0064299083 -0.006517218 0.0017681741 -0.03299631
-0.04489722 0.06511969 -0.014058049 0.042878043 -0.012783084 0.035360247 0.071526095 0.0062562358
0.017445454 -0.005122927 -0.004530569 -0.0025598754 -0.040310916 0.018755067 -0.014899921 0.0012783349
-0.02493056 0.013809765 -0.013807135 -0.05796632 0.026937237 0.015208686 0.03130341 -0.0057527325
0.01345659 -0.049995907 -0.022771515 0.014537879 0.08411892 0.025066746 0.019168153 -0.046164848
-0.015351969 -0.02621292 -0.031775076 -0.04714773 -0.036660794 -0.0057992986 -0.05677739 -0.03244622
0.013991744 0.02577078 0.020609701 0.09373952 -0.0020700963 0.023492299 0.017595103 0.02955856
0.00725905 0.051654417 0.020775558 -0.043115072 0.005287157 -0.022709263 -0.04722618 -0.056499418
0.023257375 -0.010957098 0.03209017 0.03189628 -0.021527423 -0.032750454 -0.09130342 -0.003207504
-0.017237775 -0.0017494863 0.090768225 0.07366666 0.011733215 -0.05197761 -0.10123811 -0.058306616
-0.016495004 0.05306233 0.0022151945 -0.02584982 0.0023602252 -0.0078977 0.10238815 0.034028202
0.014289596 -0.01345331 -0.029376123 -0.0049194046 -0.023669347 -0.056243416 -0.08207082 0.08319495
0.0106602125 0.035863616 -0.0012313781 -0.053614087 0.005457125 0.031160517 -0.0059910375 0.037700593
0.07654436 0.022489354 -0.006061784 0.08239132 0.04418183 0.07405229 -0.027210308 -0.033426575
-0.01089021 -0.024061538 0.076278985 0.063354485 -0.03874454 -0.032657534 -0.07403169 -0.029229091
-0.045669235 0.042115904 -0.028812125 -0.02538574 -0.057887837 -0.01806682 0.007726033 -0.0033029371
-0.032618932 0.057362445 -0.0114221955 -0.077746846 0.027987212 0.008457558 0.028258692 -0.037403025
0.010450274 -0.011827614 -0.0023802093 -0.030112194 -0.06948684 0.00062518753 -0.05252817 -0.046535593
00000000: f380 373d 65b5 3dbd 882c 8ebd b447 8fbc
00000010: c588 b93c a49c b73c e785 5ebc 1150 de3c
00000020: 84c4 36bc 00d6 1e3c eca4 b3bc 4c6b 6f3b
00000030: ac50 9a3c 1581 e23c a08a 1fbc d285 e2bb
00000040: 7bb1 6dbc 2c3a 58bd 7ace 6c3c fa03 1dbc
00000050: a70b 89bd 94d8 eabb d23f cb3c 101b 1dbd
00000060: 65d8 433d 4582 ccbc 8c50 1e3d 1aef fc3c
00000070: 7590 15bd 4754 4c3c 52cf 95b9 1c71 98bb
00000080: 5d8e 433d 330d 8ebc a6ca b73c 2209 8cbc
00000090: 7bc5 e23c be71 153d 6f90 c7bc c8fb e23c
000000a0: b634 27bc 2c18 ad3b 2699 743d 093d 193d
000000b0: e4ab 43bd f1f0 7fbc 00ee 2abd 7929 45bc
000000c0: e185 0b3d 2677 fe3b 29df 00bd 3b89 57bd
000000d0: 4694 24bd 826c 653c 4be8 173d 61bc 2d3d
000000e0: ded3 e4bc 231f 653d 7d1d 113d 5a02 9dbc
000000f0: f9b8 2f3d eff2 c4bc 938c 8dbb b884 24bd
00000100: 2558 ebbc c076 e0bd 1261 ec3c 180f 97bc
00000110: be72 87bd 8591 34bd a35f 343c 2e53 3d3c
00000120: a91f 01be bee4 ffbc d906 aabd 4ecf da3c
00000130: 63bb 33bd 9b05 b1bd 737b 2dbd 73c0 cfbc
00000140: 50ab c3bc 7d63 abbd 7fb8 a73c 4621 88bd
00000150: 314e 783b 50d4 e93b f7f7 89bc efc9 acbd
00000160: d8a3 473d 1568 96bc ec59 8b3d b21b 64bc
00000170: 195b 953c 0f61 883b 0143 7b3b 7a04 5fbd
00000180: c70a 183c 96e7 11bd c06e 87bd 12ea b1bd
00000190: 542e 4dbd 1261 8bbd aab0 7a3c 29f5 c6bc
000001a0: cef7 b43c 8675 a4bc a0b3 b73c b08c 5f3c
000001b0: f968 8ebd 8f85 e3bd b997 8bbd 8e22 973b
000001c0: 1709 4abd d884 63bd aaff 17bd efde 0fbd
000001d0: fbb1 d23b 638e d5bb 14c2 e73a 2427 07bd
000001e0: 26e6 37bd 795d 853d bb53 66bc e3a0 2f3d
000001f0: 2470 51bc e8d5 103d 467c 923d 1c01 cd3b
00000200: c5e9 8e3c 3ade a7bb 2b75 94bb 95c3 27bb
00000210: 0f1d 25bd 3aa4 993c cc1e 74bc cd8d a73a
00000220: 2c3b ccbc 5a42 623c 5237 62bc 186e 6dbd
00000230: 7bab dc3c da2d 793c 0138 003d 6b81 bcbb
00000240: 0779 5c3c 82c8 4cbd 548b babc 4930 6e3c
00000250: 8a46 ac3d c758 cd3c 8806 9d3c 5a17 3dbd
00000260: d386 7bbc 7abc d6bc 9526 02bd fa1d 41bd
00000270: a129 16bd 0b08 bebb 698f 68bd 54e6 04bd
00000280: a13d 653c 3e1d d33c add5 a83c 81fa bf3d
00000290: 74aa 07bb ec72 c03c 9b23 903c cb24 f23c
000002a0: 53dd ed3b 9593 533d 8131 aa3c 6e99 30bd
000002b0: e33f ad3b c708 babc 3d70 41bd ef6b 67bd
000002c0: 4086 be3c 6685 33bc fb70 033d aca5 023d
000002d0: 475a b0bc 5725 06bd 4afd babd fd34 52bb
000002e0: 3c36 8dbc 054f e5ba b1e4 b93d 8cde 963d
000002f0: ac3c 403c 79e6 54bd ed55 cfbd ebd2 6ebd
00000300: 8820 87bc e357 593d cc2c 113b 00c3 d3bc
00000310: 02ae 1a3b 5b65 01bc e1b0 d13d 2861 0b3d
00000320: e91e 6a3c 466b 5cbc 32a6 f0bc f532 a1bb
00000330: 38e6 c1bc 7f5f 66bd bf14 a8bd 1d62 aa3d
00000340: 2ca8 2e3c bae5 123d 3166 a1ba 729a 5bbd
00000350: afd1 b23b 5744 ff3c 7750 c4bb f06b 1a3d
00000360: 4ac3 9c3d 983b b83c eea1 c6bb c8bc a83d
00000370: 02f8 343d baa8 973d 27e8 debc 4eea 08bd
00000380: da6c 32bc b41c c5bc 2838 9c3d ffbf 813d
00000390: 98b2 1ebd e8c3 05bd ed9d 97bd d971 efbc
000003a0: aa0f 3bbd ba81 2c3d 6807 ecbc c1f5 cfbc
000003b0: cc1b 6dbd de00 94bc aa2a fd3b 1776 58bb
000003c0: 6e9b 05bd e2f4 6a3d 2924 3bbc bd39 9fbd
000003d0: 7045 e53c 9291 0a3c c67e e73c ea33 19bd
000003e0: a037 2b3c 9cc8 41bc 49fd 1bbb d9ad f6bc
000003f0: 1e4f 8ebd a0e3 233a c727 57bd 1b9c 3ebd

conv2_2.bias f4 [32]
-0.02453825 -0.0031930655 0.04965046 0.023891196 0.01349369 0.015536187 -0.036101848 -0.036847845
-0.0083595 -0.042261563 0.010636496 0.032928307 -0.03813575 0.031191165 0.05218137 0.020806164
0.053052817 0.0017463038 -0.04066602 -0.043521244 0.038596332 -0.057293706 -0.016212229 -0.027323652
-0.05803599 -0.0002671527 0.03018373 0.042067677 -0.016338676 0.04532571 -0.037088204 0.057423547
00000000: 7104 c9bc c042 51bb 485e 4b3d 78b7 c33c
00000010: a314 5d3c 7e8b 7e3c 88df 13bd c4ed 16bd
00000020: 49f6 08bc 761a 2dbd b344 2e3c d5df 063d
00000030: 3b34 1cbd 9d84 ff3c 22bc 553d b071 aa3c
00000040: e94d 593d 3be4 e43a 6a91 26bd 5543 32bd
00000050: 3017 1e3d ceac 6abd 82cf 84bc dad5 dfbc
00000060: 25b7 6dbd a110 8cb9 df43 f73c 284f 2c3d
00000070: b0d8 85bc 74a7 393d cde9 17bd f434 6b3d

bn2_2.weight f4 [32]
0.99977267 1.1618571 1.0906448 1.0521489 1.0158165 1.0560179 1.0293795 0.9864978
1.0819368 1.1860646 1.0358264 1.0782006 1.0481495 1.0242296 1.0571936 1.0702629
1.050706 1.0860087 1.0185221 1.2098597 0.95624405 1.1153281 1.0516067 1.0299329
1.1387991 1.0406971 1.0315527 0.9933837 1.1860889 1.0677814 1.0695326 1.0486963
00000000: 1af1 7f3f bcb7 943f 409a 8b3f d1ac 863f
00000010: 4606 823f 982b 873f b5c2 833f 1f8b 7c3f
00000020: e87c 8a3f f7d0 973f f695 843f 7a02 8a3f
00000030: c329 863f f519 833f 1f52 873f 60fe 883f
00000040: 897d 863f 5502 8b3f ef5e 823f afdc 9a3f
00000050: 69cc 743f 12c3 8e3f 0c9b 863f d7d4 833f
00000060: 2bc4 913f 9035 853f eb09 843f 654e 7e3f
00000070: c3d1 973f 10ad 883f 72e6 883f ae3b 863f

bn2_2.bias f4 [32]
-0.044588685 -0.01899298 -0.067078926 -0.027738586 -0.07457429 -0.07187242 -0.019888394 -0.029741459
-0.015002842 -0.1503125 -0.066847734 -0.16115434 -0.10127004 -0.099598095 -0.04209373 -0.012106297
0.013936046 -0.0038331186 -0.03665387 -0.18374887 -0.07042054 -0.08812702 -0.033428453 -0.032658275
-0.057179086 -0.0797647 -0.061374627 -0.04249573 0.039501674 -0.076483145 0.006891012 -0.020575104
00000000: a0a2 36bd 2a97 9bbc ad60 89bd 083c e3bc
00000010: 68ba 98bd d931 93bd fcec a2bc 5ca4 f3bc
00000020: 7bce 75bc 85eb 19be 77e7 88bd a505 25be
00000030: ab66 cfbd 16fa cbbd 7a6a 2cbd 7d59 46bc
00000040: 0354 643c 0f35 7bbb 5e22 16bd aa28 3cbe
00000050: a538 90bd f07b b4bd 46ec 08bd afc4 05bd
00000060: 9e34 6abd ad5b a3bd f663 7bbd 0110 2ebd
00000070: 82cc 213d 32a3 9cbd 00ce e13b 1f8d a8bc

bn2_2.running_mean f4 [32]
-0.5256435 -0.1670269 -0.111761615 -0.49727446 -0.21995422 -0.03530502 0.039096914 -0.13102216
0.09118584 -0.120276764 0.579629 -0.14129801 -0.27887166 -0.09778098 -0.23270386 -0.10340495
-0.09987499 -0.23167197 0.19114147 -0.2601389 -0.43948245 -0.3201087 -0.3944233 -0.41946587
-0.3234092 -0.36680707 -0.28259367 -0.055327747 -0.37318826 -0.20584363 0.06187149 -0.44059914
00000000: 9390 06bf 1a09 2bbe 46e3 e4bd c29a febe
00000010: ae3b 61be ff9b 10bd 1624 203d ac2a 06be
00000020: a4bf ba3d aa53 f6bd 9162 143f 6db0 10be
00000030: 44c8 8ebe 6541 c8bd ec49 6ebe f9c5 d3bd
00000040: 428b ccbd 6b3b 6dbe 97ba 433e ed30 85be
00000050: d803 e1be 4ae5 a3be daf1 c9be 3bc4 d6be
00000060: e495 a5be 23ce bbbe 1eb0 90be 599f 62bd
00000070: 8812 bfbe acc8 52be f66c 7d3d 3696 e1be

bn2_2.running_var f4 [32]
0.21940579 0.12819302 0.21650703 0.19331168 0.17813067 0.1516355 0.18584488 0.16578256
0.16252197 0.11126065 0.22747353 0.1626919 0.19864012 0.20276195 0.11292059 0.17385812
0.12815593 0.1305678 0.18687357 0.080118135 0.2050447 0.19940545 0.12051575 0.14376
0.14206232 0.14696287 0.093323745 0.11974421 0.15107667 0.12909776 0.17826526 0.18562922
00000000: e9ab 603e 0845 033e 05b4 5d3e 7ff3 453e
00000010: e367 363e 5646 1b3e 1f4e 3e3e e7c2 293e
00000020: 296c 263e a0dc e33d d2ee 683e b598 263e
00000030: 5168 4b3e d4a0 4f3e e942 e73d dd07 323e
00000040: 4f3b 033e 91b3 053e c95b 3f3e fa14 a43d
00000050: 3df7 513e f130 4c3e f6d0 f63d d235 133e
00000060: c978 113e 6f7d 163e 8520 bf3d 743c f53d
00000070: d8b3 1a3e 3432 043e 2b8b 363e 9615 3e3e

conv3_1.weight f4 [64, 32, 3, 3]
0.02613855 0.001232151 -0.01908709 -0.02620374 -0.004817883 -0.05168977 0.01087627 -0.02497251
-0.019469514 -0.04738251 -0.025232742 -0.040415738 0.010615397 -0.061436206 0.011148229 0.17122479
0.08296506 0.118666984 -0.058154725 -0.0067951954 -0.048410963 0.015620217 -0.057590585 -0.0055410066
0.022962024 0.061140556 0.03390149 0.047159016 0.049568728 0.034427185 0.08484199 0.009590143
0.024978332 -0.009819174 0.04027762 0.029827682 0.00083574216 -0.023129389 0.013233338 0.06423075
-0.0031479376 -0.019192154 0.08457672 0.0430622 0.08261626 0.029129503 -0.013289026 -0.0019674639
-0.005084908 0.018887572 0.0137693565 0.020812536 0.11126627 0.088323385 -0.023755424 0.054718386
-0.030584898 0.0002489926 0.056984052 -0.002705695 -0.008853369 -0.0690368 -0.041455567 0.05064223
0.05388309 0.0008352063 0.042948082 -0.031048412 0.019832619 -0.06744404 -0.091061704 -0.076176964
0.011231813 -0.004880782 -0.020698532 0.024165938 0.004986463 0.023734776 0.0029639255 -0.05139561
0.00731795 -0.016279526 -0.031674307 -0.0794981 0.011151426 -0.029185073 -0.016963905 0.16770793
0.13000526 0.1414291 0.047333278 0.011710248 0.06628552 0.01526989 0.005069009 0.036569413
-0.1013383 -0.106074154 -0.06122172 -0.013848792 -0.03403463 -0.049529966 -0.015692018 0.017182715
0.0051140133 0.11672993 0.118224405 0.04214409 -0.07306349 -0.010934467 -0.023589885 0.005510666
0.009604264 0.011388385 0.07338059 0.073970124 0.039178398 -0.02393999 -0.046021964 -0.01062963
0.048078973 0.035893038 0.0039646584 0.10994644 0.05314029 0.085591465 -0.012386359 -0.007633364
0.035361305 -0.04260505 0.013344883 -0.03879386 -0.12543635 -0.09471483 -0.063625626 -0.016791094
0.03682839 0.011907593 -0.0070593767 0.0047790143 0.015096135 -0.017529199 -0.00080012693 -0.09806287
0.01863774 0.034165017 -0.016881818 -0.05597685 -0.030228883 0.03531915 -0.072574936 -0.08910062
-0.023169525 0.025116 0.010008511 -0.0038015184 -0.010527782 -0.011075495 -0.0060743783 0.033738755
0.030603146 0.04013139 0.044363145 -0.017876554 0.03426181 -0.018501382 0.018074118 -0.028921716
-0.018518941 -0.07295699 -0.042001344 -0.07028276 -0.05038626 -0.06087885 -0.008365569 0.011932051
-0.00651743 0.03509971 0.019599745 0.013051404 -0.025221663 0.04064581 -0.012376942 0.008290563
-0.04637467 -0.008941857 0.01029792 -0.0031432502 -0.04861173 -0.06864171 -0.0052746297 -0.10654558
0.005634172 0.042712398 0.0017940443 0.1510881 0.1336022 0.061259713 0.007600011 0.049468476
0.03412897 0.013496275 0.012604306 -0.0030441445 -0.051233478 0.020007133 0.018908277 0.053522132
0.05761084 0.024813594 0.066324696 -0.01558423 -0.02180716 0.02266309 0.011711754 0.013343776
-0.055133138 0.008591487 0.041033965 -0.02571817 -0.02419506 0.032379556 0.007574131 0.003353201
-0.028207313 -0.04020003 -0.03542147 0.017374875 -0.05087019 -0.02405739 -0.013380819 0.006775859
-0.029657977 -0.0044904067 0.030603 0.01860545 -0.0002896878 -0.020782102 0.01274524 -0.03522038
-0.029389441 -0.04388971 -0.07315941 -0.026884142 -0.008116064 0.0426575 -0.011233987 0.01796747
-0.046514407 -0.037411075 -0.01017856 -0.037096817 -0.005028342 -0.01253712 -0.052456476 -0.025697054
00000000: 8320 d63c 2080 a13a 875c 9cbc 3aa9 d6bc
00000010: 55df 9dbb a7b8 53bd 6232 323c 2693 ccbc
00000020: 887e 9fbc 2a14 42bd e5b4 cebc f98a 25bd
00000030: 34ec 2d3c 88a4 7bbd 10a7 363c 8d55 2f3e
00000040: 96e9 a93d ad07 f33d a633 6ebd 3baa debb
00000050: 934a 46bd f0eb 7f3c 1be4 6bbd 5591 b5bb
00000060: db1a bc3c 856e 7a3d 4adc 0a3d d029 413d
00000070: 9408 4b3d 8503 0d3d a3c1 ad3d fa1f 1d3c
00000080: 5c9f cc3c 9ae0 20bc 25fa 243d 2f59 f43c
00000090: b515 5b3a d879 bdbc a4d0 583c 698b 833d
000000a0: a14d 4ebb dd38 9dbc 8f36 ad3d fd61 303d
000000b0: b732 a93d ffa0 ee3c 37ba 59bc 91f0 00bb
000000c0: 4d9f a6bb 1cba 9a3c de98 613c 0d7f aa3c
000000d0: 92df e33d e4e2 b43d bc9a c2bc 6320 603d
000000e0: 2e8d fabc 398b 8239 1c68 693d 0852 31bb
000000f0: b90d 11bc 2a63 8dbd 50cd 29bd 3a6e 4f3d
00000100: 84b4 5c3d bff1 5a3a 54ea 2f3d 3d59 febc
00000110: 0478 a23c 1a20 8abd 8f7e babd ab02 9cbd
00000120: a305 383c f8ee 9fbb f88f a9bc a5f7 c53c
00000130: 7c65 a33b 6f6f c23c 6b3e 423b 3484 52bd
00000140: 6acb ef3b a45c 85bc ebbc 01bd e6cf a2bd
00000150: 78b4 363c 8915 efbc e3f7 8abc a1bb 2b3e
00000160: 1920 053e cad2 103e 8ae0 413d 57dc 3f3c
00000170: b4c0 873d 902e 7a3c ee19 a63b cfc9 153d
00000180: 748a cfbd 683d d9bd a0c3 7abd 0be6 62bc
00000190: e567 0bbd efdf 4abd 8c8c 80bc c4c2 8c3c
000001a0: 7493 a73b 1a10 ef3d a31f f23d 489f 2c3d
000001b0: 50a2 95bd 7b26 33bc 933f c1bc d192 b43b
000001c0: 345b 1d3c 5996 3a3c 9048 963d a67d 973d
000001d0: 8779 203d cc1d c4bc 8781 3cbd e627 2ebc
000001e0: 75ee 443d 9404 133d f7e9 813b 992b e13d
000001f0: a2a9 593d 944a af3d 28f0 4abc 4c21 fabb
00000200: 04d7 103d a282 2ebd 7fa4 5a3c 4fe6 1ebd
00000210: 6372 00be d9f9 c1bd 274e 82bd 7a8d 89bc
00000220: 5ed9 163d 1118 433c 5852 e7bb 4799 9c3b
00000230: c855 773c 6599 8fbc 9cbf 51ba 30d5 c8bd
00000240: 2cae 983c 9ef0 0b3d bd4b 8abc fb47 65bd
00000250: 90a2 f7bc d0aa 103d 2ba2 94bd 637a b6bd
00000260: 04ce bdbc 12c0 cd3c bdfa 233c e522 79bb
00000270: b87c 2cbc fe75 35bc 940b c7bb a631 0a3d
00000280: 73b3 fa3c d060 243d 21b6 353d da71 92bc
00000290: 1d56 0c3d 3690 97bc 2c10 943c 3ced ecbc
000002a0: 09b5 97bc 796a 95bd 9a09 2cbd 68f0 8fbd
000002b0: d361 4ebd 1a5c 79bd bd0f 09bc a67e 433c
000002c0: 2a90 d5bb b7c4 0f3d a58f a03c 8ed5 553c
000002d0: a99d cebc 397c 263d a8c8 4abc 24d5 073c
000002e0: 5ef3 3dbd de80 12bc 9bb8 283c fdfe 4dbb
000002f0: 181d 47bd 0694 8cbd cdd6 acbb 9234 dabd
00000300: dc9e b83b 32f3 2e3d 2326 eb3a d7b6 1a3e
00000310: 04cf 083e 77eb 7a3d 8309 f93b 759f 4a3d
00000320: d2ca 0b3d 7b1f 5d3c 4b82 4e3c 4580 47bb
00000330: 32da 51bd 00e6 a33c 88e5 9a3c 063a 5b3d
00000340: 58f9 6b3d e145 cb3c 3ed5 873d 0055 7fbc
00000350: eea4 b2bc f2a7 b93c a8e2 3f3c da9f 5a3c
00000360: 49d3 61bd 4fc3 0c3c 3b13 283d e9ae d2bc
00000370: b834 c6bc 6da0 043d 6a30 f83b 61c1 5b3b
00000380: 0613 e7bc c9a8 24bd 1a16 11bd c155 8e3c
00000390: 435d 50bd 0114 c5bc 393b 5bbc 0608 de3b
000003a0: 49f5 f2bc 4324 93bb 25b3 fa3c 756a 983c
000003b0: 3de1 97b9 3a3f aabc 69d1 503c 3f43 10bd
000003c0: 20c2 f0bc b2c5 33bd 9ad4 95bd 223c dcbc
000003d0: 3df9 04bc a1b9 2e3d c20e 38bc 8430 933c
000003e0: e485 3ebd 5b3c 19bd fac3 26bc d5f2 17bd
000003f0: cac4 a4bb 7e68 4dbc 9adc 56bd a182 d2bc

conv3_1.bias f4 [64]
-0.043240182 -0.049611576 0.009848834 0.04652456 -0.001119694 -0.051671676 -0.052735887 0.004007982
-0.03064255 0.0018837922 0.032564554 0.006780602 0.04360867 0.03075534 -0.058500092 0.057442524
-0.023618247 0.021419238 0.033346534 -0.041722868 0.056778442 0.041326556 0.023232577 0.033477698
-0.0076988637 -0.040032636 0.02039173 -0.052770037 0.016452678 0.038587622 0.008237148 0.05018936
0.020774 -0.029870298 -0.026277505 -0.009327093 0.042312555 0.017118886 0.04667179 -0.04688047
-0.05103734 -0.042827006 0.036051523 -0.022229085 -0.056189824 0.029266436 -0.048646104 0.036277417
0.026342547 0.032885607 0.019530993 0.037264265 0.05174509 -0.034435004 0.01654567 -0.027817171
-0.046240576 -0.04467217 -0.055721324 0.04865529 0.005533689 0.023291763 -0.0032965462 0.019060852
00000000: 9e1c 31bd 8235 4bbd 015d 213c 8990 3e3d
00000010: b2c2 92ba aea5 53bd 9601 58bd 6455 833b
00000020: 1606 fbbc 94e9 f63a 6962 053d d02f de3b
00000030: 019f 323d 9ff2 fb3c cb9d 6fbd da48 6b3d
00000040: 0e7b c1bc 6677 af3c 6096 083d 99e5 2abd
00000050: 8390 683d 0946 293d 3f52 be3c e91f 093d
00000060: c046 fcbb 43f9 23bd 8f0c a73c 6525 58bd
00000070: c4c7 863c 0e0e 1e3d 1af5 063c 5c93 4d3d
00000080: 3c2e aa3c 8eb2 f4bc ec43 d7bc aad0 18bc
00000090: ee4f 2d3d e83c 8c3c eb2a 3f3d bc05 40bd
000000a0: 880c 51bd 5f6b 2fbd c3aa 133d c519 b6bc
000000b0: 4d27 66bd 2ac0 ef3c 2341 47bd a197 143d
000000c0: 53cc d73c 0fb3 063d 76ff 9f3c 6aa2 183d
000000d0: a9f2 533d b80b 0dbd c98a 873c d6e0 e3bc
000000e0: c266 3dbd 2afa 36bd 0b3c 64bd c54a 473d
000000f0: f353 b53b 5ece be3c de0a 58bb 8125 9c3c

bn3_1.weight f4 [64]
1.168318 0.9684054 1.1398388 1.0705745 1.0802292 0.9649435 1.0832586 1.0090472
1.1221948 1.0103091 1.0118346 1.0012456 1.0070441 1.058056 0.9921661 0.9840777
1.0684061 0.99431175 1.2335384 0.99060905 1.1002111 1.0026681 1.0056416 1.0193628
1.0629582 1.0540301 0.99599373 1.0029062 1.0312624 0.9644187 1.0153372 0.98772526
0.99002707 1.0596352 0.99796253 1.175617 1.0941483 1.0233359 1.032427 1.0156444
1.0234219 0.9994276 0.99012583 0.97979075 1.0089369 1.0037208 1.0785826 1.0628107
0.9810671 1.1331924 1.0837665 0.9832422 1.1315762 1.0182993 1.0513957 1.0204793
0.9909716 1.0198476 1.1005934 1.104193 0.9907144 1.0178632 0.98068666 1.0016011
00000000: 728b 953f 6be9 773f 3de6 913f 9608 893f
00000010: f344 8a3f 8a06 773f 38a8 8a3f 7528 813f
00000020: 14a4 8f3f cf51 813f cc83 813f d128 803f
00000030: d2e6 803f 616e 873f 99fe 7d3f 84ec 7b3f
00000040: 88c1 883f 378b 7e3f 96e4 9d3f 8e98 7d3f
00000050: b8d3 8c3f 6e57 803f ddb8 803f 7b7a 823f
00000060: 040f 883f 75ea 863f 72f9 7e3f 3b5f 803f
00000070: 6800 843f 25e4 763f 92f6 813f 90db 7c3f
00000080: 6a72 7d3f 20a2 873f 797a 7f3f 9e7a 963f
00000090: 0d0d 8c3f acfc 823f 9126 843f a300 823f
000000a0: 7dff 823f 7dda 7f3f e378 7d3f 91d3 7a3f
000000b0: d824 813f ec79 803f ff0e 8a3f 2e0a 883f
000000c0: 3727 7b3f 730c 913f dcb8 8a3f c3b5 7b3f
000000d0: 7dd7 903f a257 823f 2294 863f 119f 823f
000000e0: 51b0 7d3f 5e8a 823f 3fe0 8c3f 3256 8d3f
000000f0: 759f 7d3f 5749 823f 480e 7b3f 7734 803f

bn3_1.bias f4 [64]
-0.20818378 -0.08038814 -0.0801091 0.027147897 -0.09373445 -0.092557624 0.00023769826 -0.06776213
0.041264985 -0.007072108 0.027983515 -0.009093337 -0.03571852 -0.017465616 -0.02741922 0.011763215
-0.013826558 -0.0086192945 -0.021928674 -0.02559401 -0.11359496 0.008195543 0.008438124 -0.0057385275
-0.0058539864 0.006428683 0.00042129177 -0.010174261 -0.017375669 -0.01930014 -0.05589016 -0.013071246
-0.048069175 -0.0007906204 -0.060160253 -0.012962626 -0.0335054 -0.025080653 -0.076018184 0.00862042
-0.03770912 -0.017732786 -0.05913347 -0.07471958 -0.0124340765 -0.016419232 -0.08977382 -0.021827603
-0.008454596 -0.13131374 -0.16189307 -0.016488554 -0.14869584 -0.053758055 -0.011186996 -0.04324883
-0.02901189 -0.0065500215 0.021581568 -0.2123867 -0.07805674 0.021506395 -0.06404244 -0.0063295593
00000000: 212e 55be 8aa2 a4bd 3d10 a4bd 4465 de3c
00000010: d9f7 bfbd da8e bdbd a43e 7939 dfc6 8abd
00000020: 7905 293d 24bd e7bb af3d e53c 38fc 14bc
00000030: 954d 12bd 0d14 8fbc 469e e0bc 80ba 403c
00000040: ca88 62bc f137 0dbc c3a3 b3bc 87aa d1bc
00000050: 79a4 e8bd 9946 063c 0f40 0a3c 420a bcbb
00000060: ccd2 bfbb b4a7 d23b d3e0 dc39 f2b1 26bc
00000070: 6b57 8ebc 541b 9ebc 15ed 64bd c828 56bc
00000080: 2fe4 44bd a341 4fba 996a 76bd 3261 54bc
00000090: f53c 09bd f175 cdbc 6caf 9bbd a93c 0d3c
000000a0: e174 1abd 5944 91bc f035 72bd 9406 99bd
000000b0: 4cb8 4bbc a081 86bc 56db b7bd cdcf b2bc
000000c0: 2585 0abc 1c77 06be 4cc7 25be 0113 87bc
000000d0: b943 18be 6831 5cbd a949 37bc af25 31bd
000000e0: 58aa edbc 90a1 d6bb d4cb b03c e67b 59be
000000f0: 36dc 9fbd 2e2e b03c af28 83bd 3168 cfbb

bn3_1.running_mean f4 [64]
-0.11930061 -1.1031231 0.087711126 1.3129697 -0.26140672 -0.98756444 -0.27132875 -0.5227864
-0.17639513 -0.23814951 -0.18755515 0.4250108 -0.13942833 0.1122315 -0.84427667 0.6116997
0.5332802 -0.23173271 -0.0386983 -1.0418493 -0.27985594 -0.90920794 -0.90903014 -0.6798734
-0.29945046 -1.0310078 0.7205504 -0.71110874 -0.636621 -0.2057982 -0.43639815 0.603034
-0.93848413 -0.70700514 -0.7942048 0.42185143 0.7343439 -0.3079378 -0.24349017 -0.90637034
-0.036066618 -1.1255405 -0.6508455 -0.9063583 -1.3558114 -1.2079933 -0.37344787 -0.09962698
-0.89801645 -0.14228442 -0.12860525 0.0740498 0.0851973 -0.42615843 0.07391185 -0.20540111
-1.7630359 -1.1257409 0.13178736 0.07690257 -0.19766855 -0.49096018 -0.6418841 -0.16070731
00000000: e153 f4bd 2333 8dbf e4a1 b33d 640f a83f
00000010: 1ad7 85be 06d1 7cbf 9aeb 8abe 54d5 05bf
00000020: eda0 34be 77dd 73be 750e 40be 049b d93e
00000030: 4dc6 0ebe a1d9 e53d 8422 58bf 5a98 1c3f
00000040: 0d85 083f 574b 6dbe 1c82 1ebd 515b 85bf
00000050: 4749 8fbe dac1 68bf 33b6 68bf 2f0c 2ebf
00000060: 9251 99be 10f8 83bf fe75 383f 390b 36bf
00000070: 98f9 22bf c3bc 52be 946f dfbe 7060 1a3f
00000080: 7f40 70bf 4afe 34bf 0151 4bbf e9fc d73e
00000090: f6fd 3b3f 06aa 9dbe 7d55 79be e307 68bf
000000a0: 97ba 13bd b611 90bf d09d 26bf 1907 68bf
000000b0: 3a8b adbf 869f 9abf 8f34 bfbe 3b09 ccbd
000000c0: 68e4 65bf 02b3 11be 18b1 03be 6ca7 973d
000000d0: ec7b ae3d 7031 dabe 195f 973d ab54 52be
000000e0: 29ab e1bf 4718 90bf 44f3 063e 187f 9d3d
000000f0: a069 4abe 225f fbbe 8452 24bf 7590 24be

bn3_1.running_var f4 [64]
0.5543101 0.4450019 0.47437143 0.54047716 0.54300857 0.657599 0.46762052 0.41507342
0.6260558 0.40787694 0.43069562 0.5596017 0.5420662 0.5643669 0.61027074 0.9422833
0.6155177 0.37945673 0.37397134 0.7299652 0.6176018 0.6730561 0.29636526 0.33046064
0.5503979 0.37847283 0.7813251 0.51965636 0.46422714 0.52189946 1.059175 0.56381774
1.5613999 0.7439545 1.1161385 0.4807257 0.67794985 0.3850399 0.46946394 0.43892848
0.4495608 0.599443 0.5062048 0.7415168 0.5311094 0.42141327 0.59083664 0.42009866
0.45136252 0.52495223 0.34694877 0.47657332 0.48545215 0.90974635 0.57671183 0.9195424
0.50240386 1.0156416 0.45515388 0.58722734 0.5556336 0.27355236 0.6506344 0.3980192
00000000: 44e7 0d3f 4ad7 e33e d0e0 f23e b65c 0a3f
00000010: 9c02 0b3f 6858 283f f56b ef3e 8184 d43e
00000020: 3145 203f 3fd5 d03e 2384 dc3e 0f42 0f3f
00000030: dac4 0a3f 597a 103f b43a 1c3f 7a39 713f
00000040: 9192 1d3f 2748 c23e 2c79 bf3e 00df 3a3f
00000050: 271b 1e3f 684d 2c3f 30bd 973e 2332 a93e
00000060: e0e6 0c3f 31c7 c13e ec04 483f 3308 053f
00000070: 2eaf ed3e 349b 053f 0c93 873f 5c56 103f
00000080: f4db c73f cd73 3e3f a0dd 8e3f ae21 f63e
00000090: 1f8e 2d3f f323 c53e 945d f03e 3cbb e03e
000000a0: d52c e63e 1975 193f a396 013f 0cd4 3d3f
000000b0: c9f6 073f 7bc3 d73e 1241 173f 2c17 d73e
000000c0: fd18 e73e 4563 063f 45a3 b13e 6b01 f43e
000000d0: 2f8d f83e 23e5 683f 63a3 133f 2167 6b3f
000000e0: 8a9d 003f 8b00 823f ee09 e93e 8854 163f
000000f0: 013e 0e3f 0e0f 8c3e fa8f 263f 2cc9 cb3e
