model_folder/best_model_10-03-2025.pth (torch, 305778 bytes, 37 tensors)

conv1_1.weight f4 [16, 1, 3, 3]
00000000: 1352 c43d 54dd 94be f8e1 88bd 0ac6 8b3e
00000010: 7877 483e e9dc 403e 0382 cfbd e551 acbd
00000020: 4546 5abe 7c62 d83d 69fc acbd 4997 1fbe
00000030: 72d4 abbe 108e 413e 1687 323e f113 e13b
00000040: 1ee2 6d3d 28c5 29be 9ea4 853e 9956 14be
00000050: b668 353c b0bd 5e3e 2012 b7bd 14f3 89be
00000060: 2e0c 80be 33ee a13b dd2d 823e fafa dbbc
00000070: 8255 863e cb0d abbe ac04 773e 478e 4cbe
00000080: 7c14 383c 90b9 aa3d 5be1 1a3d 125d 8cbd
00000090: b17d 0cbe 9213 d5bd 0649 583e d575 09be
000000a0: 3c86 6ebd 10da 5cbc 0f8c 963d 6581 7a3e
000000b0: e99b 58be 7be3 e4bd b150 083e 88bb 82bd
000000c0: 33d3 87be 6b60 653e 9995 71be ad51 16bd
000000d0: 24c4 f13d f4ab 703e 907c 7a3e cc50 af3d
000000e0: f5ae 9a3d c777 2e3e 0dfc 9d3d e5c9 9bbd
000000f0: d89e 3ebe c920 95be 726b e3bd 5267 0bbe
00000100: c117 a9be 9aad 483e 1b9f 4b3c a9ee 0c3e
00000110: 40f9 9b3d c81f 8e3e 957e 16be 80d3 a03d
00000120: 069f 4e3e bb22 30be 6de5 613e c732 a339
00000130: 6631 283e 8d75 d7bd 177f a5be e7b5 0f3c
00000140: 0943 453c 723c 28be ae19 b6be 1c61 1d3e
00000150: dcf2 bc3c 09ca bb3d 4168 32be 7a5f 313d
00000160: 2374 bf3d da11 903e 784b 01be 3ed9 a13e
00000170: c18e 923e 2a8c 08be 0e3b 293e 82f6 b7bc
00000180: 6771 b63d f27d da3d 280b 5e3e 3412 51bd
00000190: 74cb 86be 8b60 14bd 94d3 803e 330f 68be
000001a0: 6d4a 80be 9baa 613e 9c75 643e aab3 073e
000001b0: 1ba7 413e 05b3 47bd 5b3e afbe 5aa1 a1bd
000001c0: ca66 6b3e c438 933e 7251 1e3d e664 c43d
000001d0: ebb2 aebe 14b3 e0bc c2f6 28be c01d 933e
000001e0: c4dc 1e3e 83de 14be 7bbc 193e 3a0c 9bbe
000001f0: 3581 0bbe 80ad 413e 41ff 30be 0b61 b4bd
00000200: da6b 80be 6894 553e 3b7a 813e dbe8 9d3e
00000210: f968 9cbe 95b0 183e f421 c9bd ce35 64bd
00000220: 953e 593e f980 b7be ade1 1c3e e9bf 073c
00000230: 5388 14be c2ff 8bbd f5f4 10be 9520 373e
0.09585967 -0.2907511 -0.06683725 0.2729953 0.19576824 0.1883427 -0.1013222 -0.08414058
-0.21315868 0.105656594 -0.08446581 -0.15585054 -0.3356052 0.18901849 0.17434344 0.0068688323
0.05807697 -0.16579115 0.26102155 -0.1448616 0.011072328 0.21752048 -0.08939004 -0.26943266
-0.25009292 0.0049417256 0.25425616 -0.026853073 0.26237112 -0.3340896 0.24122876 -0.1997615
0.011235353 0.083361745 0.037812572 -0.06853689 -0.13719822 -0.10404123 0.21121606 -0.13423856
-0.058233485 -0.0134797245 0.07350933 0.24463423 -0.21153225 -0.11176201 0.13312031 -0.06383425
-0.2652832 0.22400062 -0.23592223 -0.036698986 0.11804989 0.23503095 0.2446158 0.08560333
0.07552902 0.17037879 0.077140905 -0.07606868 -0.18615282 -0.29126576 -0.11104478 -0.13613632
-0.33025935 0.19597474 0.01242807 0.13762917 0.076159 0.27758622 -0.14696725 0.078528404
0.2017785 -0.17200749 0.22060175 0.00031127615 0.16425094 -0.10520468 -0.32323524 0.008771396
0.012039908 -0.16429308 -0.35566467 0.15369076 0.023065023 0.091693945 -0.17422582 0.043303944
0.09348323 0.2813862 -0.12626445 0.31611055 0.28624538 -0.13334718 0.16526434 -0.022456411
0.089083485 0.106685534 0.21683943 -0.05104275 -0.26327097 -0.036224883 0.2516142 -0.22662048
-0.25056782 0.22037737 0.2231049 0.1325213 0.18911402 -0.04875471 -0.3422726 -0.078921035
0.2298843 0.28754246 0.03865189 0.09589557 -0.3412088 -0.027429141 -0.1650038 0.28733635
0.15513903 -0.14538006 0.15013306 -0.30282766 -0.13623507 0.18913841 -0.17284872 -0.08807572
-0.25082284 0.20857394 0.25288567 0.30841717 -0.30548838 0.1491111 -0.09820929 -0.055715375
0.2121528 -0.35840586 0.15320463 0.008285501 -0.14505129 -0.06835891 -0.14155944 0.17883523

conv1_1.bias f4 [16]
00000000: 4cd6 17be c696 4c3e 6c19 a1be 9fab 393e
00000010: 3877 1e3e be60 803e 8d50 963e 813d f7bd
00000020: eb7e a03a 8f6d a13e dabe d93d e7d1 383e
00000030: 5be0 193e 76c0 a4be 342e 373e c715 593e
-0.14827842 0.1997939 -0.31464708 0.18131875 0.15475166 0.25073808 0.2935833 -0.12072278
0.0012244856 0.315289 0.10632105 0.18048821 0.15026991 -0.32178086 0.17888719 0.21199714

bn1_1.weight f4 [16]
00000000: 80d5 833f 722a 6e3f b27b 853f fe06 7b3f
00000010: 9372 6d3f 185f 7a3f a0a9 813f e4fe 663f
00000020: 51a7 7b3f 5c01 803f c2fe 723f ab7d 883f
00000030: aded 763f da3e 833f 49df 7c3f dcc3 703f
1.029953 0.93033516 1.0428374 0.98057544 0.9275295 0.9780135 1.012989 0.9023268
0.9830218 1.0000415 0.9491998 1.0663351 0.96456414 1.0253556 0.98778206 0.9404886

bn1_1.bias f4 [16]
00000000: 1890 fc3d b64d 0abd 986f 593d da91 c93d
00000010: 0c2b 45bc e4c5 df3d 9f98 a83d 6ad3 0fbd
00000020: f555 c53d a30d 6f3c 82a3 37bd b0cf 683d
00000030: 21f4 0e3c 8c88 5d3d e99a c23d 83cc a6bc
0.12332171 -0.033765517 0.05308494 0.09842272 -0.012034189 0.109264165 0.08232235 -0.03511373
0.09635536 0.014590654 -0.044833668 0.05683869 0.008725197 0.0540853 0.09502203 -0.02036119

bn1_1.running_mean f4 [16]
00000000: 07a3 18be 6a50 d03d 9c96 a2be d035 3d3e
00000010: a612 bf3d f274 7f3e 3d98 933e b922 2fbd
00000020: 9993 9b3b e46f 9f3e 4351 083f df0e 383e
00000030: 2f86 293e ead0 a3be 899a 3a3e 7576 e03d
-0.1490594 0.10171588 -0.3175553 0.18477559 0.09329729 0.24946955 0.28827086 -0.042757723
0.0047478196 0.31140053 0.53248996 0.17974423 0.16555093 -0.31995326 0.18223013 0.10960094

bn1_1.running_var f4 [16]
00000000: aab9 1e3a 1428 833a 66e8 d339 58c9 933a
00000010: 5d29 303a b02d 393a e93f 0e3b 1024 a73a
00000020: 6856 3d3a da53 bf3a 78dc a03c 53fe 2e3b
00000030: 5b11 5c3a 2fd6 ea3a a049 433a 7e89 c03a
0.0006054888 0.0010006451 0.00040418206 0.0011275215 0.0006720031 0.0007063998 0.0021705574 0.0012751836
0.00072226534 0.0014597133 0.019636378 0.0026701882 0.000839492 0.0017916615 0.00074496306 0.0014689413

conv1_2.weight f4 [16, 16, 3, 3]
00000000: a1b3 823d 5d37 a3bd 4658 63bd b805 9c3d
00000010: b3f7 62bd b268 cdbc 2fe6 533d 04b2 883d
00000020: de66 70bd 0936 1f3d 1b20 89bd b4a1 54bd
00000030: 28e5 2ebb a72e 68bd b7a8 84bb 1042 debc
00000040: b0f6 9c3d 06d0 46bd 5b5f 553d f598 ee3c
00000050: 6c24 cabc c357 853d a0cd 703c 2583 113c
00000060: 06f3 8f3d 810c bcbc 7465 ca3d e8d7 b3bd
00000070: b9bc ba3c 4fc1 133d ca8b 173d 8ed7 873a
00000080: e9b6 48bd 5547 103d ad82 b4bd b49b 56bd
00000090: cdcd 96bc 7d96 b53c 23b4 efbc e6dd 33bd
000000a0: f9a9 bf3c dca0 4dbd 4f3f 0a3d 7dbf f63b
000000b0: 36bd 6cbd 5c0b d2bc 6792 e0bc f22e 563d
000000c0: 3f26 2cbd 6824 99bd 8fa7 123d 8b18 8abd
000000d0: bd71 1dbd 694e 31bd 50a4 89bd 08f6 643c
000000e0: 6e35 dbbd 5213 15bb 5512 903d f12d 643c
000000f0: c1c0 de3d eba3 c23d 9c88 e6bc 20d0 0ebd
00000100: b5ab 8dba 8469 573d 2c4d ccbc 8236 423c
00000110: b664 d8bc dea8 573c f241 9abb cdee ab39
00000120: 6a7c 4ebd 0c4e e83c bb42 d5bc c27a 7bbd
00000130: 9660 803d 81f7 b33c 3186 3cbd faee c33d
00000140: b8ff 48bd 4508 1d3d 3429 463d abb0 c5bc
00000150: cc57 b63d ed6f b43d d0f7 e93b 10a9 8f3d
00000160: 655e a83d 5545 c8bc 1362 8bbc 4f27 d13c
00000170: 4212 893b ebbd a3bc 8b3e ba3c 6942 3bbd
00000180: ca6c 453c 965c dd3b 1380 5bbd 75dd 0f3d
00000190: 1566 753d 58d2 a6bd 9394 993d a933 963d
000001a0: a659 e1ba 8130 a23d 1f05 e0bd c733 a63c
000001b0: 2eca 56bd 3537 023d b6e0 60bb 9f38 a4bc
000001c0: 5524 49bd f376 b0bb b19a 8e3c 659d cbbd
000001d0: 55e7 383b e404 df3c e85e 5cbc 1b66 0ebd
000001e0: 7b11 83bc 44b0 13bd 7bb6 4dbd 892e 87bd
000001f0: db96 3dbd c5a5 23bd 9e88 203d 3c39 a53c
00000200: 238c 76bd 7839 5cbc c165 d0bd 59fb 06be
00000210: a48e c4bd 320d f8bb 7a24 30bd 24b3 8a3d
00000220: e798 46bd db45 10bd 9ead 8d3d 4ad2 bfbc
00000230: 4a85 0c3c 7d3d 32bd d09f 033d 87eb 943d
00000240: 3d23 df3c 246b b1bc e304 543d f241 4e3b
00000250: e479 10bd e5ca a5bc 4a89 373c 8b8e 94bd
00000260: ea68 f43c e33f 603c 3592 2ebd 6f52 83bc
00000270: 73ba acba 5668 d43c 7b32 9ebc 3ff5 45bd
00000280: a55e 28bd 55ca 3cbd 7dca df3c 0cbf 6e3d
00000290: 556c 9b3d a401 c8bd 7edd 04bc 39fb 473d
000002a0: 597f a9bc 61d4 3dbd 87d7 16bd 3316 30bc
000002b0: 4b1e 7e3d a2c3 7fbd fd0c 23bd 7f84 48bc
000002c0: cec3 87bd 22f3 873c 7541 18bd fd56 d23c
000002d0: 8d78 9c3c 4c2e 53bd d0be 1f3d 019f b2bc
000002e0: b1fc 46bd e6d7 38bd 46c4 2abd 3cdb 43bd
000002f0: 97d1 893d 6ff7 ab3d 14e7 c0bc 8e0c b83c
00000300: b7ac ccbc 9699 183d e831 463d 0ac3 223d
00000310: ef14 2dbd 5fb1 fcbc c699 5fbd 50ef 09bd
00000320: db19 49bc 696d b1bd 0493 b63c 9c27 e5bd
00000330: a5f3 e2bd c034 5cbc 08d5 0abe 2a40 03bd
00000340: 66ca 453d 7a75 823d 9667 5fbd c63e 9b3d
00000350: 2d89 113d 114d cdbc 7f40 c4bc c5d8 89bd
00000360: 7e14 983d 7fab afbd 065a 31bd 125c 9fbd
00000370: 92bf df3b 7b7a 2cbc 4a9b 9dbc 8bc4 9bbd
00000380: a0c5 e63c 296b e0bc bb12 733c b13d 743d
00000390: 0cd3 c6bc 60ba 5fbd 5f4c c6bd 83e3 753d
000003a0: 5220 b7bd 9958 de3c 465a 61bd 217b 78bd
000003b0: 740e 15bd 0524 233b 079e 993d bb38 68bd
000003c0: 6f53 f33b 98b3 44bd de79 813d 38d8 bcbb
000003d0: 0e02 eabc d6db f13d d62c b0bd 2761 b9bc
000003e0: 7b2a 943d 5538 2a3d 4d40 f7bc 782b 22bd
000003f0: 344f 9a3c 9009 6d3c 83c0 9abc 6168 4e3d
0.06381918 -0.07969544 -0.055504106 0.07618278 -0.055412006 -0.025074337 0.051733192 0.06674579
-0.05869185 0.03886989 -0.06695577 -0.051912025 -0.002668688 -0.056685116 -0.0040484327 -0.02713111
0.076642394 -0.04853823 0.05209289 0.02912567 -0.02467557 0.0651088 0.014697462 0.008881365
0.07028775 -0.022955181 0.09882632 -0.08781415 0.022795068 0.036073025 0.036998548 0.0010363923
-0.04900256 0.035224278 -0.08813987 -0.052394584 -0.01840868 0.022166485 -0.0292607 -0.04391279
0.023396479 -0.050202236 0.033751782 0.0075301514 -0.057797633 -0.025640182 -0.02741356 0.052290864
-0.04202866 -0.07477647 0.035804328 -0.067429624 -0.038438547 -0.04328767 -0.06720793 0.013974674
-0.1070355 -0.0022747112 0.070347466 0.013926969 0.10876609 0.09503921 -0.028141312 -0.034866452
-0.0010808619 0.052590862 -0.024939142 0.011853816 -0.02641521 0.01316282 -0.0047075683 0.00032793582
-0.05041162 0.028357528 -0.026032796 -0.061396368 0.06268422 0.021968605 -0.046026412 0.095670655
-0.049071997 0.038337965 0.048379138 -0.024132093 0.08903465 0.08810411 0.0071401373 0.07014668
0.08221129 -0.024447123 -0.017014539 0.02553144 0.0041830847 -0.01998802 0.022734901 -0.04571763
0.012049863 0.006755422 -0.053588938 0.035123307 0.059911806 -0.08145589 0.074990414 0.07334072
-0.0017192855 0.07919408 -0.10938477 0.020288361 -0.052438907 0.03179093 -0.0034313626 -0.02004653
-0.049106915 -0.0053852736 0.017407747 -0.0994213 0.0028214057 0.027224012 -0.013450362 -0.034765344
-0.015999546 -0.036056772 -0.050222855 -0.06600673 -0.046286445 -0.039953012 0.03919279 0.020168893
-0.06019224 -0.013441436 -0.10175658 -0.13181819 -0.09597519 -0.0075699324 -0.043003537 0.067724496
-0.048485663 -0.03522287 0.069178805 -0.023415703 0.0085767 -0.04351567 0.03213483 0.07271486
0.027238483 -0.021657534 0.051762473 0.0031472412 -0.035272494 -0.02023835 0.011202166 -0.072537504
0.029835183 0.013687107 -0.042619903 -0.016030518 -0.0013178125 0.025928658 -0.01931118 -0.048329588
-0.041105885 -0.046091396 0.027318234 0.058287665 0.07589022 -0.09765938 -0.0081094485 0.04882357
-0.020690607 -0.04634512 -0.036826637 -0.01074748 0.06204061 -0.06244243 -0.03980731 -0.012238621
-0.06629144 0.016595427 -0.0371718 0.025676245 0.019100452 -0.051557824 0.039000332 -0.021804335
-0.04858083 -0.04512777 -0.041691087 -0.0478165 0.06729429 0.083968036 -0.023547687 0.022466924
-0.0249847 0.037255846 0.048387438 0.039736785 -0.042256292 -0.030846296 -0.05459001 -0.03367549
-0.012274231 -0.086634465 0.0222869 -0.111891955 -0.11081628 -0.013440311 -0.13557827 -0.032043613
0.048288725 0.06370063 -0.054542147 0.075803325 0.03553121 -0.025061162 -0.023956535 -0.06730799
0.074257836 -0.08577632 -0.043298744 -0.07781233 0.006828257 -0.0105272485 -0.019239087 -0.07605847
0.028170407 -0.027394848 0.014836009 0.059629146 -0.024270557 -0.0546211 -0.096825354 0.060031425
-0.089417115 0.027141856 -0.055017732 -0.0606643 -0.036390737 0.0024893295 0.075008444 -0.056694727
0.0074257175 -0.048022836 0.063220724 -0.00576308 -0.028565433 0.118095085 -0.08602302 -0.022629334
0.07234665 0.04155763 -0.030182028 -0.039592236 0.018836595 0.014467612 -0.018890625 0.050392512

conv1_2.bias f4 [16]
00000000: a91f c5b8 3b9e 6d3d c326 80bd ef38 83bc
00000010: d7a7 55bc 8dc5 9f3d 08f9 713d 1f48 dcbb
00000020: e045 88bd b627 683d d803 ae3c 02df 77bd
00000030: 95b8 26bd d42a 883b 399f a0bd 8f9d c23c
-9.399589e-05 0.05801223 -0.06257393 -0.016018359 -0.013040504 0.07801352 0.059075385 -0.0067224647
-0.066539526 0.056678496 0.021242067 -0.06051541 -0.040703375 0.004155496 -0.07842869 0.02375677

bn1_2.weight f4 [16]
00000000: e922 7e3f 05b3 883f 1c89 7e3f 8c2c 833f
00000010: 0d44 8f3f 5df5 863f e938 863f 3401 873f
00000020: ff2f 823f 3e3f 8b3f 04a3 8d3f c935 783f
00000030: aeed 833f 9716 823f bc31 803f 3451 903f
0.9927202 1.0679632 0.9942796 1.024797 1.1192642 1.0543629 1.0486118 1.0547242
1.0170897 1.0878675 1.1065373 0.9695707 1.0306909 1.0163144 1.0015178 1.1274781

bn1_2.bias f4 [16]
00000000: 574b 56bc abd3 873c 4d8f e6bb 345b 643b
00000010: 7198 99ba b470 f03c c8a8 bebc 9cc8 b2bc
00000020: 705c a2ba eeb6 19bd e690 0a3d 6f0a 02bd
00000030: 8530 54bc 0b81 2dbc 275e be3c 1162 893c
-0.013079486 0.016580423 -0.0070361258 0.00348444 -0.0011718405 0.029350616 -0.02327384 -0.021824174
-0.0012387168 -0.03752797 0.033829592 -0.03174823 -0.012951021 -0.010589848 0.023238255 0.016770395

bn1_2.running_mean f4 [16]
00000000: db87 3cbe a728 a9be f1fc 30be 3c15 39bd
00000010: ea2e adbe 6610 5fbe a95b 31bd 9663 59be
00000020: 00b0 b4bd 6a45 62be 9d24 aabe a263 87be
00000030: f293 c7be 7d08 81be 8907 49be 7162 b2bd
-0.184112 -0.33038828 -0.1728399 -0.045186266 -0.33824855 -0.217836 -0.043300305 -0.21229395
-0.08822632 -0.22096792 -0.3323106 -0.264432 -0.3898006 -0.2520179 -0.1963178 -0.087101825

bn1_2.running_var f4 [16]
00000000: 2939 153e c3ec 523e a9e6 e43d 4355 7b3e
00000010: 4663 753e 9378 5b3e f616 583e ce97 793e
00000020: cd64 ea3d 682a ad3e 58e1 673e 1a0c 693e
00000030: 6cc1 aa3e 5d6a 893e 0c4b 163e 8fa4 0d3e
0.14572586 0.2059813 0.111768074 0.24544244 0.23963651 0.21432714 0.21102509 0.24374315
0.114450075 0.33821416 0.22644556 0.22758523 0.33350694 0.2683896 0.14677066 0.13832305

conv2_1.weight f4 [32, 16, 3, 3]
00000000: ddce 753d b9af c83a 9457 5b3d d1c9 ce3d
00000010: d831 26bd b81c febc 7b92 8b3b 58f5 54bd
00000020: 8a73 00bd 863d b3bc 1b70 cc3b 51e2 3e3d
00000030: b82a 8ebc 9fe7 513c dba7 e03c b1ad 6039
00000040: eab3 c13c d5ae 1cbd 5b37 b6bd 37ea 64bc
00000050: 08a0 623d 5c9f 9e3c b548 1fbd 569a 1cbd
00000060: 3908 82bb 2e26 08bd 8f29 873d 4c2e 88bd
00000070: e5f6 1a3d f578 ae3c bd1a eebb b4ec 553d
00000080: 252c ce3c 81ae 34bd 26a4 1abd 72d1 333d
00000090: 0c22 d03d 9b90 b13d 21d5 953d 66ee c6bc
000000a0: e55a 703d 6a69 863d cc08 08bd ecf3 c0bd
000000b0: c7a0 87bd f0e2 2cbd e8cd 203d ac49 72ba
000000c0: da9e a9bd d435 ffbc 7fda 993c 47e9 afbd
000000d0: 73fe 2b3d db87 6dbc cbb7 67bd d018 53bd
000000e0: 1da9 9a3d 83d4 9bbc feb2 53bd 1417 a83d
000000f0: 406b 5fbd cbc2 8ebc b05a 81bd e55c 3f3d
00000100: 7825 d0ba b26c 45bc bd36 863d 15f1 933d
00000110: 9ee3 b8bd a54c 10bc 4c2d 103c a164 e1bc
00000120: 57fa d33c ae6d 213d c7b1 b9bd 6cf2 4d3d
00000130: 1265 723d f491 1dbd 9125 a33d 73ed 893d
00000140: def3 ecbc 8ea7 01bd d7b8 983c 8d62 eebd
00000150: d4fa 783c c2d2 d2bd 41cf 18bd 90f9 233d
00000160: 3869 153c f7b7 a53d 104c 3bbd acbe eebc
00000170: d8e6 0ebd 9268 9039 00e8 373d 67cb 893d
00000180: 5db8 01bd c4a2 6e39 2bc7 a63b bc08 253d
00000190: 17f7 493d a769 8a3c aa54 b33c 2060 39bd
000001a0: f241 b7bd d3f7 71bd 620a a43d 0623 34bc
000001b0: 68c0 c43c a72b 823d f97e 94bd 602b 7fbd
000001c0: 6a86 e93b 04d2 14bc d4db a93c 229e bd3c
000001d0: 75e3 f4bc 5e6b 1b3d b5c4 5cbd d3cf debd
000001e0: 3f88 efbc 4411 a1bc 5729 c9bc 2898 25bc
000001f0: 4e9c 0dbd d72e 80bd 4f0a 253d c679 6fbd
00000200: 2706 e6bd 378f a2bb 6b6f 81bc 9c2e 82bd
00000210: 5eff dd3a e9d8 803d 2d2e 893d f485 79bd
00000220: 7b98 40bd fa00 623d 8f22 693d dd47 8b3c
00000230: 5e98 25bd 51e9 a1bd f3d3 6cbd 3fbf 843b
00000240: 53f0 81bd ce17 22bc 9a9f 5a3d 1619 9c3b
00000250: 9083 6dbc 0830 00bd f8c7 b7bd 15a2 06bd
00000260: d1c1 d0bd b896 4f3d 4e44 b5bd 7e6e 9abd
00000270: 1cc4 82bd ca92 33bd 7ffe f33c 8e38 b93d
00000280: 9619 a53d 2f65 723d 4c0f a8bd d44d 8b3d
00000290: 77d1 d639 5b85 2cbd 2ab9 0b3d 648d 663d
000002a0: 17ce 18bd 101c 333d e9a5 663d b8f5 9c3c
000002b0: 0565 533d 55d1 173d 713f b9bc 65fa 373a
000002c0: 9ddd f23b 0038 9dbd a429 7fbd 27d9 38bd
000002d0: 0d9b 78bd 127d 2d3d 2b19 8cbd 2fe7 823d
000002e0: 1018 9b3a 8739 8e3c 0f38 063d 66d2 b3bd
000002f0: 0c33 9fb9 a172 a0bc 4965 c73b 3528 b5bd
00000300: 33cd cb3d 4701 3abd 16b7 a8bd 9b79 023d
00000310: be71 213d ef17 403d e4ce 1dbc c9ba afbd
00000320: d3b7 7f3a 64ec 863c 0805 833d 9478 6dbd
00000330: 865a 153d 43e1 833c 8de4 ddbd 92cc d0bb
00000340: dadd 5fbd 828c 173d f193 b73b e89b c63c
00000350: 2153 a9bd ef32 62bd 379f 9cbd 5314 89bd
00000360: 9f4b 973d 125d 953d 48a7 9ebd 52d2 9f3c
00000370: 1314 993d 3685 adbd ae07 3b3d a8c6 4d3d
00000380: 3fd7 6ebd 2716 0cbc 2adb 6e3d ed46 9bbc
00000390: da4d 99bd 4ebf 45bd 34d5 4fbd eb56 91bc
000003a0: 3715 be3d 961a f0bc 50e8 ddb9 4244 473b
000003b0: 7fcb 923d e032 96bc 5eeb c9bc 0997 7dbd
000003c0: 93b3 af3c 4942 3b3d 1af6 863d 9c62 8ebd
000003d0: 7002 09bd 08a4 9dbd 5cc6 913d 2c19 9e3d
000003e0: f3dd b33b e8d1 6bbd 4489 4abd 69f8 913d
000003f0: 1ed5 703c 193b 833c 234f febb fc4e 113d
0.060011733 0.0015311158 0.053550318 0.10097087 -0.04057488 -0.031019554 0.004259405 -0.05199179
-0.031360187 -0.021879923 0.00623895 0.04660255 -0.017354354 0.01281157 0.02742379 0.0002142701
0.02364536 -0.03825267 -0.08897277 -0.013971857 0.0553284 0.019363098 -0.0388877 -0.038233124
-0.0039682654 -0.033239536 0.065997235 -0.066494554 0.037833113 0.021297911 -0.007266371 0.05222769
0.025167534 -0.044111732 -0.0377542 0.043900914 0.10162744 0.086701594 0.07316042 -0.0242836
0.058680434 0.06563075 -0.033211514 -0.094215244 -0.06622463 -0.042208612 0.039258868 -0.00092425453
-0.08282252 -0.031153597 0.018780945 -0.08589416 0.04199071 -0.0144977225 -0.056571763 -0.051537335
0.07551787 -0.019022232 -0.051684372 0.08207527 -0.05454564 -0.017426869 -0.063161254 0.04671945
-0.0015880307 -0.012049841 0.06553409 0.07223717 -0.090277895 -0.008807336 0.008799862 -0.027513804
0.025876207 0.03941124 -0.090671115 0.05028002 0.05917842 -0.03846927 0.079661496 0.06734743
-0.028924879 -0.031653933 0.018642826 -0.11639891 0.015196521 -0.10294105 -0.037307028 0.040032923
0.009119324 0.08091729 -0.045726836 -0.029143654 -0.03488812 0.0002754373 0.044898987 0.06728249
-0.031669963 0.00022758084 0.0050896606 0.040291533 0.04930791 0.016896082 0.021890957 -0.045257688
-0.08948125 -0.059074234 0.08009793 -0.010994678 0.024017528 0.06355982 -0.072507806 -0.062297225
0.007126619 -0.009083275 0.020734705 0.023146693 -0.029893616 0.03794419 -0.053898532 -0.10879483
-0.029239772 -0.019661553 -0.024555845 -0.010107078 -0.034572892 -0.06258934 0.040293034 -0.05846574
-0.11231642 -0.00496092 -0.015800199 -0.06356546 0.0016937067 0.06291372 0.066982605 -0.060918763
-0.047020417 0.055176713 0.056917723 0.01700204 -0.04042851 -0.0790583 -0.057819318 0.0040511186
-0.06344666 -0.009893371 0.053374864 0.0047637327 -0.014496699 -0.031295806 -0.08973688 -0.032869417
-0.101932175 0.050680846 -0.08850919 -0.07540606 -0.06385061 -0.04384116 0.02978444 0.0904399
0.08061521 0.059178527 -0.08206043 0.06801954 0.00040973324 -0.042119365 0.034112133 0.056287184
-0.037305918 0.043727934 0.056310568 0.019160137 0.05161001 0.03706487 -0.022613259 0.00070182077
0.0074116723 -0.07676697 -0.06229557 -0.045128968 -0.060694743 0.042355604 -0.06840738 0.06391751
0.0011832733 0.017361416 0.032768305 -0.08780365 -0.00030364876 -0.01958591 0.006085072 -0.088455595
0.09951248 -0.045411374 -0.08238046 0.031854253 0.039415114 0.046897825 -0.009631846 -0.08580548
0.000975487 0.016470142 0.06397444 -0.05797632 0.036463283 0.016098624 -0.10834608 -0.006372043
-0.054654934 0.036999233 0.005602353 0.024244264 -0.08267809 -0.055224355 -0.07647555 -0.0669333
0.073874705 0.072931424 -0.0774675 0.019509468 0.07474532 -0.084726736 0.04566162 0.05023828
-0.058310743 -0.008550203 0.05831448 -0.018954718 -0.07485552 -0.048278145 -0.050740436 -0.017741641
0.0928139 -0.029309552 -0.0004232549 0.0030405675 0.0716772 -0.018334806 -0.024648365 -0.061911616
0.021447932 0.04571751 0.06589909 -0.06952402 -0.03344959 -0.07697302 0.07117912 0.07719645
0.005489105 -0.05757323 -0.049447313 0.071274586 0.014699249 0.01601939 -0.0077608987 0.035475716

conv2_1.bias f4 [32]
00000000: 84f5 90bd 10e8 81bc 211f 9a3d 4c69 a5bc
00000010: a181 693c b763 0abc 1fbd 40bc 5e56 a83c
00000020: 2f49 5bbd a7cc 50bc 5d20 653d d7b7 aa3d
00000030: 6455 4abd 58e1 953d d721 45bb 08bc 403d
00000040: c0a6 a3bd 6db6 653d de50 58bd 15ad 10ba
00000050: 50e5 e03c 476f 89bd d44d 0bbc 52cb 013d
00000060: eee0 913d 9cd2 863d fbf4 1dbd 434a 99bd
00000070: dffb 553c 4db4 c1ba 2122 85bd eae7 2c3c
-0.070780784 -0.015857726 0.075254686 -0.020191811 0.014252097 -0.008446625 -0.01176384 0.020548996
-0.05353659 -0.012744105 0.055939067 0.08335846 -0.04939784 0.073183715 -0.0030079985 0.04705432
-0.079907894 0.056082178 -0.052811496 -0.00055189553 0.027453095 -0.067106776 -0.008502442 0.031688042
0.0712298 0.06583139 -0.03856371 -0.074848674 0.013060539 -0.0014778465 -0.0650065 0.0105533395

bn2_1.weight f4 [32]
00000000: 6133 7d3f f8d6 7a3f c6f2 723f f41e 773f
00000010: b955 7c3f 2ae1 723f 11ad 753f 37b1 793f
00000020: 24e6 813f 51e1 7c3f 4da6 813f f417 7c3f
00000030: deb1 793f 5130 7d3f 9b06 703f 7d5c 743f
00000040: 2aa6 833f 2cb0 6c3f 4b0d 763f bb4a 803f
00000050: 9149 7b3f 26c1 673f a7a5 793f d180 763f
00000060: 4b79 763f f40f 6f3f 516a 703f 5faf 7f3f
00000070: 69ac 743f 6289 813f 6c5e 733f e6e0 713f
0.98906523 0.97984266 0.9490169 0.96531606 0.985683 0.94874823 0.95967203 0.97536033
1.0148358 0.98781306 1.0128876 0.9847405 0.9753703 0.9890185 0.9376008 0.95453626
1.0285084 0.92456317 0.96114033 1.0022806 0.9815913 0.90529096 0.9751839 0.9629031
0.9627883 0.9338372 0.93912226 0.9987697 0.9557558 1.0120051 0.9506595 0.9448379

bn2_1.bias f4 [32]
00000000: cdea b7bd 7df3 b9bc aa6b 29bd 17b8 8ebd
00000010: 0211 8cbd 8785 43bd 4e02 86bd 7f30 78bd
00000020: c41f 8dbd fe06 43bc 7198 60bd a0b8 7c3c
00000030: df77 53bc a19d 5cbd d450 fcbc 3490 70bd
00000040: a72b 9bbd 42f7 22bd 0cbe 05bd c3a6 24bd
00000050: 15b1 b3bd 3952 93bd 3805 11bd 7264 6fbd
00000060: 326b 55bd 82b0 83bd b2e3 b9bd c115 4cbd
00000070: 0895 41bd b63f 32bd a90c f0bc eff9 4fbd
-0.089803316 -0.022699112 -0.041362442 -0.06968706 -0.068391815 -0.047734763 -0.06543408 -0.060593124
-0.068908244 -0.011903523 -0.05483288 0.015424877 -0.012906997 -0.053861264 -0.03080026 -0.058731273
-0.075766854 -0.039786585 -0.032651946 -0.0401981 -0.0877401 -0.07193417 -0.035405368 -0.0584454
-0.052104183 -0.064301506 -0.090766326 -0.049825434 -0.047261268 -0.04351779 -0.029302912 -0.050775465

bn2_1.running_mean f4 [32]
00000000: 598a ebbe d990 03bf 6c89 1ebf 3fe4 34bf
00000010: ca4a 1ebf 33d3 e2be 8c16 12bf 565f 60bf
00000020: c77e dfbe 63ea fabe f575 2fbe 98bd a83c
00000030: 59a7 dbbe 1fd6 24be 6e81 d1be e664 acbe
00000040: c0ee 19bf 2f8b 02bf 9560 17bf a931 d3be
00000050: 58e7 a0be e589 5dbf 43e1 ffbe b35c 54bf
00000060: 2301 b5be 53d6 b7be 3e4a 18bf ede8 cabe
00000070: d523 0fbf 6f57 b7be 7cad 4cbf d537 5fbf
-0.46003988 -0.51392895 -0.6192844 -0.70660776 -0.6183287 -0.44301757 -0.57065654 -0.8764547
-0.4365141 -0.49006948 -0.17134841 0.020598218 -0.42901114 -0.16097306 -0.4091906 -0.3367073
-0.6012993 -0.5099363 -0.5913175 -0.41248825 -0.314265 -0.86538535 -0.4997655 -0.8295395
-0.3535243 -0.35905704 -0.59488285 -0.39630833 -0.5591405 -0.35808894 -0.79952216 -0.8719457

bn2_1.running_var f4 [32]
00000000: 0ca0 8a3e 4d60 033f 2e39 103f 51a6 7a3f
00000010: f542 b03f 5075 883e d3eb ea3e da20 0a3f
00000020: ae05 893e 360b ae3e b431 4f3e 0462 ec3e
00000030: 92df 263f bffe cc3e ff41 5b3f 2fe4 943e
00000040: 9bff b83e a2b5 d43e 926c b43e 5a36 c63e
00000050: 96b0 6e3e c952 2b3f 14e2 953e 62ca 173f
00000060: 2ca0 dd3e 5e83 f03e aa49 d23e f938 803f
00000070: 0fcc 293f 91a1 ec3e 4362 033f f6be 923f
0.2707523 0.5131882 0.5633725 0.9791003 1.3770434 0.26652002 0.45883045 0.5395638
0.26762146 0.33992928 0.20233804 0.4616853 0.6518489 0.40038106 0.8564758 0.2908034
0.36132511 0.41544825 0.35239083 0.38713342 0.2330955 0.66923195 0.29274046 0.59293187
0.43286264 0.46975225 0.41071826 1.0017387 0.66326994 0.46217015 0.5132181 1.1464527

conv2_2.weight f4 [32, 32, 3, 3]
00000000: 717b 103c 43ce 103c a68a 8c3b 2a40 353d
00000010: 25a4 1e3b c258 dbbc 0e79 c1bc 28cc 9fbc
00000020: c9b6 b1bd 5e23 2ebd e0d3 553d 033f 033d
00000030: 2d8e 633b c15f 793c 75c3 01bd 8459 72bc
00000040: d140 cd3c 5fd2 8dbc 3fd9 ccbc 3e0d 543d
00000050: 617d db3a e8f9 6fbc e9a4 373d d58f 993c
00000060: 930a 923c 0fb6 59bd 87ab 3bbd 02ae 723c
00000070: 2b7d c7bc a9c1 edbc 824a 413d a516 16bb
00000080: 84f5 0dbd c6e3 173d 27cf 56bc 68aa 6abd
00000090: bd55 0fbd 4404 6ebb 5a67 a03a 92e5 92bd
000000a0: 514a aa3c a360 193a 4d03 efbc 1e96 c43c
000000b0: c8e4 a1bc 9892 3b3c 6d47 983c 5c4a 90bb
000000c0: 8d63 91bc 9549 fdbc 5c93 ebbc 822f a03c
000000d0: 8bd4 fabc 519b 84bc ce3c 0abb 9dac 113b
000000e0: d0c8 b3ba 6918 e43c 6ab1 84bb bcf6 dcbd
000000f0: a992 38bc c0a8 40bd 2ac5 d7bc ccfb 88bd
00000100: 8216 e23c 756f 853c 008e 76bd b2d9 5e3d
00000110: c2bd 53bd 77dc 9fbc 1103 4abd 8e4e bcba
00000120: a331 8a3b 6e61 153d 4c9c 203d e39a 213d
00000130: 237a df3c 7d45 3f3d 020f 933c d43b c3bc
00000140: dde4 52bc e4c1 81bd b4a9 77bd 23ed 1a3d
00000150: c79d 1a3c 260e a63c 3d00 c13c 0dfb c33c
00000160: 5af7 653b e9dd 663d e406 c93d 99f9 29bd
00000170: 0b42 26bd f01a 063d 64e0 2b3c 578b 77bd
00000180: 2412 d9bc 257a 83bc aa6b aa3a d930 133d
00000190: d823 61bb 2964 853c 942b ccbc dc35 843c
000001a0: 42fc 69bd d8f7 15bd cd69 eebb 01dc af39
000001b0: 952f 77bd 1c51 b5bc 4093 95bd 38f4 56bd
000001c0: e47e cf3b 295b 773d 7138 82bb 3faa fbbc
000001d0: 276e a23d 6a82 81bd ed20 1cbd 5cf0 253d
000001e0: 12ab 8ebd e5aa f83b c472 77bd 6a43 9e3c
000001f0: fdda 18bd 9000 60bc 7420 a0bc 7567 033d
00000200: 9754 2cbc c761 f1bb f851 92bc 7b4d 0abd
00000210: cd45 80bd e305 863c 864e ed3c 0766 f73b
00000220: 5a0c 353d 0125 d039 ecd1 75bc 8fa9 b0bc
00000230: a715 3b3d e9a9 2e3d 7d20 453d ef7d 91bd
00000240: 2cea a9bc 96cd c2bd 8314 c6bd 71d3 91bc
00000250: a27c a5bd 0147 18bd 9870 a93c 83f3 57bd
00000260: b3ac 9f3d c66b 313d 9f81 49bd e650 223d
00000270: 2ee3 e63b 4d14 2ebd 2750 ad3c 11da a3bc
00000280: 088a 89bd e070 70bd 1706 513c 64a6 4ebd
00000290: f9eb 653c 70ae 8ebc 910f 1b3d 9006 603c
000002a0: 812f 243d e15f 553d affb 18bd 29de 633d
000002b0: feb6 943b 2782 913d b666 843d ea6e 063d
000002c0: ac0b 3bbd 1b75 0ebd 3022 62bc 7437 b9bd
000002d0: b8ba b1bc 6af0 043d 76a8 b7bd c809 d63c
000002e0: b1ac 0fbc 69bf 8abb 67e8 98bb 82d1 5bbd
000002f0: d782 52bc 5230 063d 716f 83bc ec57 7f3d
00000300: a3cc 213d b47d 333d cbf1 2f3d 5ac9 d23b
00000310: f1bd 473c ad35 b7bb d4bf 1dbd 628e 313c
00000320: 8467 6e3d 2410 203d 5638 0cbc 4205 d73c
00000330: 9e84 983c 5f07 8b3c 2f62 4cbd d435 bb3c
00000340: ac63 6dbd 6329 a53b 59b2 a4bc 1683 27bd
00000350: 68f2 df3c 68d3 bf3a 6f2c a2bb 2761 f13c
00000360: e7e2 6fbc b1cb 34bd 1f0b bbbc e485 e2bc
00000370: f821 a63c dcc1 1a3d 082b acbc 4ab4 d539
00000380: f628 2d3d cb2c bd3c 9a27 9ebc 1301 dcba
00000390: 751a 0abd ad2e eb39 c5c3 0cbc bde9 43b9
000003a0: da13 c3bc 08b7 da3c a1e5 80bc d224 683c
000003b0: af91 843d 4c9f 5dbc 03e5 573d 57e9 26bd
000003c0: eeca 31bb 450e 0f3d 52e8 543c 53f5 b7bc
000003d0: 7afd ebbc ffdd 82bd 6c45 163c c67e 14bc
000003e0: 70ef 10bd f418 99bb eb65 9bbc 556b 5eb9
000003f0: abed a2bc e722 913c bd12 efbc 5db9 d2bb
0.008818493 0.008838239 0.004288989 0.044250645 0.0024206724 -0.026775721 -0.023617294 -0.019506529
-0.086774416 -0.042514198 0.052204013 0.032042515 0.0034722195 0.015220583 -0.031680543 -0.01479185
0.025055321 -0.017312227 -0.025005935 0.05177044 0.001674574 -0.014646985 0.044835005 0.018745342
0.017827308 -0.05315214 -0.045817878 0.0148119945 -0.024351677 -0.029023008 0.047190197 -0.002290168
-0.03465797 0.037082456 -0.013110912 -0.05729142 -0.034993876 -0.003631846 0.0012237832 -0.07172693
0.02078739 0.0005850887 -0.029176379 0.023997363 -0.019762412 0.011448525 0.018588746 -0.0044033956
-0.017747665 -0.030918876 -0.02875679 0.019553903 -0.030618927 -0.016187342 -0.0021093371 0.002222813
-0.0013716463 0.02784367 -0.0040494697 -0.10789248 -0.011265435 -0.047035933 -0.026339132 -0.066886514
0.027598623 0.016288498 -0.060194016 0.05440683 -0.05169464 -0.019514306 -0.04931933 -0.0014366673
0.004217343 0.03646987 0.039211556 0.039454352 0.027279919 0.04669713 0.017951492 -0.02383224
-0.012871948 -0.0633581 -0.060464576 0.037823807 0.009437031 0.020270418 0.023559684 0.023923421
0.003509006 0.056363974 0.098157674 -0.0414978 -0.040590327 0.032740533 0.010490511 -0.06043562
-0.026497908 -0.016049454 0.0013002057 0.035935257 -0.003435364 0.016283112 -0.024923123 0.016138963
-0.057125337 -0.036613315 -0.007275796 0.00033542517 -0.060348112 -0.022133403 -0.07303476 -0.052479
0.006332265 0.06038967 -0.0039740135 -0.030720828 0.07931166 -0.06323703 -0.038117338 0.040512428
-0.06966223 0.0075887316 -0.060412183 0.019319255 -0.03731822 -0.013672009 -0.019546725 0.032081086
-0.010518215 -0.0073663923 -0.017861351 -0.033765297 -0.062633134 0.016360229 0.028968107 0.0075500044
0.044201232 0.00039700422 -0.015003663 -0.021565227 0.045674946 0.042642508 0.048126686 -0.07104098
-0.020741545 -0.09511869 -0.09671881 -0.017801018 -0.080804124 -0.03717709 0.020683572 -0.052722465
0.07796612 0.04331567 -0.049195882 0.039627932 0.007046125 -0.04249983 0.021156384 -0.020001443
-0.067157805 -0.058701396 0.0127578 -0.05045165 0.014033311 -0.017417163 0.037856642 0.01367344
0.040084366 0.05209339 -0.0373494 0.05563179 0.004538416 0.07104903 0.06464903 0.03282062
-0.045665428 -0.03477965 -0.013802096 -0.0904378 -0.02169548 0.03245584 -0.08967678 0.026127711
-0.0087692 -0.0042342436 -0.0046663764 -0.0536666 -0.012848577 0.032760926 -0.01604435 0.06233971
0.039501797 0.04382105 0.0429552 0.0064326944 0.012191282 -0.0055911154 -0.03851302 0.010837169
0.05820419 0.039077893 -0.008558353 0.026247624 0.018617924 0.016971288 -0.049898323 0.022852816
-0.057956383 0.005040334 -0.020104574 -0.040896498 0.027337268 0.0014635148 -0.0049491446 0.029465271
-0.0146415 -0.044139568 -0.022832451 -0.027651735 0.02027987 0.037782535 -0.021016613 0.00040760852
0.04227539 0.023092648 -0.019305993 -0.0016784988 -0.033716638 0.0004485747 -0.008591597 -0.00018683723
-0.023813177 0.026698604 -0.015734496 0.014168935 0.064730994 -0.013526749 0.052708637 -0.040749874
-0.0027129012 0.034925718 0.012994843 -0.022455847 -0.02880739 -0.06389999 0.009171825 -0.009063428
-0.035384595 -0.004672164 -0.018969497 -0.00021211554 -0.01988872 0.017716838 -0.02918374 -0.0064307884

conv2_2.bias f4 [32]
00000000: 31f1 733c 9c7f 333d fed3 403c ab7b 8e3c
00000010: 4ae1 583d 11c1 c13c f2dc 3e3c c782 2cbd
00000020: 762b f83c b0e6 0c3d feda bf3c 1383 59bd
00000030: 413a 0cbd 708d a5bc 0b65 0b3b fa06 4ebd
00000040: f974 0c3d 951a 5e3d 7cde 2e3d ddba 863c
00000050: e3ab 1a3d cae8 a03c 1a70 313d b39a 44bd
00000060: e51d 123d 6566 033c ea45 99bc 143f 243d
00000070: 45f3 f3ba ba13 e83b 43a5 6cbb 0679 e13c
0.0148890475 0.04382287 0.011769293 0.017392954 0.052949227 0.023651632 0.011649357 -0.042116906
0.030294161 0.03439969 0.023419853 -0.053103518 -0.034235243 -0.020209044 0.0021269943 -0.050299622
0.03429124 0.05422457 0.042692646 0.016446525 0.03776158 0.019642252 0.0433198 -0.047999095
0.03567304 0.008020018 -0.018710095 0.04009922 -0.0018611929 0.0070824297 -0.0036109246 0.027523529

bn2_2.weight f4 [32]
00000000: 2d71 803f 6fb3 7a3f 07d4 833f e9d9 7f3f
00000010: c4fb 8d3f 90aa 853f 41dc 853f 2f81 843f
00000020: 43d2 883f 7b4a 7e3f 39ca 823f aa9b 813f
00000030: c783 803f e9f3 7f3f 5498 7f3f 1441 813f
00000040: 9966 9b3f 234a 893f 4fe5 863f 1a86 893f
00000050: 92e9 783f 6e6d 853f 5ae7 833f 4fa1 873f
00000060: 78f1 833f 4ff9 8a3f face 8b3f 5949 8a3f
00000070: 9fa2 843f e8e8 823f 9703 863f ca2e 823f
1.0034539 0.97930044 1.0299081 0.9994188 1.1092458 1.0442677 1.0457841 1.0351924
1.0689167 0.993324 1.0217963 1.012563 1.0040215 0.9998155 0.9984181 1.0097985
1.2140685 1.072575 1.053873 1.074405 0.972314 1.042402 1.0304978 1.0596102
1.0308065 1.0857333 1.0922539 1.0803634 1.0362128 1.0227327 1.0469846 1.0170529

bn2_2.bias f4 [32]
00000000: e6a4 02bd 96d2 52bd e7ce d4bc 3a01 1ebd
00000010: dbc9 aabd 9024 0ebd ee9c 22bd 8217 c8bc
00000020: 81e7 83bd 4cc1 c4bc bdaf 69bd 84cd 70bd
00000030: c0b0 20bd 95a7 83bd bd28 79bb be4c 92bd
00000040: c909 a0bd ae32 f9bc db7c 8fbc 1d23 34bc
00000050: 8596 31bd bd60 57bd 5c0e 1dbd 3c3a a4bd
00000060: 0045 7bbd 442b 54bd 710f 0cbc 4747 16bc
00000070: e912 a4bc 24d0 77bc 7eb9 dfbc db9b 4abc
-0.03189554 -0.05147036 -0.025977565 -0.03857539 -0.08339282 -0.034702837 -0.03970044 -0.024425272
-0.0644064 -0.024017952 -0.057052363 -0.058789745 -0.039231062 -0.06428448 -0.0038018667 -0.07143544
-0.07814366 -0.030419674 -0.01751559 -0.0109947 -0.043356437 -0.05258249 -0.038343772 -0.0801892
-0.0613451 -0.051799074 -0.008548603 -0.009172267 -0.020028548 -0.015125308 -0.02731013 -0.01236626

bn2_2.running_mean f4 [32]
00000000: ec0f b2be 913c dbbe f6a0 1bbe 36cb 24be
00000010: f58d 09be 010a 84be 5631 2d3c ef18 11be
00000020: 6a39 b9bc a4bc 3bbe 10ff debd f0b3 eabe
00000030: 2d41 15bf 9bad aebe 9476 c5be 5200 66be
00000040: 98f8 3ebe 0866 043d da39 c2be 3b4a 8ebb
00000050: 24c1 cb3e ecb2 a0bd 1b30 70be fcf6 a6be
00000060: cd3e 91be 0cf3 a43e 5807 96be db05 e2be
00000070: 9c08 18be d66c d3be 2ea0 47be 1a17 8c3d
-0.34777772 -0.42819646 -0.1519812 -0.16093144 -0.13433059 -0.25788882 0.010570845 -0.14169668
-0.022610385 -0.1833368 -0.10888493 -0.45840406 -0.58302575 -0.34116825 -0.3856703 -0.2246106
-0.18649518 0.032323867 -0.37934762 -0.004342345 0.39795792 -0.07846627 -0.23455851 -0.3261031
-0.28368226 0.3221668 -0.29302478 -0.44145092 -0.14847034 -0.41293973 -0.19494697 0.06840344

bn2_2.running_var f4 [32]
00000000: 2b84 3a3e 74a6 fe3d 6637 4f3e f95e 623e
00000010: 37a0 293e 5fe8 ca3d ece0 253e 521d f93d
00000020: 114a 403e b83a 033e 293b ec3d d5c0 083e
00000030: 14e2 233e f507 683e cc7d 693e b94b f73d
00000040: 6687 153e c3df 103e 0f85 1c3e 25fb e23d
00000050: 1f4c 6f3e 1c5e 0c3e 61f1 483e 22bb 063e
00000060: d70c 4b3e 3009 1d3e cd63 5d3e d612 273e
00000070: 4784 e63d c72b 223e ef2c 1d3e 2d6c 703e
0.1821448 0.12434092 0.20235977 0.22106542 0.16565023 0.099076025 0.16199082 0.121637955
0.18778254 0.12815368 0.115347214 0.1335481 0.1600421 0.22659285 0.22801894 0.1207499
0.14602432 0.14147858 0.15285133 0.11083058 0.23368882 0.13707775 0.19623329 0.13157323
0.19829117 0.15335536 0.21620102 0.16315779 0.11255699 0.15837012 0.15349172 0.23478766

conv3_1.weight f4 [64, 32, 3, 3]
00000000: b418 a4bd 25db e1bc af49 2abc 6494 ae3b
00000010: 86a0 b3bd 9ac2 c1bd e318 e43a 0235 2a3c
00000020: 4b72 36bd 4986 2cbd 7d91 8fbc 3647 19bd
00000030: 5d4e 48bd d64d c13c a710 11bc f940 cdbc
00000040: 12ff dcbc 7487 f13b d42e 8fbd 5a8a 9ebc
00000050: 5f2e 743c 062c a8bd eafe 05bd f036 edbc
00000060: 79d3 14bd b672 d03b 3cd0 19bd 55dd d2bb
00000070: 31c4 7e3d 9ede d33c 129d e73b b7a1 eb3b
00000080: f3fb e7bc cd0d a1bc 862a 7c3d 9616 93bc
00000090: 486d c3bd 8b59 0fbd 43b5 3fbd 3074 fabc
000000a0: c7e5 823c 868a 96bc bc8f d3bc 5f6d 9abc
000000b0: 9d37 cbba 12a7 a4bb 35cc cebc 0379 54bd
000000c0: 7e79 8f3c 7128 2fbd 2e66 9e3c ae81 fd3c
000000d0: 160d e63b d0cd c3bb a68e d8bd 7ace 91bd
000000e0: 9d0b a8bc b769 5ebd 0952 d0bd ef18 40bd
000000f0: acea 3dbd ec42 19bd 7955 95bd 0bcb e7bc
00000100: c94b 13bd b914 6bbc e483 8bbd 26df 0b3c
00000110: 1199 9bbc 9d68 6abd 24c8 d13c c422 043d
00000120: 62e9 12bc b03d 9fbd eb6f 163c 316e 3cbd
00000130: ead1 f83c f0b7 78bd a489 963c 5065 07bd
00000140: 872a 58bd 79e4 d9bc 76e6 f9bc 3f1d ba3c
00000150: 9377 15bd abb9 9abb a86c 9b3c 2b2d 053c
00000160: 3767 0ebd 86e6 413c ea4d 9cbd 43b5 5ebd
00000170: 5e95 a239 137d 55bd 8f74 db3a fcae 2dbd
00000180: 4679 7bbd 73a5 17bd 87df 60bd cb58 2b3d
00000190: e741 963c 3a5c f23c 7503 4e3d 4720 603d
000001a0: 0725 37bd 77b9 523a 143d 133d 2b21 cf3c
000001b0: 4eb9 b5bd 0904 5bbc b8ba 9cbd 0089 8bb7
000001c0: fe49 e3bb 6be6 04bd a61f 15ba e752 b7bc
000001d0: 02db a2bc 6620 0b3d 4d39 39bd 5aa7 8bbd
000001e0: 3fad 05bd 780c b33c a64d 0a3d 3291 3cbd
000001f0: b76c 2ebc b13e 11bc 6e94 4a3c e35e 29bb
00000200: 8657 2c3c 27ca 1c3d 7eeb 4e3a 0a4a a63c
00000210: 04b7 15bc 1b7c 343d 7f4d 22bd 80a4 0c3d
00000220: 75f7 a73b 1083 743b 0feb 883d 751c 03bd
00000230: 322e 06bd f3e2 dbbc 20bc 02bc 6f64 b6bc
00000240: ecb5 98bd f630 6bbd ec86 7ebd f592 73bd
00000250: 9ebf 6c3c 0e48 7dbd 4201 f2bc 658d 36bd
00000260: 76b1 7e3c bad1 99bd 6a4b fabc 8533 efbb
00000270: b2bf 6abd 2d2a 313b 06f2 b938 0ac5 fa3c
00000280: 8aee 15bd 8a51 20bd fe4d 1cbd fcbf 103d
00000290: 471e 7f3c a1f6 0abd 0d05 143d 754b 773b
000002a0: 46cf 31bd 290f c13c 9a64 d63b d78a c3bc
000002b0: e7a0 d3bb 9ed6 293d 1fca 53bc d807 943c
000002c0: 6a97 253d faf4 613d 5e6e 0bbd b9e9 a73c
000002d0: 9863 6e3d e089 3d3d d35a 913c b01a 7aba
000002e0: b6a6 463d 4d19 813d 5b7c 3cbc 2893 273c
000002f0: af14 c33c 4afc efbc a5ab 5bbd 578a 5fbd
00000300: 7e86 603b da62 e3bb 7782 a4bd b8c7 b9bb
00000310: b9bb afbc 0a4d 69bd 55c7 343c 6ad5 a5bb
00000320: a1aa 99bd 6252 dc3c dd67 17bc 1246 9c3a
00000330: 919f a4bd 5ee8 d53c ff44 ae3c 3b7e 50bd
00000340: 9677 033c 940c 82bd 0296 98bd 5dfa 70bd
00000350: 6674 70bd cd3b c23c e212 f03a 1a61 bdbc
00000360: ed2c d5bc 7231 68bd 7beb d7bc 22d3 69bc
00000370: d4d3 163c 5e25 f13c 1f6b 19bd e9e0 17bc
00000380: b771 c73c 2fa3 1fbd 1b97 2dbd 2e35 463a
00000390: dbdc e1bc d440 eabc bb39 6dbc e216 3d3d
000003a0: 8c48 76bd bbce 9cbc 5e37 8e3c ae6c bf3b
000003b0: f100 4f3d 5396 9ebd 9868 1c3d b677 9dba
000003c0: 8bf5 88bd 55f5 5a3c 9214 a8bc 050a ec3c
000003d0: 5a1f a13c dfc4 5b3d a58c 15bd a7f6 593b
000003e0: c379 b4bc 7dc9 623d e63a 1c3d 8cf6 8a3c
000003f0: ca06 463d 87cd 2dbc b2eb 013d 1466 5abc
-0.08012524 -0.027570317 -0.010393544 0.005327748 -0.08770852 -0.094609454 0.0017402436 0.010388615
-0.044542592 -0.04212025 -0.017525429 -0.037421428 -0.048902858 0.023596685 -0.008854068 -0.025055395
-0.026977096 0.0073708836 -0.06991354 -0.01935308 0.014903634 -0.08211522 -0.032713808 -0.02895686
-0.03633449 0.006361331 -0.037552103 -0.0064350762 0.06219882 0.025862988 0.007068285 0.007190909
-0.028318381 -0.019659901 0.06156399 -0.017955106 -0.09542328 -0.034997504 -0.046803724 -0.03057298
0.015978707 -0.0183766 -0.025825374 -0.01885098 -0.0015504245 -0.005024799 -0.025243858 -0.05187322
0.017513987 -0.042763177 0.019335832 0.030945625 0.007020603 -0.0059754625 -0.10574083 -0.071194604
-0.02051335 -0.054300036 -0.10171897 -0.04689878 -0.04636638 -0.037417337 -0.07291693 -0.02829506
-0.035960946 -0.014348202 -0.068122655 0.008537089 -0.018993886 -0.057228673 0.02560813 0.032259718
-0.008966776 -0.07775438 0.009181957 -0.046003524 0.030373532 -0.06072229 0.018376179 -0.033055604
-0.052774932 -0.026598202 -0.0305054 0.022719024 -0.036490988 -0.0047218404 0.01897271 0.008128445
-0.034766402 0.011834746 -0.076320484 -0.054372083 0.00031010335 -0.052121233 0.0016743111 -0.042403206
-0.061394952 -0.03702302 -0.054900672 0.041832726 0.018341972 0.029584993 0.050296266 0.054718282
-0.044713046 0.00080385007 0.03594692 0.02528437 -0.08873235 -0.013367661 -0.07652801 -1.6633887e-05
-0.006936311 -0.032446306 -0.0005688615 -0.022378398 -0.019879822 0.033966444 -0.045220662 -0.06819029
-0.032635923 0.021856532 0.033765458 -0.046036907 -0.010646037 -0.008865044 0.01236449 -0.002584391
0.010518914 0.038278725 0.00078933674 0.020298976 -0.009137873 0.04406367 -0.039624687 0.034336567
0.0051259347 0.0037309565 0.06685459 -0.03200956 -0.0327589 -0.026841616 -0.007979423 -0.022264687
-0.07456574 -0.05741974 -0.06214039 -0.05946632 0.014449982 -0.061836295 -0.029541615 -0.044568438
0.01554524 -0.07510705 -0.030553538 -0.007299843 -0.05731172 0.0027033195 8.866568e-05 0.030611534
-0.03660444 -0.03914026 -0.038160317 0.03533934 0.0155711835 -0.03392661 0.03613763 0.0037734185
-0.043410562 0.0235668 0.0065427544 -0.023869915 -0.00645839 0.04146444 -0.012926607 0.018070146
0.040427603 0.05516527 -0.0340408 0.02049719 0.05820045 0.046274066 0.017743504 -0.000954072
0.04849883 0.06303654 -0.011504258 0.010227956 0.023813574 -0.029295105 -0.05363049 -0.05457529
0.003425985 -0.0069392743 -0.08032697 -0.0056695603 -0.021451818 -0.056958236 0.011033853 -0.0050608413
-0.07503248 0.026894752 -0.0092410715 0.0011922738 -0.080382474 0.026111778 0.021273134 -0.050901633
0.008024117 -0.06350055 -0.07450487 -0.058832515 -0.058704756 0.023710156 0.0018316174 -0.02311759
-0.026022399 -0.05668778 -0.026357403 -0.014271529 0.009205777 0.029436763 -0.037455674 -0.009269931
0.024346216 -0.038973983 -0.042380434 0.0007561025 -0.027571132 -0.028595366 -0.014479096 0.0461644
-0.06012778 -0.019141546 0.017360386 0.005841813 0.050538007 -0.07743516 0.038185686 -0.0012013826
-0.066874586 0.013364156 -0.020517621 0.028813371 0.01966827 0.053654548 -0.036511082 0.0033258589
-0.022030717 0.055367935 0.038142107 0.016963266 0.04834632 -0.010608084 0.031718917 -0.013330001

conv3_1.bias f4 [64]
00000000: b2ad 9fbc b6eb c1bc 68c9 2a3d 4185 0ebb
00000010: 07e7 c6bc cad0 c8bb 02a6 ef3c 59a0 b4bc
00000020: 62bd 483b 1dc4 3bbd 4e19 84bc 8148 c5bc
00000030: 27a1 4e3d 7c72 2fbd 98a3 dd3c 1973 cd3c
00000040: 2981 bcbc 4862 023b 9601 17bd 2882 bb3c
00000050: 5153 d43c 5586 0bbd 7d99 1b3b 1c0e d1bb
00000060: c6af 88bc c95b fa3c 4c7b 803c f0e8 26bd
00000070: 55a1 683c 3162 9eba 6ab0 13bd ae4d 34bd
00000080: 380b aabc 53ea 02bd 71a9 3d3d be25 6a3d
00000090: 4073 9f3c b264 47bd 33f4 23bd 3717 5a3d
000000a0: bdf9 53bd 69b9 153c d109 2f3c b007 f73b
000000b0: 155e 70bc ea19 9a3b 64c1 863c b7f7 6b3d
000000c0: 9f14 40bd d3d6 1abd fdab 4b3d 3955 06bd
000000d0: f6bd 203d 1562 f03c 95c0 ea3a dd7a 143c
000000e0: 1982 d6ba 8035 48bd efa7 1cbd af2b 16bd
000000f0: 4d2e 4b3d ce6d 353c ed65 293d 4770 d63b
-0.019492004 -0.023671966 0.041695982 -0.0021746906 -0.024280084 -0.006128405 0.029253963 -0.022049116
0.003063046 -0.045841325 -0.016125347 -0.024082424 0.050446656 -0.04283379 0.027055547 0.025079297
-0.023010807 0.0019895006 -0.036866747 0.022889212 0.025918635 -0.034063656 0.002374261 -0.006379856
-0.016685378 0.030561345 0.015683793 -0.04074949 0.014198621 -0.0012083707 -0.036056913 -0.044019394
-0.020757303 -0.03196175 0.04630417 0.0571649 0.019464135 -0.048680015 -0.04002781 0.053244796
-0.05175184 0.0091384435 0.010683493 0.007538758 -0.014670868 0.004702796 0.016449638 0.057609286
-0.046894666 -0.03780253 0.049724568 -0.03279612 0.03924366 0.029343644 0.0017910177 0.009062496
-0.0016365676 -0.048879147 -0.03824609 -0.036662754 0.049604703 0.011073543 0.04135697 0.006544146

bn3_1.weight f4 [64]
00000000: 58b8 873f 287a 7a3f 3b5b 853f 0583 8f3f
00000010: 7774 813f e8ea 823f d0e4 8b3f 4932 833f
00000020: 5c66 843f 4203 833f c912 853f 4916 803f
00000030: fbfb 7b3f 4d17 7d3f 9f65 883f 72c8 833f
00000040: 6ba5 853f 7b6b 813f f84f 843f 8a22 843f
00000050: 5644 853f 242d 853f ba43 843f 29b9 853f
00000060: cf25 7a3f 8bc4 873f 5190 783f 6d84 803f
00000070: 011c 803f 6c11 843f 0382 833f 113e 7e3f
00000080: 4be8 963f 7ffb 833f f528 773f f569 853f
00000090: 32ad 8a3f 7b3b 7f3f 44c1 823f 6092 833f
000000a0: 3a95 7c3f bd33 893f 6f1e 823f 672d 853f
000000b0: 7f61 833f 6607 853f d44c 813f a285 803f
000000c0: e2cc 873f ece2 813f f1a2 853f 59d2 803f
000000d0: af4b 893f 6ae0 863f df07 883f 8a1a 843f
000000e0: d647 843f b47e 823f 0d0f 733f 79b2 813f
000000f0: 4e74 873f a2fa 803f 09ac 853f e4a4 853f
1.0603132 0.97842646 1.0418466 1.1211859 1.0113667 1.0227938 1.0929203 1.0249721
1.0343738 1.0235369 1.0396358 1.0006801 0.98431367 0.9886368 1.0656012 1.0295546
1.0441107 1.0110925 1.0336905 1.032304 1.041148 1.0404401 1.0333169 1.0447131
0.9771394 1.0606855 0.9709521 1.0040413 1.0008546 1.0317817 1.0274051 0.99313456
1.178964 1.0311126 0.9654687 1.042296 1.0834105 0.99700135 1.021523 1.0279045
0.986652 1.0718914 1.0165538 1.0404481 1.0264128 1.0392883 1.0101571 1.0040781
1.06094 1.0147376 1.0440351 1.0064193 1.0726222 1.0537236 1.0627402 1.0320599
1.0334423 1.0194917 0.9494484 1.013259 1.0582368 1.0076487 1.0443126 1.0440946

bn3_1.bias f4 [64]
00000000: 4ff8 1b3d efc6 b1bd 3431 afbd d475 65bd
00000010: 2571 993c e8f4 d8bb bf93 e63c 3379 6abc
00000020: b66f 213c 4282 2dbd 010d d6bd 215b 43bd
00000030: d005 87bd 083e c2bc 5cb1 4c3d e237 823c
00000040: b88b c2bd d0b7 d03c f709 de3c 4857 22bc
00000050: 33f7 75bd 3c94 99bd c4d0 1ebe 8ab6 c7bd
00000060: e16b ccbd 41c2 89bd 0121 08bd 731d 5bbd
00000070: c03a acbc eac6 11be 6ff3 96bc 1547 e9bd
00000080: 1232 22be 0bc2 4fbd 8379 dabc d8a7 23bd
00000090: d5b5 86bd 88fb aabd 22ab 4dbc 7ec0 0abd
000000a0: 9701 06bd 7851 59bc 78eb a7bd 1d87 cc3b
000000b0: 30a0 0b3d 7fa6 11bd 3655 e1bb 8b95 273d
000000c0: f060 f83b 947b 8cbc a7ce 283d 9b86 d4bd
000000d0: d8f4 4d3d 35d2 a5bd 356e b6bd a4cf 31bc
000000e0: c5a1 6b3c 586d 2dbc f0f5 1dbd 0aff e1bc
000000f0: 0bf3 1b3d 0a9f 293a fe43 82bd 529d d73c
0.038078602 -0.08680522 -0.085543066 -0.056020573 0.01873071 -0.006620992 0.028146623 -0.014311123
0.009853294 -0.04236055 -0.10451699 -0.04769433 -0.065929055 -0.02371122 0.04997383 0.015895788
-0.094993055 0.025478274 0.027104361 -0.009908505 -0.0600502 -0.074989766 -0.15509325 -0.097516134
-0.09981514 -0.06726504 -0.0332346 -0.05349488 -0.021024108 -0.14236036 -0.018426625 -0.11390511
-0.15839413 -0.050722163 -0.02666927 -0.03995499 -0.065776505 -0.08348757 -0.012553008 -0.03387498
-0.03271636 -0.013264053 -0.08199209 0.0062416927 0.034088314 -0.035559174 -0.006876613 0.0409141
0.007579915 -0.01714877 0.041212704 -0.103772365 0.05028233 -0.080967344 -0.08907739 -0.010852728
0.014381831 -0.010585152 -0.038564622 -0.027587432 0.03807358 0.0006470537 -0.06360625 0.026320133

bn3_1.running_mean f4 [64]
00000000: bf3a 0cc0 af7f 95bf 8363 633e 353c a13e
00000010: c5b0 d7bf dd64 b3bf a211 a73f fd9b cc3f
00000020: a4d7 a0bf 7249 173e 5a56 043e f905 be3e
00000030: b40d 333f 119a 5dbf b894 b4bf 77d3 9abf
00000040: 06c6 5f3f e047 35bf e527 dbbf f275 703f
00000050: 8859 b03d 29ac 5d3f 77da e8be beb0 823d
00000060: 6d80 a9bf 5e8b 153f c012 ad3e 7f6a 03be
00000070: aac0 043e 8558 ddbe bbfa f53f c0b8 43bf
00000080: a52a 8b3e c5f5 2bbe a193 eb3c 6bee c83f
00000090: daaa 603f f2ba aebf ae73 9c3f fac3 90be
000000a0: 19fb d13e 4499 9e3f 95d7 0d3f baaa 94bf
000000b0: 54d2 00c0 a07b 663e 05fe 40bf 93bb 89bf
000000c0: 3555 c73f 5711 b73f 3a82 a6bf 81c1 6fbf
000000d0: e8a7 ccbf 855f a43e 3b81 583e ad3b f2be
000000e0: cab5 0dc0 5684 853f 4c17 5bbf 092d ae3d
000000f0: bfc0 c7bf 625d 9bbf 76f8 c9be aff5 65bf
-2.1910856 -1.1679591 0.2220593 0.31491247 -1.6850821 -1.4015156 1.3052256 1.5985104
-1.2565808 0.14774111 0.12923566 0.37113932 0.69942784 -0.8656321 -1.4107885 -1.2095784
0.87411535 -0.708128 -1.712155 0.9392997 0.08610827 0.8659082 -0.45479175 0.06381367
-1.3242317 0.5841578 0.33803368 -0.12833594 0.1296412 -0.43231598 1.9217142 -0.7645378
0.27180973 -0.16792972 0.028756918 1.5697759 0.877607 -1.3650801 1.2222803 -0.28274518
0.41011885 1.2390523 0.5540708 -1.1614602 -2.0128374 0.22508097 -0.75387603 -1.0760368
1.5572878 1.4302167 -1.3008492 -0.9365464 -1.5988741 0.32104126 0.21143048 -0.47311154
-2.2142205 1.0431011 -0.85582423 0.085046835 -1.5605696 -1.2137873 -0.39447373 -0.8982801

bn3_1.running_var f4 [64]
00000000: 9516 7a3f 76c2 0f3f ac9c 233f 19d7 bf3e
00000010: b6d5 3e3f 1010 8a3f 6902 223f a088 3d3f
00000020: 614a 033f e53a 1b3f a7df bc3e d8d7 103f
00000030: a035 d63e 7e9c 7e3f d462 033f 4ceb cc3e
00000040: 096b 2d3f 28ee 233f f1b9 0b3f 24e4 113f
00000050: d725 153f 181b 213f 117b 243f b161 e33e
00000060: 2368 5b3f 93e6 073f c0f2 283f c49a 3e3f
00000070: d0e2 f63e fcb6 0d3f 08d6 7a3f b3d4 153f
00000080: a8a1 f43e 8029 e43e 7d1c d43e 04fe 2c3f
00000090: d2e9 0b3f bc86 393f 8568 173f 9de4 de3e
000000a0: ae6f ed3e de90 e63e 1de1 d43e 4860 383f
000000b0: 4854 3a3f 76cd e63e f33b c43e df41 053f
000000c0: 9c87 163f 93c6 763f 9beb 2a3f ccc1 253f
000000d0: 8277 193f 9152 973e 88ba 063f 5e0a 7d3f
000000e0: b73c a33f 9123 c53e ef96 bf3e 5688 053f
000000f0: c1ad 133f 6c82 f43e 8056 b83e 0570 e03e
0.9769071 0.561561 0.6391094 0.37468794 0.74544847 1.0786152 0.6328493 0.740366
0.5128537 0.6063674 0.36889383 0.5657935 0.41837788 0.9945754 0.51322675 0.40023267
0.6774145 0.6403527 0.545806 0.5698874 0.58260864 0.62931967 0.64250284 0.4441047
0.85705775 0.53086203 0.6599541 0.74454904 0.4821992 0.55357337 0.97982836 0.5852768
0.47779584 0.44562912 0.41427985 0.675751 0.54653656 0.72471213 0.5914386 0.43533793
0.46374267 0.450324 0.41577998 0.72021914 0.72784853 0.4507863 0.38326988 0.52053636
0.58800673 0.9639675 0.66765755 0.64748836 0.5994798 0.2955518 0.52628374 0.98843944
1.2752904 0.38503698 0.3741984 0.5216116 0.57687 0.47755754 0.36003494 0.43835464
