model_folder/best_model_15-04-2025-23-09.pth (torch, 909142 bytes, 87 tensors)

conv1_1.weight f4 [16, 1, 3, 3]
00000000: 7c4a 6ebd 7a4b ebbd ce87 79be bd6c 4f3e
00000010: 9dab b83e 9780 48bd 2a8e 3dbe 553a 5b3d
00000020: 3380 78be 0225 91be 15e5 8abd 0804 4b3e
00000030: ff2e e8be a6d9 71bc 12ab 39be 345a 8bbe
00000040: 8c25 843d 2ab3 953d 9f92 3dbd 94d8 793e
00000050: 34e8 3f3e 0528 113e b778 43bd dc86 bcbd
00000060: 4064 233e 1ea2 92be 6c24 a63d 0991 6b3e
00000070: 006e a3bd 4d73 d43c 1d07 4cbe 812a 7ebe
00000080: 112a a93c 8b01 083e 0807 fdbc 9447 163e
00000090: 9dc8 76be dbbe 46be 398d 693e 0898 a8be
000000a0: 0150 17bb a5ae 4c3e 23a8 bc3e 2457 2b3e
000000b0: c659 81be 6d8d a23c 9b29 10be 7977 30be
000000c0: 9f17 753e 382f 08be d789 a4be 3266 6dbe
000000d0: 3af9 6c3e dab5 123d d4ba af3e 6e56 bb3d
000000e0: 02c9 8ebe 9278 c23c 30f5 873e 9a2f 493e
000000f0: c688 853c da6b a1be 036b 72be 5cc1 773e
00000100: 52d6 4ebe b79d 6f3d e228 8bbd 6429 d53d
00000110: 9705 60bc e45c 89be 4adb ebbd 1076 973e
00000120: c245 9d3c d131 3f3e 28c6 28be 194e 803e
00000130: b163 79bd 7045 07be bbe6 9b3d 22f2 dcbd
00000140: 5489 31be 8666 81bc e032 e6bc 7042 49be
00000150: aa8b 013e 6255 a8be b819 583e 791c 9f3e
00000160: 2eb0 4c3d 9276 55bd 3286 9bbe ea1c d93d
00000170: 83e6 753e fe50 4f3e 0a2f 58be dbc6 6f3b
00000180: 6338 cc3e c4d6 863d dcfe 1cbe 4f11 a8be
00000190: 8f14 f83d e99f d73d 4d00 993e 4abc 31be
000001a0: 4bf2 1e3e 4bd1 f4bd d8c1 e4bd e068 1e3e
000001b0: fb2d 88be cb4e 913e 9ef6 553e d0ec 33be
000001c0: e3ae 3a3e dd83 7bbd de2d e43d 9252 14bd
000001d0: 3263 9fbe 243a 303d 90a3 743e 9071 1d3d
000001e0: b494 02be ea62 263d 88fc a93d 45d3 463b
000001f0: 6a16 50be aa20 25be 5ef8 39bd fe9e 1c3e
00000200: fa00 053f 9694 f53b d976 903d 3105 b33d
00000210: addd 05be 8a17 13be 4ccf 1a3e 6a86 7d3e
00000220: ede3 e03d 3ac4 67be c763 3c3e 373d 8abe
00000230: 8f11 163e bac6 693d 9746 ef3d 6baa b4be
-0.058176503 -0.114890054 -0.24368212 0.20256324 0.3606843 -0.048950758 -0.18511263 0.053522427
-0.24267654 -0.28348547 -0.06781975 0.19825757 -0.45348355 -0.014761364 -0.18131664 -0.27217257
0.06452474 0.073095635 -0.046282407 0.24399024 0.18740922 0.14175422 -0.047722545 -0.0920541
0.15956211 -0.2863931 0.08112416 0.23004545 -0.07979965 0.025933886 -0.19924589 -0.24820901
0.020649942 0.13281839 -0.030887142 0.14675742 -0.24099965 -0.19408743 0.22807778 -0.3292849
-0.0023088458 0.19988497 0.36847028 0.1673246 -0.25263804 0.019842828 -0.14078371 -0.17233075
0.23934792 -0.13299263 -0.32136413 -0.23183516 0.23141947 0.03581796 0.34322226 0.091473445
-0.27887732 0.023739133 0.2655425 0.19647065 0.01630057 -0.31527597 -0.23673634 0.24194854
-0.20198944 0.058500018 -0.06794907 0.10408285 -0.013673208 -0.26828682 -0.115164354 0.29582262
0.019198302 0.18671347 -0.1648184 0.25059584 -0.06088609 -0.13210082 0.07612368 -0.10788371
-0.17337543 -0.015795957 -0.028100431 -0.1965425 0.12650934 -0.32877642 0.21103561 0.3107641
0.049972706 -0.05211503 -0.3037582 0.10601218 0.24013714 0.2024574 -0.21111694 0.0036587033
0.3988677 0.06583932 -0.15331596 -0.32825705 0.12113296 0.10528547 0.29883042 -0.17356983
0.15522115 -0.11953982 -0.11169785 0.15469694 -0.2659758 0.28380427 0.20894858 -0.17570806
0.18230776 -0.06140505 0.11141561 -0.036211558 -0.31130368 0.043024197 0.23890519 0.03843838
-0.12752038 0.040621676 0.0830012 0.0030338329 -0.2032105 -0.16125742 -0.045402877 0.15295026
0.51954615 0.0074945195 0.070539184 0.087412246 -0.13072844 -0.14364448 0.1511814 0.24758306
0.109809734 -0.22633448 0.18397437 -0.26999828 0.14655136 0.057074286 0.11683386 -0.3528627

conv1_1.bias f4 [16]
00000000: e797 febd a31a fc3d e165 803e 91e5 8cbd
00000010: 6f5d a23e 10c3 8fbd ebf9 76be a627 f8bd
00000020: 3503 5f3d 849a ebbd 46e9 4a3e 5da7 0dbe
00000030: e06f c1bd 5480 a9be 3f74 8b3e b021 95bd
-0.12431317 0.12309768 0.25077727 -0.06879724 0.3171191 -0.07019627 -0.24118774 -0.12116937
0.054446418 -0.11504081 0.19815549 -0.13833375 -0.094451666 -0.3310572 0.27237126 -0.07281816

bn1_1.weight f4 [16]
00000000: 9964 823f 2b42 7d3f 0892 633f 10be 9a3f
00000010: c9dd 873f 3da0 813f aa1d 803f dfc0 903f
00000020: a07c 843f 2fb8 8a3f bdaf 583f 5be0 6b3f
00000030: 9ad1 653f 75eb 6b3f f572 613f 0bcd 703f
1.018695 0.9892909 0.888947 1.2089252 1.0614558 1.0127026 1.0009053 1.130886
1.0350533 1.0837458 0.84643155 0.92139214 0.8977295 0.92156154 0.88066036 0.9406287

bn1_1.bias f4 [16]
00000000: b001 5f3d 97ef 8dbb 1d05 c0bc f423 983e
00000010: d568 de3c 0b4b f13c 63e7 403e c92c 173e
00000020: 00a6 153e ce8b 673e 5a58 a4bd 9efa 09bd
00000030: 9458 40bd aaad 8d3d 0f05 b0bc adbd 9ebb
0.05444497 -0.00433154 -0.023439938 0.2971493 0.027149597 0.029454729 0.18838267 0.14763178
0.14614105 0.22611925 -0.08024664 -0.033686273 -0.046959475 0.069178894 -0.021486787 -0.0048443885

bn1_1.running_mean f4 [16]
00000000: f9de 82be 97aa a7be 503e d43e 8471 91bd
00000010: 780e 953e b94a 98be 617c 41be 94d0 d8bd
00000020: 425a 6c3b fc21 a1bd fa34 bb3e fb54 b6bd
00000030: fedb ffbd a9d8 b3be 17ec 173f 2d93 89bd
-0.2556074 -0.32747337 0.4145379 -0.071017295 0.291126 -0.2974451 -0.18895103 -0.10586658
0.003606454 -0.0786781 0.36563855 -0.089029275 -0.12493132 -0.35126236 0.5934462 -0.06717525

bn1_1.running_var f4 [16]
00000000: daaf d53a 7b3b 633c 46e5 f73a f884 2d39
00000010: 13dc f439 9adc 693b c3c0 9d3a 9e2e 9739
00000020: 3556 6f3a fcb5 273a 4302 fb3a 1e72 083a
00000030: 3a28 de39 d7c2 f439 cf70 003c 6bbc 793a
0.0016303018 0.013869162 0.0018912933 0.000165481 0.00046703275 0.0035684467 0.0012035597 0.00028835697
0.00091299723 0.0006397662 0.0019150454 0.0005204993 0.0004237311 0.00046684474 0.007839396 0.00095266727

conv1_2.weight f4 [16, 16, 3, 3]
00000000: 8770 72bd 4e15 a93a 8b5b ccbc de74 253c
00000010: c3bf f5bc 81c8 bf3b 9848 34bc 7d69 aabc
00000020: 0c8f 48bd fcfe d43c 0108 cc3d 3c6d 903c
00000030: 219c 8f3d e75c aa3d b523 13bd 82c2 6bbb
00000040: 2c94 e0bc 2dd3 223d aa13 013a 9ddf 243d
00000050: 6374 bb3c e2b5 40bd c690 87bd 6286 cdbd
00000060: de67 2fbd 712f 973c f447 b9bb ca10 843d
00000070: 473e 0fbe 3d97 15bd dc69 bdbc 516b 96ba
00000080: 9e3e 61bb 11d8 15bd 3a3f a03d 7903 96bd
00000090: 43f0 79bc 8a63 5bbd 41aa 123d 0f5f 893b
000000a0: f986 84bd a086 25bd 7226 2d3d 5ec1 2bbd
000000b0: 2f4b 823d 8774 97bc 0a0c e03d 0ed6 49bd
000000c0: 3785 9abc 3955 943d f851 37bd d68f b93d
000000d0: b73c 723d 24e3 193d e3dd 90bd 603e 3abc
000000e0: b41d e5bd a6a7 573d 0573 3cbd 45a3 e9bb
000000f0: d07c 803c 2e2a 19bd 86db e5bd 0b93 36bd
00000100: 0e87 93bc 23ae ea3d 093a ccbc a3b0 9d3c
00000110: 743b 5cba 60ca 94bc 0569 81bc 353f 81bd
00000120: 5609 4d3d 2d42 51bd 5a0d 1e3d bd04 1e3b
00000130: c38e 553d 38b1 053d ed7c 5e3b 9745 693d
00000140: b449 9cbd 3e3c 85bb 033a a93d 9257 523d
00000150: 6a2a f53d 3b7b 04bd 2ee5 e53d f7a4 1d3e
00000160: e09f 1d3e 767a ec3d 6e31 eabc 50eb 6e3d
00000170: 42ab 9c3d 1940 17bd 4b06 0cbd 2b35 473d
00000180: f351 8a3d 2677 463d d3b4 823d 75f8 e0bd
00000190: 025a 18bd 7f3a ed3a 3726 4c3b 1780 82bb
000001a0: c93e aebd 05c4 28bc 39d4 30bd 2f75 abbd
000001b0: 7a79 e03d c8ea 98bc 28db 233d d4f4 f33a
000001c0: b394 41bd 99cf 84bd 9080 a23d b24f 9cbd
000001d0: ce96 81bc a2d2 b13d b55d e43d 5c68 40bd
000001e0: a8ea aebc 1317 80bd 9e26 6fbd 2aa1 96bc
000001f0: 62aa d3bc 734a b6bc 109f 283d 6bc9 3dbd
00000200: 805f 0c3c f84f 4e3d c1be 09bc af88 6a3c
00000210: 44e6 3fbd 7893 74bc 87e5 f83b be87 a3bd
00000220: db8b 203d 839b a9bb 93a5 e6bc 2800 00bd
00000230: 68f1 41bd 2bb5 4a3d f452 0ebd d9d8 da3c
00000240: 8476 ddbd 9f1c 6fbd 20eb 92bd 584a d6ba
00000250: 2912 4a3c c248 edbc 1271 023e 5cdb ccbc
00000260: 0d34 bd3d 9eb7 38bd 3e6b 85bc cd28 b3bd
00000270: 39c9 8fbd 19ad a0bd dec6 d83c b062 83bd
00000280: 1223 113d 25c3 20bd d1c3 a4ba dcc1 c53c
00000290: aff6 d13d 8456 2dbd ff7d 633c 3f7f 8f3b
000002a0: d2e9 0e3d 4e21 b53c 755c 113c db97 fd3d
000002b0: 480f 38bb 3a50 d23c 0565 e23d ad6b abbd
000002c0: 4fdd 69bd 2a7b 3abd e5d1 8ebb 1fd1 d0bd
000002d0: 4203 00be 7b92 76bd 3222 c2bd 7686 8ebc
000002e0: 2d8e 1fbd 5391 cfbc 8365 8fbd cfb9 6abd
000002f0: cf5d abbc 85f5 64bc 46f2 8ebb e6ce c93b
00000300: 2e79 5abd 374f 1b3d 4f00 3fbc 2567 2ebd
00000310: c81e 06bd 83d3 0a3d 1850 573d c3bd 55bb
00000320: 7b07 96bc 0aa9 5a3d 4edb 8bbc 9450 febd
00000330: f5b5 e53c 2835 2abc 8cd0 aabc 80fe 05bd
00000340: 849e 68bd 8d18 c03d 14d4 b4bd 031b 803d
00000350: c596 9dbd 6fe1 efbb 38aa 89bc 667c 01bd
00000360: 0304 093d 79cb ec3c 474b 6cbd 1dd3 5abc
00000370: 8c61 473d a083 bdbc 548e c23d f5c8 903d
00000380: 4085 f4bc 9b2b 90bd 80ba 2bbd 451e cfbd
00000390: 5210 6dbd 2b66 22bd 18a9 01bd 6e13 a93d
000003a0: 356a 2c3d 4df2 863d 8952 d73c bc10 59bd
000003b0: 9fcd 753d 20df 39bc 6504 12bd e1fc 633d
000003c0: 1a7c ccbc dec9 8e3c 9640 98bd 3d2c 2c3d
000003d0: 8964 3d3d c279 37bd 6b92 0f3d b7a5 cd3b
000003e0: 27eb 14bd 57b0 aa3d e1d9 1b3d ff4f c43c
000003f0: 3a9e 8ebd c54f 04bd 94f2 29bd ca28 12bd
-0.059189346 0.0012900026 -0.024945995 0.010098664 -0.029998666 0.0058527594 -0.011003636 -0.020802254
-0.048964545 0.026000492 0.09962464 0.017630212 0.07012201 0.08318501 -0.035922725 -0.003597409
-0.027414404 0.039752174 0.00049238896 0.040252317 0.022882646 -0.047048457 -0.0661941 -0.10035397
-0.042823665 0.018455239 -0.0056543294 0.06448515 -0.139886 -0.036521185 -0.023121767 -0.0011476075
-0.0034369598 -0.03658301 0.078245595 -0.07324881 -0.015255037 -0.053561725 0.035806898 0.00419224
-0.064710565 -0.04041159 0.042272992 -0.041932456 0.063619964 -0.018488182 0.10939796 -0.049276404
-0.01886235 0.072428174 -0.044755906 0.09060638 0.059139933 0.037570134 -0.070735715 -0.01136741
-0.11187306 0.052650116 -0.04600813 -0.007130059 0.015684515 -0.03739374 -0.112235114 -0.044573825
-0.018008735 0.11458995 -0.024930017 0.019249266 -0.0008401193 -0.018162906 -0.015797148 -0.06310884
0.05005773 -0.0510885 0.03858695 0.002411171 0.0521381 0.032639712 0.0033948973 0.05695113
-0.07631245 -0.0040660193 0.08263018 0.051353045 0.119709805 -0.032344084 0.11225353 0.1539496
0.15393019 0.11546795 -0.028588023 0.05832988 0.07649852 -0.036926363 -0.03418569 0.04863469
0.06753912 0.048453473 0.06382146 -0.109848894 -0.037195213 0.0018099098 0.0031150708 -0.0039825547
-0.08508069 -0.010300641 -0.04317114 -0.0837196 0.1096067 -0.01866664 0.040003926 0.0018612393
-0.04726095 -0.064849086 0.079346776 -0.07632388 -0.01581898 0.08682753 0.11150686 -0.046974525
-0.021352127 -0.06254401 -0.058386438 -0.018387396 -0.02583808 -0.022252297 0.04116732 -0.046334665
0.008567691 0.050369233 -0.008407296 0.0143148145 -0.046850458 -0.014927737 0.007595721 -0.07984875
0.039195877 -0.005176009 -0.028155124 -0.03125015 -0.047349364 0.04948918 -0.03474708 0.02671473
-0.10813621 -0.058376905 -0.07173753 -0.001634906 0.012333431 -0.028965358 0.12738445 -0.025006942
0.092384435 -0.045096986 -0.016286489 -0.087480165 -0.07020802 -0.07845516 0.026462015 -0.064153075
0.035433836 -0.039248604 -0.0012570565 0.02414029 0.10252129 -0.042318836 0.01388502 0.0043791826
0.034890957 0.022110607 0.008872141 0.1238248 -0.002808528 0.02567302 0.11054424 -0.08370147
-0.057095822 -0.045527615 -0.0043585175 -0.10196137 -0.12501243 -0.06019829 -0.094791785 -0.0173981
-0.03895395 -0.02533785 -0.07001784 -0.057306107 -0.020918755 -0.013974552 -0.0043623773 0.0061586974
-0.053338222 0.037917342 -0.011657788 -0.042578835 -0.0327442 0.03389312 0.052566618 -0.0032614328
-0.018314114 0.053383864 -0.017072346 -0.12417713 0.028040865 -0.01038865 -0.020851396 -0.032713413
-0.056791797 0.09379683 -0.08829513 0.06255152 -0.07694773 -0.007320575 -0.0168048 -0.031612776
0.03345109 0.028905617 -0.057688978 -0.013355997 0.048677012 -0.023134053 0.09499803 0.070695795
-0.029848695 -0.07039567 -0.041925907 -0.10113195 -0.057876892 -0.039648216 -0.0316554 0.08255659
0.042093474 0.06589184 0.026284473 -0.052994475 0.06001055 -0.011344701 -0.035648722 0.055661086
-0.02496152 0.017430242 -0.07434194 0.042034376 0.046238456 -0.04479385 0.035051744 0.0062758583
-0.03635707 0.083344154 0.038049582 0.023963926 -0.06963773 -0.032302637 -0.041491106 -0.03568343

conv1_2.bias f4 [16]
00000000: 775c 72bd 318c 73bd a4e6 12bd 97f6 63bd
00000010: e5a3 8fbd 5822 a5bc 764f 64bc 9c36 1d3d
00000020: 6044 3a3d e81e 73ba 7aa6 7fbc fc92 84bc
00000030: 87c4 89bd e6e4 793d 13cf 973d 28a4 9cbd
-0.059170213 -0.05945987 -0.035864487 -0.05565509 -0.07013682 -0.020157978 -0.013934961 0.038382158
0.045475364 -0.000927432 -0.015603656 -0.016183369 -0.06726938 0.06100931 0.07412543 -0.07648498

bn1_2.weight f4 [16]
00000000: 46e8 8d3f fd57 903f 2219 793f a223 8b3f
00000010: 8511 963f 60c3 923f cfba 813f 4e11 8d3f
00000020: df7e 883f 0895 943f c8ad 8e3f 773d 8d3f
00000030: 14ea 803f 61bb 7b3f baa6 7e3f ea58 8a3f
1.1086509 1.1276852 0.97303975 1.0870249 1.1724097 1.1465874 1.0135134 1.1020906
1.0663718 1.1607981 1.1146784 1.1034383 1.0071435 0.9833279 0.99473155 1.0808384

bn1_2.bias f4 [16]
00000000: a1de 993d a4ed f13d 7d9f 1ebd 49ed 8b3e
00000010: b141 563e 1785 3e3e 78db bb3c 0b0f ae3e
00000020: df44 143e b5fe ce3e bdf5 e03c 6b3a 513e
00000030: 3aea 99bd b6c8 6ebd df47 d33c 5762 8a3d
0.07513166 0.118129045 -0.03872632 0.27329472 0.20923497 0.18605457 0.0229318 0.33995852
0.14479397 0.404287 0.027460927 0.20432441 -0.07515378 -0.05829688 0.025791107 0.06757038

bn1_2.running_mean f4 [16]
00000000: c7b9 9f3d f891 e8be 0058 87bf fdf9 bfbe
00000010: fee8 bb3d 3098 4abf 429e 1e3e 822d 83be
00000020: 88ee 0dbf 022e a0be 50aa 46bd 5c61 38bf
00000030: 099f 68bd a535 d73d 1507 df3d 07bd 32bd
0.07799106 -0.45423865 -1.057373 -0.37495413 0.09175299 -0.7913847 0.15490058 -0.25620657
-0.55442095 -0.312851 -0.048502266 -0.7202356 -0.056792293 0.10508279 0.10890023 -0.0436373

bn1_2.running_var f4 [16]
00000000: 57fc 8c3e 3525 9c3e c7d3 b43e ac38 5a3e
00000010: 81c9 c53d b6a0 113e c227 973d 1233 2d3e
00000020: 830f 6a3e c148 563e 5162 8e3d 5320 193e
00000030: 93e5 2b3e 81f8 513e 7772 313e d908 303e
0.2753627 0.30497137 0.35317823 0.21310681 0.096575744 0.14221463 0.0738063 0.16914013
0.2285748 0.20926191 0.06952346 0.14953737 0.16786794 0.20504953 0.17328821 0.17190875

conv2_1.weight f4 [32, 16, 3, 3]
00000000: 5559 93bd 9fa3 97bd af71 be3c bdea 1d3a
00000010: a957 91bd 22a0 2f3d 7d1a 033d 205c 00bd
00000020: ff08 94bd c23e e53b 4e78 8f3d 9e04 32bd
00000030: 00e0 b3bd a243 833d f35d 483c 06d3 aabd
00000040: f12e 9c3d 955d c9bd 6c25 1cbd c6fa 4c3d
00000050: 647d 49bd 4f5f 83bd bc55 88bd 1d80 45bd
00000060: 91d4 043d f208 f73c fd9d b9bd 4810 97bd
00000070: b971 9f3c a326 35bd e697 45bd d803 a5bd
00000080: b240 b23c 0e65 633d f002 5d3d eb37 e23c
00000090: 0c28 d4bd 1f2c 5ebd 18e0 8dbb 99b1 87bd
000000a0: 78aa db3c e2dd 5f3c 3410 3b3d f130 ea3d
000000b0: d7f2 f83d ee21 c1bd e6c0 0a3d 5335 2abd
000000c0: b0cf 86bd 63be 51bd ece2 813d f3c8 51bd
000000d0: 1ef8 2d3d be28 5abd 0b3f 033d 88c8 f13c
000000e0: ff7c cfbc a943 1639 66c4 f43c c79e f6bc
000000f0: 04be 8fbd a57f c6bd 758b 79bd e66f 4cbd
00000100: d499 1fbc ec64 75bb 6e01 4fbd 4ddb cbbc
00000110: 1600 923c a507 1a3d b1e9 05bd 9f3c 6cbc
00000120: f0c2 a4bc dca6 32bd f646 343d d73c 113d
00000130: 4749 51bc 8792 b7bd f11f 0c3c 484e 433d
00000140: 18d9 f4bc 195f 3d3d cd46 a6bd 075f f2bd
00000150: 701b 24bb d706 b2bc ec47 e23c cb81 c13d
00000160: 726f 603d d09e 873c 6b9c 9dbd 2f8e 3bbd
00000170: 6cc9 98bc 5197 3bbb 78de 6a3d c36a 843d
00000180: a955 30bd 4c3d 28be ff4b 06bc 4b97 d53c
00000190: dc90 b9bd d3b8 58bd ca02 d73c d624 aebd
000001a0: 854c d9bb f087 de3d 5eb3 a13d 2238 ab3c
000001b0: 3bb8 a23d 04b5 7e3d b044 98bd d0f3 003d
000001c0: e334 14bd 8122 8bbd 15a4 3fbd 6a29 c0bd
000001d0: ce4d 19be cc68 92bd bcf7 85bd c958 17ba
000001e0: 38f3 853c 2a05 9b3c d2f1 93bb 6028 803d
000001f0: 82d3 84bd 47a0 5fbd 2651 c23d 0aa5 2ebd
00000200: a9ae fb3d 4e3d 22bc 9717 58bd 0a3a 8d3d
00000210: 0c34 53bb e0d7 163d ae13 0a3d 966b b2bd
00000220: 255e 253d a305 f4ba 00bc f4bc 36e0 fe3c
00000230: 8e89 5bbd 1d9a e5bc e8aa 053e 3d46 cdbc
00000240: 671c 17bd e696 033d a9e8 3dbd 9416 6fbd
00000250: 3b2a 3dbc ac68 7b3d 5076 4cbd 7bc3 683d
00000260: 4948 ccbd 06f3 053d 6fc1 9c3d 0842 873d
00000270: d0d3 27bd 6b47 2ebd f38c a33d 5d3f 6abd
00000280: fdc7 bcbd 016b 9b3d 80ca bb3c 780a ad3b
00000290: baa8 ae3d 33bf 313d 2f85 1a3d 11d3 593c
000002a0: f746 adbc f9e1 6a3b 5ca5 333d 1f5e 09bc
000002b0: 21eb 373c 67d0 8a3d bbe5 823d 5df3 d6bc
000002c0: 74fc d33c 892e e2bc 94e2 9c3d d812 be3d
000002d0: bbe7 85bd a0b3 7bbd 1f35 40bd a2f8 1b3d
000002e0: 9766 31bd 89d1 133d 5a2f 0bbe 2b43 bf3b
000002f0: d8cc a13d 18e8 34bc 1ec6 37bd 9d1b 8ebd
00000300: 05e0 9c3d b3ce 343d c7c7 49bd f48a 95bd
00000310: da4d 3d3d f2ea 9bbd e45b 943d ebb6 603c
00000320: 78c3 99bb 9f54 5dbd d510 13bd f65a a5bc
00000330: 6f48 adbd 70bd 4cbb 73dc fe3c 649d 903d
00000340: ebb2 9b3d d45c 56ba 7116 9dbb 0bc9 b2bd
00000350: 3cc3 bb3c 6a41 9cbc ce06 0e3d db68 7abd
00000360: a220 a63d 4e5d 5a3c 8eaf ff3c 3c73 4f3c
00000370: 3b39 81bd fc42 a6bd fff3 ffbd ea8a cebc
00000380: cd8e c7bd d39c 8dbd c8a7 2a3d 29af 8f3d
00000390: 617c 64bd 2f72 913d 463d 903c 7296 2bbd
000003a0: e7b0 c6ba 36be 00bd 3cc4 d63c 9139 223c
000003b0: a45f 93bd 1c72 303c 9d25 0dbd 6371 b4bd
000003c0: bcbd 24bd 4093 41bd 944b febd ca8d 05be
000003d0: 4e65 88bb 391e 59bd c2e0 2abd d892 fbbc
000003e0: 86d6 013b dd1e e43b f53c 813d 87fb 093d
000003f0: a5d4 5fbd 71c2 42bc 3a66 68bd e2ad 3ebd
-0.07194773 -0.07404255 0.023247568 0.00060240534 -0.07096798 0.042877324 0.032007683 -0.031337857
-0.07228278 0.0069960067 0.07005368 -0.043461435 -0.08782959 0.06409384 0.0122294305 -0.08341031
0.07626141 -0.098323025 -0.038121626 0.050043844 -0.049191847 -0.06414663 -0.066569775 -0.04821788
0.03242928 0.030155633 -0.09063337 -0.07376152 0.019463407 -0.0442263 -0.048240565 -0.08057374
0.021759365 0.055516295 0.05395788 0.027614554 -0.10359201 -0.054241296 -0.0043296926 -0.06625671
0.026814684 0.013663741 0.04566975 0.11435116 0.12155693 -0.094303 0.03387537 -0.04155476
-0.06582582 -0.051206958 0.0634211 -0.05121703 0.04247295 -0.05326151 0.032042544 0.029514566
-0.025328157 0.0001433032 0.029878806 -0.030105008 -0.070186645 -0.09692315 -0.060924012 -0.049911402
-0.009741265 -0.0037444187 -0.050538473 -0.024884844 0.017822307 0.037604947 -0.03269357 -0.01441875
-0.020112485 -0.04361616 0.044012986 0.035458412 -0.012773818 -0.08963495 0.008552537 0.047682077
-0.029888675 0.04623327 -0.08118973 -0.11834531 -0.0025040768 -0.021731777 0.027622186 0.09448584
0.054793783 0.01655522 -0.0769585 -0.045789894 -0.018650733 -0.0028624127 0.05734107 0.06465676
-0.043050442 -0.16429633 -0.00819683 0.026073119 -0.09060833 -0.052910637 0.026246447 -0.0850312
-0.0066314363 0.10865772 0.0789554 0.02090079 0.079452954 0.06218435 -0.07434976 0.031482518
-0.03618325 -0.067936905 -0.04678734 -0.09382899 -0.14971086 -0.07148895 -0.06541392 -0.0005773423
0.016351327 0.01892336 -0.004514911 0.06257701 -0.064856544 -0.05459621 0.09488134 -0.042637862
0.12289173 -0.0099023115 -0.052756872 0.06895836 -0.0032227067 0.03682697 0.033710174 -0.08711927
0.040372986 -0.0018617403 -0.029874802 0.031112771 -0.05359798 -0.028027589 0.13053477 -0.025057906
-0.03689232 0.03212633 -0.04636446 -0.05837114 -0.011545713 0.06137912 -0.04991752 0.05682705
-0.09974725 0.03270247 0.07654082 0.06604391 -0.040973485 -0.04254858 0.07985868 -0.057189334
-0.09217832 0.07588769 0.022923708 0.005280789 0.08528276 0.043395232 0.03772467 0.013294951
-0.021152003 0.0035840257 0.04385887 -0.008384257 0.011225493 0.06778031 0.06391474 -0.026239092
0.025877215 -0.02761008 0.07660404 0.09280938 -0.0653834 -0.0614506 -0.04692566 0.03807891
-0.043310728 0.0360885 -0.13592282 0.0058368645 0.07900399 -0.011041664 -0.044866674 -0.069388606
0.07659916 0.044142436 -0.04926279 -0.07301894 0.046216823 -0.07613172 0.07244089 0.013715486
-0.004692491 -0.05403578 -0.035904724 -0.020184975 -0.08461081 -0.0031240843 0.031110978 0.0706127
0.07602485 -0.00081772846 -0.004793935 -0.08729752 0.022920243 -0.01907416 0.03467446 -0.061135154
0.08111693 0.01332791 0.03121164 0.012661751 -0.06309744 -0.08118245 -0.124977104 -0.025212724
-0.09744034 -0.069146775 0.041663915 0.07015831 -0.05578268 0.07101857 0.017607342 -0.041891523
-0.0015158922 -0.0314314 0.026216619 0.00990142 -0.071959764 0.010769393 -0.0344597 -0.08810689
-0.040220007 -0.04725957 -0.12416759 -0.1304237 -0.004162467 -0.05300734 -0.041718252 -0.030709669
0.0019811704 0.006961687 0.06310455 0.03368714 -0.054646153 -0.011887179 -0.056738116 -0.046552546

conv2_1.bias f4 [32]
00000000: 6045 3dbd b682 82bd 7b9d afbc 1df2 95bd
00000010: 4d55 123d 75d9 0dbd 2716 29bd de83 703b
00000020: 50fa cbbc 8a06 7e3d 0018 9b3d 19ab 99bd
00000030: 8938 163d 574a 4f3b 3b40 3d3d 0a82 01bd
00000040: b961 2cbc 6e81 15ba c660 e63c 142d 2e3d
00000050: 6a87 043d 5236 3a3c 263e 8abd 7a09 49bd
00000060: 2c42 46bd 1311 a9bd 4eca a33d 23e0 16bd
00000070: 2ce9 74bd 80ee 19bd 52d4 493d 7180 51bd
-0.04620874 -0.063725874 -0.021437397 -0.0732157 0.03572588 -0.03463121 -0.04128089 0.0036699693
-0.024899632 0.062017955 0.07572937 -0.075033374 0.03667501 0.0031630003 0.046203833 -0.031618156
-0.010521346 -0.00057031855 0.028122317 0.04252346 0.032355703 0.01136549 -0.06750135 -0.049081303
-0.04840295 -0.0825521 0.07997571 -0.036834847 -0.059792683 -0.037580967 0.04927475 -0.051147882

bn2_1.weight f4 [32]
00000000: c25b 773f 4059 8d3f e782 7c3f 3c52 8d3f
00000010: cecf 7c3f 0f42 8e3f 8caa 8b3f 7c5e 883f
00000020: 7851 873f 0fd3 8c3f 8e4e 583f 0a31 7a3f
00000030: ccbc 803f 0002 683f 2bb9 753f fe5e 603f
00000040: be93 883f 34da 883f 0bad 833f 88a4 673f
00000050: 8ae5 763f 9af4 8c3f 216a 753f 8744 693f
00000060: 7d47 793f 0e3e 7c3f b581 7f3f 8552 883f
00000070: d115 733f ed06 653f 74fa 6b3f 9379 7e3f
0.96624386 1.1042862 0.9863724 1.1040721 0.98754585 1.111391 1.0911422 1.0653834
1.0571737 1.100191 0.84494865 0.9773108 1.0057616 0.9062805 0.9598567 0.87644947
1.0670087 1.069159 1.0287184 0.9048543 0.96444 1.1012146 0.95865065 0.9112019
0.9737471 0.9853219 0.9980729 1.0650183 0.94955164 0.8946369 0.92179036 0.9940426

bn2_1.bias f4 [32]
00000000: 3caa 03bc 9788 e43d c7ee dbbd 9779 d73d
00000010: 222c 27bd 8501 ea3d 666a f03d 3adc 7a3d
00000020: 2608 d83d 1267 1e3e d966 1abd b057 a73c
00000030: 3326 ab3c 8980 f8bd c576 39be e236 e6bd
00000040: 7f57 a03d 1e30 db3d 73ba c23d 6097 e0bd
00000050: 30be 14bd 8290 ae3d 0d8c 3cbd 7875 84bd
00000060: 5c8e 8dbd 21e0 0a3c 80cb 8db8 900e cb3d
00000070: 430b 6abd f44d cdbd f5b6 abbd 90ac 493d
-0.0080361925 0.11158865 -0.107389025 0.10521238 -0.040813573 0.11426071 0.11739044 0.06124518
0.10548429 0.15469006 -0.03769574 0.020427555 0.020892238 -0.12133891 -0.18111713 -0.11240937
0.078291886 0.10702537 0.095082186 -0.109663725 -0.03631419 0.085236564 -0.046032 -0.06467718
-0.069119185 0.008476288 -6.761309e-05 0.09914887 -0.057139646 -0.10024634 -0.08384506 0.049236834

bn2_1.running_mean f4 [32]
00000000: 273e 9fbf 10be 2bbf 4637 1dbf 88eb f2be
00000010: a155 34be 9dc5 423e ffca 4ebf af05 ab3e
00000020: 6b29 50be 7e61 41be bcd1 9fbe 2b30 55be
00000030: 76ff a5bf f8a3 11bf 2bcf 4dbf 2ad1 1ebf
00000040: e360 61bf c871 1dbf e0e9 873e 7922 303f
00000050: d3e5 9a3e 44a0 36bf 8dfa 62bf 7e8e 3dbe
00000060: b216 06bf f62e a0be 379c 213d 6f54 6fbe
00000070: 295e 95be aa71 1a3e a4d9 7dbe db56 8ebf
-1.2440842 -0.6708689 -0.61412466 -0.4744532 -0.1761079 0.19020696 -0.807785 0.33402774
-0.203283 -0.18884847 -0.31214702 -0.20819156 -1.2968585 -0.5689082 -0.8039424 -0.6203791
-0.8803846 -0.6150174 0.2654562 0.688026 0.30253467 -0.71338296 -0.8866356 -0.18511388
-0.5237838 -0.31285828 0.03945562 -0.23372053 -0.291734 0.15082422 -0.24790055 -1.1120256

bn2_1.running_var f4 [32]
00000000: 0479 0d3f dee4 ba3e 3f17 e73e 09a9 bd3e
00000010: 6c3f a03e 8f52 253f 00c3 b73e b4a8 ca3e
00000020: a409 8f3e 0e51 5d3e 39fb 0e3f d8c4 b13e
00000030: e109 c33e 5a53 343f a4c4 9e3e cdf4 833e
00000040: d196 9a3e 7f1d ef3e 3c91 0e3f 5c59 193f
00000050: f6ae 473e c252 2d3f d659 0d3f 2842 753f
00000060: a613 0a3f 2b13 833f 3ddf 6d3e 032e ba3e
00000070: 5633 a13e 06aa 973e 2ccb 983e 2f32 c53e
0.5526278 0.36502737 0.45134923 0.37043026 0.31298387 0.645791 0.3589096 0.39581835
0.27937043 0.21612951 0.55852085 0.34720492 0.38093475 0.70439684 0.310094 0.25772706
0.3019319 0.4670219 0.5569036 0.59901977 0.19500336 0.67704403 0.55215204 0.9580407
0.5393623 1.0240225 0.2322969 0.3636323 0.3148448 0.29621905 0.29842508 0.3851485

conv2_2.weight f4 [32, 32, 3, 3]
00000000: ac67 4cbd ab36 42bd 6b59 343d c0c6 21bd
00000010: 2baf 06be 4442 75bd 0af1 a33d 0f35 e93d
00000020: 9e48 a93d d6d1 9ebc 1241 4bbd dbb2 01bd
00000030: ee77 87bc 7cff f3bc 91d6 cb3a d95e 02bd
00000040: 5d35 1d3a 5ceb c83c edd3 9b3d d009 6e3d
00000050: 0713 923c a42d 85b9 ba76 80bd 6e31 f0bc
00000060: 8d64 153d 5c8b d8bc 66af 20bd c4a8 083d
00000070: dfa8 21bd 166f abbd 0997 6c3c 537d 67bd
00000080: b6ba d4bd 8651 fabb 95b0 92bb 26ba a7bb
00000090: a0cd a0bd a548 18bb 8a30 82bd 0587 133c
000000a0: 1468 103b c2b3 7e3b 6d75 5d3c 8a75 32bd
000000b0: e54f 27bd 4de0 d4bc f893 623b 4a3f 153d
000000c0: f22f 3cbd 6e7b 0e3c a36b c7bc 316d 89bd
000000d0: c178 923c 2bf5 503d 67f3 fd3c 6f29 27bd
000000e0: 467c 16bd f9e3 6ebb b2c3 513a 5e6c 1bbd
000000f0: 1acc 883b 9dcb 103b 94bf b7bb e650 9a3c
00000100: 9a81 45bd ebb9 0dbe 0b5f bebc aa6d 553d
00000110: 9f99 87bd 6f9e a33d 7d58 313c 67e2 3b3c
00000120: d5f8 0d3d 3d62 5abd 13ba 33bd 8f13 42bb
00000130: 84af 51bd 4185 c13c f409 743d f8ae 2e3d
00000140: b6e2 89bc 695e 13bb 2114 ccbc a2e1 b3bd
00000150: 42a7 3f3d 06a6 483c 3e60 873c 1dbe b93c
00000160: f6f4 20bc 9179 cd3d f333 973d 4871 78bc
00000170: 60fe ad3d 7cb5 6c3d c1b8 8f3c f4f6 953d
00000180: 58fe f03b e23b c93c 9bf7 913c 220e 303c
00000190: 946b f93b 9630 c63a bb08 ef3c 43bd b9bc
000001a0: 8d6f 7d3c f26c a2bd 41b2 c7bd 42b7 54bd
000001b0: 07a5 1fbd d22c 1b3d e514 78bd 596e 88bd
000001c0: f866 2d3d 5924 68bd be78 03be 013b 72bd
000001d0: 4004 c7bc f669 4a3c 3601 43bb a336 f1bc
000001e0: 6e69 5fbd c557 b1bb ac70 1abd 057c 02bd
000001f0: 7bdc 87bd 7bba a4bd 2f87 2c3c 4041 f8bb
00000200: d9e8 8a3d d675 583d 6ab2 88bd c5e9 ba3b
00000210: bd72 d63d 56db 5d3d e77b 0e3d a366 943b
00000220: e30c f9bc 0dc1 4bbd 63b2 193d 205d 343c
00000230: e6a6 82bc 1417 423d 5276 db3c 9af6 683b
00000240: 8d5c 043b 1161 283d 318f 703d 88dd 763b
00000250: 437e 9f3c 2fed 9bbb d92f 2cbd df67 d03c
00000260: 1322 233d a799 763c a88b 23ba 82fb 1abc
00000270: 636f c3bc 6bf7 5b3d e2cc ed3c 2409 5ebd
00000280: 053d 98bb 6641 b1bc 7f13 1cbd 7d5d 123d
00000290: 4f8a 093c e5ab 3bbd 4ae9 46bd 04ee 7abb
000002a0: 7a29 16bd 1fd9 1f3d d967 adbd ae15 c8bc
000002b0: dd02 6abd 8bc6 a03d fc0d 0e3d cc56 733d
000002c0: 059f a03c e250 b53c f237 cebc a7fe 04bd
000002d0: 3fcf d23d e293 8bbd 48c7 adbd fb86 bc3c
000002e0: 868e 20bd a60f fcbc d6a3 d43d 321e b7bd
000002f0: c10b 3ebd 0196 763d 94b2 4bbc 6c5a 9cbc
00000300: 949f 9c3b 970f 20bc 2ec6 353d d21e ac3c
00000310: 0ab3 d23c c8b6 1e3d 9abe aa3d 62cb d838
00000320: 8c77 43bd 9626 96bc e1f9 233c 2ae7 d5bc
00000330: 652a c4bd 4cc5 803d f678 99bc da7b 38bd
00000340: 725f 7abd 06fe d8bd 9155 67bd 1d19 38bd
00000350: 90c6 2e3c e828 7fbc 396e 72bc 6031 533c
00000360: 5f7b 81bd 47f0 4abd 40c6 82bb 06da 79bd
00000370: 2eef 25bd 9e4d 82bd d16a e6bc af51 ed3c
00000380: 9d67 7f3d a64d 143d 6d8d 083c 1f78 feba
00000390: f025 11bd 2e4b afbc aa2e aabc 4a95 2dbb
000003a0: 29c0 213b f299 dcbc 2d3b 823c cd84 40bd
000003b0: 26eb e8bc b529 653c c016 333c 0ad7 253d
000003c0: 36e4 0fbd bb42 753d 898c 0d3d 7c45 7a3c
000003d0: 9b65 113d 14d5 83bc 942d 24bc 33e0 403d
000003e0: 3116 183c 731d 923d e24d c13a 267b 34bd
000003f0: 874e 403d d57b d13c c862 4e3d 0d07 46bd
-0.049903557 -0.047415417 0.044030588 -0.039496183 -0.13152759 -0.05987765 0.08004959 0.11387073
0.08265804 -0.019387167 -0.049622603 -0.03166471 -0.01653668 -0.02978491 0.0015551617 -0.031828735
0.00059970265 0.02452629 0.07608781 0.058114827 0.017831339 -0.00025401742 -0.06272645 -0.029320445
0.036472846 -0.02643364 -0.039229773 0.033364072 -0.03946769 -0.08370797 0.014440306 -0.056516003
-0.10387175 -0.007639113 -0.0044766166 -0.005118626 -0.0785172 -0.002323666 -0.06356914 0.009004359
0.0022034692 0.0038864468 0.013516766 -0.043569125 -0.040847678 -0.025985861 0.003457306 0.03643731
-0.04594416 0.00869642 -0.024343317 -0.0671028 0.017879846 0.05101506 0.030999852 -0.040811
-0.03673961 -0.00364518 0.0008001878 -0.037945144 0.0041747214 0.002209402 -0.0056075547 0.018837404
-0.0482193 -0.13840453 -0.02323868 0.052106537 -0.06621098 0.07989203 0.01082432 0.011467553
0.034661133 -0.053316344 -0.043878626 -0.0029613709 -0.051192775 0.02362311 0.059579805 0.042647332
-0.016831737 -0.0022486693 -0.024911942 -0.087832704 0.04679037 0.012246614 0.016525384 0.02267366
-0.009824028 0.100329526 0.073829554 -0.015163727 0.08495784 0.057790264 0.017544152 0.07322493
0.007354539 0.024564687 0.017818263 0.010745557 0.0076117013 0.0015120681 0.029178968 -0.022673255
0.01546849 -0.07930936 -0.09750796 -0.05193258 -0.03897574 0.03788454 -0.0605668 -0.06661672
0.042334527 -0.05667529 -0.12839028 -0.0591383 -0.024294019 0.012354365 -0.002975536 -0.029444998
-0.054543905 -0.0054120743 -0.03770511 -0.031856555 -0.0663385 -0.08043381 0.010530277 -0.007576138
0.067826934 0.052846752 -0.06674655 0.005704137 0.10471103 0.054164253 0.03478613 0.004528837
-0.030401653 -0.049744654 0.03752364 0.011008531 -0.015948724 0.04738529 0.026789818 0.0035547377
0.0020196766 0.041108195 0.058730308 0.0037668664 0.019469386 -0.004758499 -0.04203782 0.025440155
0.039827418 0.015051282 -0.0006238767 -0.009459378 -0.023856824 0.053702753 0.02902836 -0.054207936
-0.004645946 -0.02163763 -0.03810453 0.03573369 0.008394792 -0.04581823 -0.048562326 -0.003828884
-0.03666065 0.039025422 -0.08467073 -0.0244244 -0.057131637 0.07850369 0.034681305 0.059408948
0.019607076 0.022133294 -0.025173161 -0.032469418 0.10293435 -0.06815316 -0.084852755 0.023013582
-0.03919842 -0.03076918 0.10382812 -0.08941306 -0.04639793 0.06020165 -0.012432713 -0.019086085
0.0047797654 -0.009769342 0.044378452 0.02101079 0.025720138 0.038748533 0.083371356 0.000103375656
-0.04772143 -0.018328946 0.010008306 -0.026111204 -0.095783986 0.062876314 -0.018734436 -0.04503999
-0.06112618 -0.10595326 -0.056478087 -0.044945825 0.010667458 -0.015573718 -0.014796787 0.01289019
-0.06322359 -0.049545553 -0.0039909184 -0.06099894 -0.040511303 -0.063624606 -0.028127106 0.028969614
0.062354673 0.036206864 0.0083345 -0.0019414461 -0.03543657 -0.021398153 -0.020774204 -0.0026486688
0.0024681187 -0.026928876 0.015897358 -0.04700165 -0.02843244 0.0139869945 0.010930717 0.04048828
-0.03512975 0.059878092 0.034557853 0.015275355 0.03549729 -0.016092815 -0.010020632 0.047088813
0.009282635 0.07134523 0.0014747942 -0.044062756 0.04694989 0.025571743 0.050387174 -0.048346568

conv2_2.bias f4 [32]
00000000: ac98 de3c df6e 713d 9e27 39bc 21fb 8bbc
00000010: f5a2 1cbd 1b06 e13b c41a 423d 9bfd e1bb
00000020: db66 a7bc 640a 183d c483 7b3b e559 063c
00000030: 8f2c 5f3d 34ff 643d 4a7d 6f3d f6d4 5abd
00000040: 6de3 2d3c c4a6 483d b9be 573d 633d 54bd
00000050: a0ff 343d 23eb e0bc a5cd f6bc 0a03 03bd
00000060: 9377 ffbc cc1c 1ebc b996 233b f90f d8bc
00000070: 28b2 1b3d 3951 13bd 2aa6 583d 0f1a 5bbd
0.027172409 0.058943626 -0.011300949 -0.017087521 -0.038241345 0.006867183 0.047388807 -0.006896687
-0.020434787 0.037119284 0.00383781 0.008200143 0.054485854 0.055907443 0.058469094 -0.05342575
0.010613305 0.048987165 0.05267212 -0.051816355 0.044189095 -0.027455872 -0.030127356 -0.03198532
-0.031184947 -0.00965042 0.0024961664 -0.026374804 0.0380117 -0.03596613 0.05289284 -0.05349165

bn2_2.weight f4 [32]
00000000: 69a9 803f a554 973f 5ce7 863f 0120 9c3f
00000010: e0eb 8c3f 9b0b 933f 3d5a 973f b07a 9d3f
00000020: 517c 973f 3d3d 983f a816 843f 4167 a33f
00000030: 8699 8b3f c95b 853f fe1d 8b3f 3238 883f
00000040: 3112 a03f 944b 953f 00e2 9c3f ab53 863f
00000050: 4147 853f b51b 953f 0940 823f f2f6 833f
00000060: a637 8a3f 8189 8c3f f650 8f3f cfb9 983f
00000070: c93f 813f ed2c 883f f9a0 843f 7606 983f
1.00517 1.1822706 1.0539355 1.2197267 1.1009483 1.1487917 1.1824414 1.2303066
1.1834813 1.1893688 1.0319414 1.2765886 1.0906227 1.0418636 1.0868528 1.064215
1.2505552 1.166369 1.225647 1.0494283 1.041237 1.164908 1.0175792 1.0309737
1.0798233 1.0979463 1.1196582 1.1931704 1.0097591 1.063871 1.0361625 1.1876972

bn2_2.bias f4 [32]
00000000: 657f d0bd 80b4 093e f2bd a0bd f682 0c3e
00000010: 191e 9e3d 4858 0e3e d25d 1c3e 42e5 343e
00000020: 4ec3 273e fb28 273e 4803 0bbe 72d4 893d
00000030: cdc6 853d 630a 34be a7a0 cebd 589f fd3b
00000040: cd42 163e fdc5 0b3e 090e 123e 6e29 97bd
00000050: 3165 abbc 581e 2d3e a26c cabd 7387 02be
00000060: 8c4f 3fbc fbb2 98bd bd8b 49bd 1f6c 273e
00000070: cb6f febd 09fc d1bd dfe3 64be 49fa 253e
-0.101805486 0.13447762 -0.07848729 0.13721833 0.077205844 0.13900864 0.15270165 0.1766558
0.16383097 0.16324227 -0.1357547 0.06729974 0.06532059 -0.17582087 -0.10089236 0.0077399425
0.1467392 0.13649745 0.14263166 -0.07380949 -0.020922275 0.16906106 -0.09884001 -0.12746982
-0.01167668 -0.07456013 -0.04920553 0.16349839 -0.124236666 -0.1025315 -0.22352551 0.16208757

bn2_2.running_mean f4 [32]
00000000: 88de 04bf faea 163f ff82 6f3d 8b1f 06bf
00000010: 43ff 21bf 714c 85be 2fa7 aabe a7a4 89bf
00000020: 4c97 27bf 7ebb 563e c789 a2be 0905 b6be
00000030: a2d9 4abf 867e 39be 526d b4be 2212 a9bf
00000040: fb8d 12be 7ab0 82be 2a79 2ebe 515c c2be
00000050: e781 09bc 1788 fabe 2014 fabe 0ece 1fbf
00000060: 7c83 a1bd 88cf 23bf e1fb debe d005 70bf
00000070: a2d8 e4be 50cd 00bf 323e adbc 7ded 45bf
-0.51902056 0.58952296 0.058474537 -0.5239188 -0.63280123 -0.26034883 -0.33330676 -1.0753373
-0.65465236 0.2096996 -0.3174574 -0.35550717 -0.7923833 -0.18114671 -0.35239655 -1.3208659
-0.14311974 -0.25525266 -0.17038408 -0.37961057 -0.008392788 -0.48931953 -0.4884348 -0.6242379
-0.07886407 -0.6398854 -0.43551543 -0.9375887 -0.44696528 -0.5031328 -0.021147821 -0.77315503

bn2_2.running_var f4 [32]
00000000: 4bcb eb3d 9a7e 7a3e 92cb 0c3e f2c8 863e
00000010: 847b 303e f1a2 d03e 2d7d 303e 15f1 da3e
00000020: 5870 323e 8dff 833e 43c6 ef3d f4c5 a03e
00000030: 284e 953e d9a4 cc3d fb2b 743e 0939 453e
00000040: d89c ff3d 9c03 803e 46f7 723e 27c1 053e
00000050: 46d1 283e 535a 1a3e ee4a ff3d 9c52 e03d
00000060: 07c7 013e a2a9 9d3e 39f7 9e3d 7cc8 4a3e
00000070: ef49 e73d 5151 663e df38 033e ab56 dc3e
0.115133844 0.24462357 0.13749531 0.26325184 0.17234617 0.40749314 0.17235251 0.42762056
0.17425668 0.25780907 0.11707737 0.31401026 0.2916119 0.0999238 0.23844902 0.19260038
0.124810874 0.25002754 0.2372714 0.13061963 0.16486081 0.15073518 0.124654636 0.109532565
0.12673579 0.30793482 0.07761998 0.19803041 0.112933986 0.22491957 0.12814663 0.43034872

conv3_1.weight f4 [64, 32, 3, 3]
00000000: 4ce4 5f3c 512f 073c dc0e 0cbd 67ab 33bc
00000010: d270 9e3c cf31 2fbd 5829 b6bc b69b bb3c
00000020: cc71 c8bc 3894 97bb fc6e d13c 1805 cd3c
00000030: 9a09 f83c 0ac2 bc3c cc72 853d 7691 f8ba
00000040: 1f1b 54bb 7978 92bc bf3c 60bd 94c4 333d
00000050: 4a5b 92bb 0c80 8e3c 117a 9a3c 899f 1fbd
00000060: 5c68 70bd 8e6a 8b3c af87 f5bc b5a3 e23b
00000070: a5a6 18bc 4f4c 753d e0ed 893d 0471 b7bc
00000080: 2cd7 f4bc e89e 58bd 15b5 2a3c 0683 99bd
00000090: 26fa 0fbd 256f 3dbc e215 a7bc 64b6 1d3d
000000a0: 81d5 b8bc 51f5 8cbc d8ac 9cbd b601 5bbd
000000b0: c5c1 ddbd e9dd 93bd b0dd 723c 6ca0 0dbd
000000c0: 253a 863c 9b39 e3bc 1074 813c f96a ea3c
000000d0: 28b0 3fbc 3b41 073c ffaa 5ebc 67ea 47bb
000000e0: dfd1 143d 9a2c 2c3d 4617 09bc 1b20 7d3c
000000f0: 5d26 f7bc c06c 2ebd fe36 013d 9586 5abd
00000100: fcd6 233d c0e9 acba 9bfc 1d3d b946 2a3d
00000110: 28b8 1f3d 1d7f babc 4343 523d a351 13bd
00000120: fdc0 013b 47d6 383d 6e47 28bd 0101 9fbd
00000130: 5f2d b63c d78c 73bc 03f7 c6bd fcd2 d53c
00000140: bc75 6ebc a465 2abc 3528 fabc d30d 20bd
00000150: ba48 01bd 6ef8 02bc a22f 66bd 27f6 32bc
00000160: d854 94bc 5040 92bc 4ba3 223e ca2c 1a3c
00000170: 68a7 69bd 4a28 90bd 6f6e 843d e077 a2bd
00000180: 2de7 c83a 4766 ae3d 3752 9a3c e2ce 263c
00000190: 075b 0a3d dd7c 83bd 9aea 4d3d 8463 a13d
000001a0: dd18 973b 38e4 133b af69 613d da3c 06bc
000001b0: c58c 483d 8cd0 033c 1c27 51bd ac4a 1f3d
000001c0: 6d44 5cbd 3d9b 73bd 64b9 2e3d 0de4 80bc
000001d0: c47f 0abc 3311 c83d 8b34 7bbc 8140 08ba
000001e0: 6650 a43d 5fc2 82bd 873a 19bd 2a11 e63c
000001f0: 5872 82bd 22b1 21bd 77c2 6abd aba0 a63c
00000200: 3bb4 8c3b 8484 883c 0516 193d f578 cdbb
00000210: e8c6 67bc ee0b 453d 77ec 343d d8d8 a2bd
00000220: 9fe1 10bd c529 f0bd 64b2 3e3d e094 3a3d
00000230: d9dd 97bb bf6e 42bd d86b 223c a48d 4e3a
00000240: 0473 f33b 187b 573d 818c 61bd 7eff 0d3d
00000250: 2977 ebbc 60fe 9f3c e31e 4abd f0c5 ceba
00000260: ff20 793c ea47 423d 305d c93d 7983 c1bc
00000270: 4bb8 cebc 1ec5 28bd cabd 5e3a 612b cfbc
00000280: 5ab1 adba 9160 68ba 2733 12bb 6395 86bc
00000290: 8b00 92bd 7f0d 563c 0083 d6bb 18f5 aebd
000002a0: 6e60 9b3c 4622 3cbc 34ad 0ebd eb6a 243d
000002b0: d920 7ebd aece 9fbc 9b59 19bb c267 cebd
000002c0: 5082 c0bc d794 1abd e5b3 bfbd b3d5 fc3c
000002d0: a0d0 adbd 17d2 0f3d cade 55bd bfd3 87bc
000002e0: 32ef 6fbd 77a6 91bd 0d5c 4bbd a721 b63b
000002f0: 5f68 b6bc 7531 0abd 80bd 003d b3d5 68bd
00000300: 26f2 d5bc 2da9 1b3d 9155 bdbb 8d04 593c
00000310: ed0e 073d 03ad f23b 7c7b aa3d 9b75 4a3d
00000320: ced4 2d3c bca0 613d 7263 613d 816a 1c3d
00000330: 9723 19bb c712 b9bb 20c2 1abd 4b7b b93d
00000340: adb9 803c 3522 5b3d 8a29 e9bc bad9 39bd
00000350: 66bd e7bb 463f 5fbd 6111 603c dabe 883d
00000360: 6b5e 2d3c a422 523d eb94 c0bc 07e7 d43c
00000370: 6701 0fbd b722 8dbd e0a1 c73c 2872 e2bb
00000380: 1888 2fbd 537a 043d d9f6 b83d 7011 c83d
00000390: 9047 da3c 6e00 073c 0816 90ba 6918 553b
000003a0: 8ad1 243d 072b 583d ef33 403d 9ab4 f0ba
000003b0: bb6b 4fbc 4f93 01bd 452c 4c3c 8492 68bd
000003c0: adae d6bb 4f12 0c3d 584f 3ebd ac3d 243d
000003d0: fe56 433c 3564 c7bc 033d 013d 437a 54bd
000003e0: 0e26 edbc 14aa 503c 1a92 2dbc 0e7d 04bd
000003f0: 1345 b0bd b22c 9ebc 5bda 14bd ea85 0ebd
0.01366527 0.008251027 -0.03419386 -0.0109661585 0.019340906 -0.04277211 -0.022236511 0.022901397
-0.024468325 -0.0046258233 0.025565617 0.025026843 0.030278016 0.023041744 0.065160364 -0.0018964249
-0.0032364798 -0.017879711 -0.054745432 0.043888643 -0.004466449 0.017395042 0.018857034 -0.038970504
-0.058693275 0.017018583 -0.029971926 0.006916488 -0.009317075 0.059887227 0.06734824 -0.022392757
-0.029887758 -0.05288592 0.01041915 -0.07495694 -0.03515067 -0.011562143 -0.020396177 0.03850402
-0.022562744 -0.01720682 -0.07650155 -0.05346843 -0.10827974 -0.072200604 0.014823362 -0.03457682
0.016385147 -0.02773743 0.015802413 0.028615462 -0.011699714 0.008255298 -0.013590573 -0.0030504705
0.03633296 0.042034723 -0.008367365 0.015449549 -0.03016966 -0.04258418 0.031546585 -0.053351004
0.039999947 -0.0013192222 0.03857098 0.041571353 0.038993984 -0.02276569 0.051333677 -0.035966527
0.0019798868 0.045126226 -0.041083746 -0.07763863 0.022238431 -0.014865122 -0.097150825 0.026101582
-0.014554437 -0.01040021 -0.03053675 -0.039075684 -0.031563498 -0.007993801 -0.05619777 -0.010922945
-0.018106863 -0.017852932 0.15882604 0.009410093 -0.057044417 -0.070389345 0.06466376 -0.079330206
0.0015327685 0.085156016 0.018838031 0.010181161 0.033778217 -0.064203 0.05027256 0.07880309
0.004611118 0.002256645 0.05503243 -0.008193219 0.048962373 0.008045327 -0.05106269 0.038889572
-0.053776193 -0.05947422 0.04265727 -0.015733743 -0.008453313 0.097689055 -0.015332351 -0.00051976
0.08023147 -0.063847296 -0.03740933 0.028084356 -0.063694656 -0.039475568 -0.057314362 0.020340284
0.004293946 0.01666475 0.037374515 -0.0062705227 -0.014146544 0.04810708 0.044170823 -0.07951516
-0.03537142 -0.11726717 0.046556845 0.045552135 -0.0046346006 -0.047468897 0.009913407 0.00078793825
0.0074294824 0.052607626 -0.055065636 0.034667484 -0.028743343 0.019530475 -0.049345862 -0.0015775543
0.015205621 0.047431864 0.09832227 -0.023622261 -0.025234362 -0.04120361 0.00084969087 -0.02528924
-0.0013251707 -0.0008864487 -0.0022308321 -0.016428655 -0.0712901 0.013064741 -0.006546378 -0.08542842
0.01896688 -0.011482781 -0.034833148 0.040141027 -0.062043045 -0.019507732 -0.0023399356 -0.10078384
-0.023499638 -0.0377396 -0.09360484 0.030863618 -0.08487058 0.035112467 -0.05221442 -0.01658046
-0.058577724 -0.07111829 -0.049648333 0.005558211 -0.022266565 -0.033738572 0.03143072 -0.056844424
-0.026116442 0.038003135 -0.0057780226 0.013245714 0.03297322 0.0074058785 0.08324334 0.049428564
0.010609819 0.05508493 0.05502648 0.038187508 -0.002336716 -0.0056479904 -0.03778279 0.090567194
0.015713537 0.05349942 -0.02846219 -0.045373656 -0.0070721386 -0.0545037 0.013676018 0.06677027
0.010581593 0.051302567 -0.02350851 0.025989069 -0.034913447 -0.06891387 0.02436918 -0.006910581
-0.0428544 0.03234322 0.090314575 0.09768951 0.026645452 0.008239849 -0.0010992894 0.003251577
0.040238895 0.05277541 0.046924528 -0.001836437 -0.012659962 -0.031634625 0.012461727 -0.056780353
-0.0065515847 0.034197148 -0.046462387 0.040097877 0.011922596 -0.024339775 0.031552326 -0.05187441
-0.02894881 0.012735862 -0.010593915 -0.032345824 -0.08606925 -0.019308422 -0.036341053 -0.03479568

conv3_1.bias f4 [64]
00000000: ea31 4dbc eb9b c2bc f93e 2bbc 8e5b 243c
00000010: 700e 083d 6b7b 00bd 05ec 1fbc 1ee8 5bbd
00000020: 2a74 5b3d 9d84 10bd acee a23c 3cab a7bb
00000030: ae63 d2bc 8cb1 843c 70b0 5e3d 9eb8 693d
00000040: 1d9b ff3c 3f6f fd3c 2d59 0f3c 4964 203d
00000050: a874 5cbd 469b 81bc 07ed 13bc 007a 4d3c
00000060: 7af1 28bd 86de 12bb 546d e2b9 0c1d 123d
00000070: d848 cf3b 459d 5f3d a885 53bd 2ab5 193d
00000080: 7185 4abb 758f 2abd 36ad 913b 1d7c 4d3d
00000090: f12f 403d c34f 39bd 0af2 cebc 45cb 3dbd
000000a0: 0840 6e3d fa4e 16bd b3b1 0b3d 049d c73c
000000b0: 262b e6bc d8e0 703d 196e 8b3b 3a02 6abd
000000c0: c509 b93b baa1 183c b68c 0c3d b0a2 99bc
000000d0: 9e1c 223d c30d 45bd 3f3b af3c cbf1 be3c
000000e0: b08d 363d 6e69 0bbc e771 25bd 9ae1 553d
000000f0: 147c d2bc b9fa 4ebd 0671 a13c d390 b9bc
-0.0125241075 -0.023755988 -0.010452026 0.010031594 0.033216894 -0.0313677 -0.009760861 -0.05368816
0.05357758 -0.03528272 0.019889198 -0.0051168483 -0.025682297 0.016197942 0.054367483 0.05706083
0.031201893 0.030936835 0.0087492885 0.03915814 -0.05382219 -0.01582111 -0.00902868 0.012541294
-0.041245915 -0.0022410466 -0.00043187535 0.035672233 0.0063258223 0.054593343 -0.051641136 0.037526287
-0.0030902291 -0.041640718 0.004445697 0.05016719 0.04692072 -0.045242082 -0.025261898 -0.04633643
0.058166534 -0.03669641 0.034105014 0.024366863 -0.028096747 0.058808178 0.004255068 -0.05713103
0.0056469166 0.009315902 0.03431388 -0.018754333 0.039578073 -0.048108827 0.021390555 0.023308655
0.044568717 -0.008509023 -0.04039183 0.052217104 -0.02569393 -0.050532077 0.019707214 -0.022652065

bn3_1.weight f4 [64]
00000000: 155e 6b3f 3346 923f cf68 863f 5f6d 953f
00000010: eed7 803f c636 803f 56d7 973f 88b5 703f
00000020: 3a89 693f 5bad 953f 131b 943f ab14 873f
00000030: 7a48 9b3f 88dd 6c3f 8621 973f 4d68 963f
00000040: 2026 9c3f fcf1 9b3f 68dc 853f 7bac 993f
00000050: 75cc 953f f5ff 923f e7c8 9a3f 5adb 963f
00000060: 185d 7c3f 9bd7 773f 263d 843f f5cc 963f
00000070: 4a03 813f 6692 933f 6682 953f 8a8e 963f
00000080: ae36 9d3f 2e92 923f 3a10 913f 26f1 933f
00000090: fec5 693f 1c66 713f 95ad 663f 482f 923f
000000a0: 9b56 9b3f 8d57 7f3f d7af 6b3f 4bda 653f
000000b0: fd40 9a3f a396 973f 8d7a 9a3f 5f49 9d3f
000000c0: 7703 9b3f 04e5 833f cdad 7d3f fdfa 6d3f
000000d0: 53d4 943f 6e84 933f 2751 723f fab6 933f
000000e0: b95b 903f e274 753f ce11 9d3f f6de 943f
000000f0: d5fe 693f 1847 913f b28b 983f d843 943f
0.9194043 1.1427673 1.0500735 1.1674002 1.0065897 1.0016716 1.186259 0.94026995
0.91225016 1.1693529 1.1570762 1.0553182 1.2131493 0.9252553 1.1807106 1.175058
1.2199135 1.2183223 1.0457888 1.2005762 1.170302 1.1484362 1.209256 1.1785691
0.9857955 0.9681336 1.0331161 1.1781298 1.0079129 1.1529052 1.168042 1.176225
1.2282312 1.145086 1.1333077 1.1557968 0.9131774 0.9429643 0.90108615 1.1420679
1.2135805 0.99742967 0.92065185 0.89786214 1.2051083 1.1842846 1.206865 1.2288016
1.2110432 1.0304265 0.99093324 0.929611 1.1627296 1.1524789 0.9465508 1.1540215
1.1277992 0.95881474 1.2271059 1.1630542 0.9140447 1.1349821 1.1917632 1.1583204

bn3_1.bias f4 [64]
00000000: 4b59 f8bd ea22 023e bf8e 94bd 96c6 1a3e
00000010: 765c 7c3d bab8 4bbe 988a 383e ff46 09be
00000020: 3ccb 18be 5328 3b3e 3e93 183e 13ec 363d
00000030: f353 7f3e 2c0c 22be fccc 433e 4492 1f3e
00000040: e940 603e 4bdf 6d3e db6e 453d b010 593e
00000050: 80cb 1e3e 85b1 0d3e 08fd 433e 2841 033e
00000060: ed6f 63be ca43 56be 8aee 27be b0c7 493e
00000070: 9b88 2abe f0ac 2c3e 386f 1d3e cc9f 213e
00000080: 3f50 563e abcb 0f3e e862 233e 0947 163e
00000090: 77ec f5bd b55a 2dbe 6949 d8bd ede9 9f3d
000000a0: 6af3 683e dad2 81be fe34 09be acff 00be
000000b0: f77b 763e cff0 233e 6c59 423e e3df 6a3e
000000c0: dc3a 503e 7d70 aabc ae65 52be 0ff9 efbd
000000d0: b360 2c3e 34ba 273e a190 33be 48a8 283e
000000e0: 710f 183e 5411 3abd 4b11 4c3e 3612 333e
000000f0: 4ca9 0cbe 3ef4 14be 5bed 033e ffe6 3f3e
-0.12126406 0.12708631 -0.07253789 0.15114817 0.061611615 -0.19894686 0.1802162 -0.13405989
-0.14921278 0.18277101 0.14899918 0.04465873 0.24934368 -0.15824956 0.19121164 0.1558314
0.21899761 0.23229711 0.048201423 0.21197772 0.15507317 0.1383725 0.19139493 0.12817824
-0.22210665 -0.20924297 -0.16399589 0.19705081 -0.16653673 0.16862845 0.15374458 0.15783614
0.20929049 0.14042537 0.15955698 0.14675535 -0.12007993 -0.16929133 -0.10560877 0.0780829
0.22749105 -0.2535618 -0.13399121 -0.12597531 0.24070726 0.1600983 0.18979424 0.22936969
0.20334953 -0.020805592 -0.205466 -0.11717426 0.16833763 0.16379625 -0.1753564 0.16470444
0.1484964 -0.04542668 0.19928472 0.17487416 -0.13736457 -0.14546296 0.12883513 0.18740462

bn3_1.running_mean f4 [64]
00000000: d25b 80bf fef8 80be e73b c1be ea8d debf
00000010: 8b32 e9bf e32a 18bf a59f 15bf daa2 09c0
00000020: 4163 8bbf 1287 a1bf dcfe 723e 5264 d6bf
00000030: cb8c 9abf 6001 d2bf 3299 3ebe c33f 62bf
00000040: d45f c5be 7c17 b63e a892 46bf dfe4 10c0
00000050: fffd 11c0 1546 acbf 2775 edbf b66c 09c0
00000060: 5590 b9bf b329 823e c70d b0bf a0d9 3dbf
00000070: 8686 1ebf b210 f8bf 415a e3bf 0caf 6dbf
00000080: 3a19 ebbf c205 12c0 a9e0 3cc0 b66a fbbe
00000090: 011c 14bf 9d35 aabf d856 86bf 9d0e f5bd
000000a0: 0d67 0cbf 5ddb f4bf 4085 2ac0 4847 3f3f
000000b0: 0c1a 72bf 3a37 d73e 0644 8cbf 3585 13c0
000000c0: 9c2e dabf f3db d13e 7894 88bf 105f 17c0
000000d0: 49de 1cc0 0bda 9fbf fd3c 10bf 92e2 21bf
000000e0: 00c9 50c0 f668 d1bf d0a9 c03f d370 d9bf
000000f0: 7c94 72bf 6aec 80bf f81e 4abd 63fa 4b3f
-1.0028021 -0.25189966 -0.37741014 -1.7387059 -1.821855 -0.5944044 -0.58446723 -2.1505647
-1.0889665 -1.2619345 0.23730034 -1.6749365 -1.2074217 -1.640667 -0.18613127 -0.8837854
-0.38549674 0.35564792 -0.7756753 -2.2639692 -2.2811277 -1.3458887 -1.8551377 -2.1472602
-1.4497172 0.2542244 -1.3754205 -0.74160194 -0.61924016 -1.9380095 -1.7761918 -0.92845225
-1.8367074 -2.2816014 -2.9512122 -0.4910485 -0.5785523 -1.3297611 -1.0495253 -0.11965678
-0.54844743 -1.9129444 -2.664383 0.7471814 -0.94570994 0.42034322 -1.0958259 -2.3050053
-1.7045474 0.4098812 -1.0670309 -2.3651772 -2.4510672 -1.2488416 -0.5634306 -0.63236344
-3.262268 -1.6360157 1.5051823 -1.6987556 -0.9475782 -1.0072148 -0.04934594 0.79678935

bn3_1.running_var f4 [64]
00000000: 16ac 213f cd75 a63f 8f8b c53f 7320 643f
00000010: de18 3b3f 3615 4c3f a2d1 993f 0227 2b3f
00000020: 52d0 083f 7ec5 d03f 235f 703f 7278 0340
00000030: 2ebf 3a3f 9e8c 033f 1e16 e33f 0cd8 4f3f
00000040: f46a 2c3f 394c 983f f43e 4b3f d896 1f3f
00000050: ee63 a73f ce02 d53f bd03 b13f 69bd af3f
00000060: 84a6 573f 03ca 343f 7566 173f d8da bd3f
00000070: 86f0 0e3f ef2c 4f3f d147 533f 46b3 923f
00000080: 7777 a53f c458 5b3f e278 fa3e a4c5 b03f
00000090: 424e 143f d7b3 723f 0edb 3c3f 9c1b 0940
000000a0: fae5 833f 4cac bf3e 2cb5 603f 5f07 013f
000000b0: 1ff8 9f3f 8b8f f93e 83ce c63f 9329 d43f
000000c0: 754e af3f 5c96 f93f 1194 1d3f b20f 893f
000000d0: 8a64 8f3f 5b38 603f 7e2d 123f 6a30 4c3f
000000e0: f9e3 b33f 0c55 813f ddf9 033f 4450 2040
000000f0: 6f67 3e3f 0bc3 f83e ff86 bb3f 4360 373f
0.6315321 1.30047 1.5433215 0.89112014 0.7308482 0.79719865 1.20171 0.66856396
0.5344287 1.631027 0.9389517 2.0542264 0.7294797 0.5138644 1.7741125 0.81189036
0.673507 1.1898261 0.79392934 0.62339544 1.3077371 1.6641481 1.3829266 1.3729678
0.8423846 0.70620745 0.5914071 1.4832411 0.5583576 0.8092794 0.8253146 1.146096
1.2927083 0.8568232 0.4892035 1.3810315 0.5793191 0.94805664 0.7377175 2.1423101
1.0304558 0.3743614 0.87776446 0.5040187 1.2497596 0.48742327 1.5531772 1.6575187
1.3695818 1.9499011 0.61554056 1.0707915 1.1202557 0.8758599 0.57100666 0.79761374
1.4053947 1.0104079 0.51553136 2.504899 0.7437658 0.48586306 1.4650573 0.7163126
