model_folder/best_model_15-04-2025-22-53.pth (torch, 909142 bytes, 87 tensors)

conv1_1.weight f4 [16, 1, 3, 3]
000000 e6 87 2f bd 33 84 e9 bd e7 0c 81 be cc 62 52 3e
       -0.042854212 -0.11402168 -0.25205156 0.205455
000010 11 85 a9 3e 81 ff bd bd fc c1 37 be f3 af 82 3c
       0.33109334 -0.09277249 -0.17945093 0.01595304
000020 24 cb 8e be 47 82 86 be 07 94 6e bd c8 98 6b 3e
       -0.2788936 -0.2627127 -0.05824664 0.230075
000030 8b 16 c5 be 98 7e f6 bc 0a b7 2d be 09 d5 97 be
       -0.3849376 -0.030089661 -0.16964355 -0.2965472
000040 ce 8d be 3b 03 9a 22 3d a6 97 29 bd 07 00 86 3e
       0.0058152443 0.03969766 -0.04140439 0.26171896
000050 57 9c 38 3e fe 67 36 3e 91 96 68 3d 2d 0f 46 bc
       0.18028389 0.17813107 0.056784216 -0.012088579
000060 83 26 2c 3e 73 e5 80 be ba 6d 05 3e 80 10 67 3e
       0.16811566 -0.25175056 0.13030139 0.22564888
000070 71 e8 9d bd 93 f7 a6 3c 37 4a 50 be 2e be 77 be
       -0.0771035 0.020381724 -0.2034081 -0.24193642
000080 80 63 bd 3c b3 94 fa 3d f2 8e c8 bc 92 69 19 3e
       0.023118734 0.122353934 -0.024482224 0.14981678
000090 8a f9 81 be 95 8e 49 be 18 46 57 3e 9e f8 ab be
       -0.25385696 -0.19683297 0.21022832 -0.33588117
0000a0 a7 27 a2 3c c4 42 59 3e ac 1f a9 3e db 42 2a 3e
       0.019794298 0.21216875 0.33031976 0.16627066
0000b0 0f 51 8a be 8f 0b 6d 3d 5d d2 e5 bd b9 42 fe bd
       -0.27014968 0.05787235 -0.11221764 -0.1241507
0000c0 8b ea 82 3e 91 8d 02 be a3 b9 a1 be 12 af 72 be
       0.25569567 -0.12749316 -0.31586942 -0.23699597
0000d0 1d ca 61 3e 50 12 3b 3c 6e ad ad 3e 03 d9 b8 3d
       0.22049756 0.01141794 0.3392138 0.09025767
0000e0 33 4e 93 be 02 fb cc 3c de 10 8b 3e 1e 44 4a 3e
       -0.287706 0.025022034 0.27161306 0.19752547
0000f0 7d 2a e3 3c 2c ae 9b be fb c5 69 be d2 33 69 3e
       0.02773022 -0.3040632 -0.2282943 0.22773674
000100 72 e2 57 be 12 f4 8c 3d a4 e1 64 bd be 39 e4 3d
       -0.21082476 0.0688249 -0.05587925 0.11143826
000110 82 13 fe 3b 55 33 85 be d7 0e f9 bd 38 bc 97 3e
       0.0077537904 -0.26015726 -0.121610336 0.29635787
000120 3a 78 16 3d 54 e9 46 3e af 73 26 be ee 4d 80 3e
       0.03673575 0.19424945 -0.16255067 0.25059456
000130 98 1b 79 bd 31 65 fb bd 9d 33 39 3d a1 d8 fa bd
       -0.06081733 -0.1227516 0.045215238 -0.1224835
000140 03 4c 23 be e4 e0 1b bd db 9c a4 bc b0 56 40 be
       -0.15946965 -0.03805627 -0.020094326 -0.18783069
000150 f4 5f f2 3d 51 64 a4 be 17 eb 53 3e 21 11 a4 3e
       0.11834708 -0.32107785 0.20695148 0.32044318
000160 72 52 89 3d c2 79 71 bd ad 3d 96 be 1a 64 0a 3e
       0.06705178 -0.058954008 -0.2934393 0.13514748
000170 04 e6 88 3e 68 8a 85 3e 97 e9 b2 bd 6d a3 a0 3d
       0.26737988 0.26082158 -0.0873596 0.07843671
000180 73 5d bb 3e 43 b2 8c 3d bc 69 06 be 54 db a2 be
       0.36594734 0.06869938 -0.13126272 -0.3180796
000190 2c 6a 0c 3e d2 eb f1 3d 5e 52 99 3e de 86 2b be
       0.13712376 0.11812557 0.29945654 -0.16750666
0001a0 1c c2 20 3e a5 54 f4 bd 9f 94 d8 bd ef e0 24 3e
       0.15699047 -0.11930207 -0.10575222 0.1610143
0001b0 3b c8 8a be 6d 26 8e 3e 1c f5 48 3e 77 f4 2a be
       -0.2710589 0.27763692 0.19624752 -0.16694818
0001c0 87 84 3b 3e 86 fe 71 bd 41 36 e1 3d 68 6b 64 bd
       0.18312274 -0.059080623 0.10996676 -0.055766493
0001d0 c9 09 a0 be db d0 ca 3c 57 1b 6a 3e c1 95 c2 3c
       -0.31257465 0.024757793 0.22861992 0.023753049
0001e0 f5 ec 02 be 92 be 35 3d 49 ae b3 3d f0 c2 ca 3b
       -0.12785704 0.044371195 0.08773477 0.006187789
0001f0 3b 93 52 be 2e 19 2d be 7d 8d 6b bd 55 30 04 3e
       -0.20563976 -0.16904137 -0.05750798 0.12909062
000200 f8 2c e8 3e 0d 6b 43 3c 56 b4 c8 3d 8c 45 1a 3e
       0.45346808 0.011927378 0.09800021 0.15065593
000210 0f b6 00 be 12 d8 ef bd 04 6d 46 3e 9b 03 7d 3e
       -0.1256945 -0.11711134 0.19377524 0.24708407
000220 76 b1 d8 3d 5f 77 74 be fa 61 3e 3e ee 27 86 be
       0.10580723 -0.23873661 0.18592063 -0.2620234
000230 38 48 23 3e 28 b3 1a 3d ea b9 ed 3d c5 51 af be
       0.15945518 0.037768513 0.11607726 -0.34242073

conv1_1.bias f4 [16]
000000 64 04 d7 bd 1b 12 00 3e 56 94 72 3e c6 97 9b bd
       -0.10498884 0.12506907 0.23689398 -0.07597308
000010 7d 74 97 3e 4e a0 aa bd 3f 4f 57 be d2 25 2a be
       0.2958106 -0.08331357 -0.21026324 -0.1661599
000020 c6 9e 6b 3d b1 41 04 be b5 4f 2d 3e a6 a9 21 be
       0.057524465 -0.12915684 0.16924937 -0.15787372
000030 57 f1 cd bd e0 ed 94 be 5f 9c 86 3e e3 5a 83 bd
       -0.100557975 -0.29087734 0.26291177 -0.0641382

bn1_1.weight f4 [16]
000000 f6 dd 86 3f 02 45 81 3f 2f 3b 76 3f f2 03 93 3f
       1.0536487 1.0099185 0.96184057 1.1485579
000010 de b1 8a 3f 6f 76 87 3f 25 e2 83 3f c1 dc 8b 3f
       1.0835531 1.0583018 1.0303389 1.0926744
000020 40 04 86 3f 24 5b 8b 3f ad d4 6d 3f 78 b5 74 3f
       1.0470047 1.0887189 0.9290264 0.955894
000030 e8 68 6a 3f 60 c4 6f 3f 4f 4b 6f 3f 8d bd 70 3f
       0.91566324 0.9365902 0.93474287 0.9403923

bn1_1.bias f4 [16]
000000 58 c0 a1 3d 8c 8b 40 3d 17 8e 00 bc d5 46 2d 3e
       0.07898015 0.047008082 -0.007846377 0.16921552
000010 4a e2 64 3d 59 75 82 3d d8 bb f9 3d 35 91 f8 3d
       0.05587987 0.063700385 0.121940315 0.12137071
000020 18 9d 0d 3e 4d 48 25 3e 13 64 7a bd ef 2f 26 bd
       0.13829458 0.16140862 -0.061130594 -0.040573057
000030 c2 22 9c bd 60 e2 68 bc fd 6e b6 3a c0 61 80 3a
       -0.07623817 -0.014214128 0.0013918575 0.0009794757

bn1_1.running_mean f4 [16]
000000 75 61 99 be ac ab a2 be d1 95 0e 3f 6f 5d 9d bd
       -0.29957166 -0.317716 0.5569735 -0.07683837
000010 4a 42 74 3e b4 14 85 be 1b 95 16 be 0d 23 0f be
       0.23853412 -0.25992358 -0.14705317 -0.13978215
000020 63 22 0b 3c 8b 6f b8 bd be e8 f9 3e d2 90 a8 bd
       0.008492085 -0.0900565 0.4881038 -0.08230747
000030 d7 2f 15 be d7 2a a9 be ce e9 1c 3f d7 eb 77 bd
       -0.1456903 -0.33040497 0.6129426 -0.06052765

bn1_1.running_var f4 [16]
000000 3a 15 49 3b 1b 51 5e 3c b9 37 d9 3b 8e 9a 26 39
       0.0030682818 0.013569142 0.006628957 0.0001588857
000010 0a 24 24 3a 9e c3 15 3b f7 11 a2 3a d9 8b b4 39
       0.0006261474 0.0022852193 0.0012364973 0.0003443647
000020 45 f5 5f 3a 2b a9 2c 3a 67 e7 d3 3b eb 8e 43 3a
       0.0008543323 0.0006586487 0.0064667943 0.0007459956
000030 1c 4b 01 3a 87 ee 04 3a 60 98 14 3c c5 45 68 3a
       0.00049321516 0.0005070944 0.009069532 0.0008860494

conv1_2.weight f4 [16, 16, 3, 3]
000000 78 aa 87 bd e8 d2 9a b6 b5 1d 04 bd 06 8d 1c 3c
       -0.06624311 -4.6141104e-06 -0.032254893 0.009555107
000010 4e 5e ab bc 6d de d4 3b 33 77 d0 bc 00 2f c6 bc
       -0.020918991 0.006496242 -0.025447464 -0.024192333
000020 37 e7 67 bd 68 bf f2 3b b0 88 b1 3d 8b ea 96 3c
       -0.056616988 0.0074080713 0.08668649 0.018422386
000030 39 d1 71 3d ed 78 a0 3d 01 f5 05 bd 80 be 4b bc
       0.05903742 0.07835565 -0.032704357 -0.012435555
000040 b1 5f 05 bd 8f d9 1a 3d 5a a1 a9 bc a7 83 e1 3c
       -0.03256196 0.037805136 -0.020706821 0.027528597
000050 88 9d 44 3c 2b da 51 bd d8 62 83 bd 58 9a c5 bd
       0.012000449 -0.05123345 -0.06415337 -0.09648579
000060 d9 58 27 bd 0a eb b2 3c 6a f3 d2 ba ef 79 75 3d
       -0.040856216 0.021840591 -0.0016094272 0.059930738
000070 e7 e2 96 bd e6 ea 29 bc 67 ff 2e bd b3 7c ba 3c
       -0.07367497 -0.010370946 -0.04272404 0.02276454
000080 b5 20 ab 3c 44 79 3f bd b6 cb b3 3d f6 36 5d bd
       0.02088962 -0.046746507 0.08779089 -0.054007493
000090 2f e2 39 3b b6 f8 21 bd 08 ef 8a 3d 9c 1d 8b 3c
       0.0028363576 -0.03954383 0.06783873 0.016981892
0000a0 61 b7 4a bd e4 f3 e2 bb 5e 7d cf 3c 8a 52 55 bd
       -0.04949129 -0.0069260467 0.025328334 -0.05208067
0000b0 12 b9 a2 3d 1f 3c c2 bc dd a8 db 3d 1e 1d 74 bd
       0.079454556 -0.023710309 0.107255675 -0.05959808
0000c0 e6 b6 60 bc 1c d1 9d 3d 37 f5 61 bd a1 90 ba 3d
       -0.013715481 0.077059 -0.055165496 0.09109617
0000d0 41 71 7a 3d 32 bf 08 3d fc 5d 86 bd 2b ee 32 bc
       0.061143164 0.033385463 -0.06560895 -0.0109210415
0000e0 df 7f b8 bd 3a 12 36 3d 47 b7 67 bd b6 18 06 bb
       -0.090087645 0.044450976 -0.05657127 -0.0020461506
0000f0 df 6a ec 3c 44 38 b8 bc 6f 13 c1 bd 94 d4 c5 bb
       0.028859554 -0.022487767 -0.09427535 -0.006037304
000100 6d 65 ef bc 12 de d1 3d 4a 4b c3 3b e9 00 0e 3d
       -0.029223168 0.10247435 0.005959903 0.034668837
000110 a2 45 10 bb c2 21 10 bc 2e 3f 7c bc d2 ab 9b bd
       -0.002201416 -0.008797111 -0.015395923 -0.076011315
000120 00 40 8d 3d 3c 7e 7e bd 97 6f 09 3c e0 f7 e5 ba
       0.06896973 -0.062132105 0.0083884215 -0.0017545186
000130 d7 ed 12 3d bb da b3 3c e9 82 31 bc 78 af 5f 3d
       0.035871353 0.021954885 -0.010834434 0.0546107
000140 6b 7b 52 bd a6 ae 3e bb 2d 16 ae 3d f2 cf 43 3d
       -0.05138723 -0.0029095798 0.085003234 0.047805734
000150 41 98 02 3e cc 8c cc bc a5 1a ed 3d 7d 66 10 3e
       0.12753393 -0.024969481 0.11577348 0.14101596
000160 42 b0 19 3e 6f 1a e2 3d ed 94 0a bd 87 38 71 3d
       0.15008643 0.11040198 -0.033833433 0.0588918
000170 ec 6c 97 3d 50 b5 08 bd b1 a5 e4 bc 8d 0a 4c 3d
       0.07393822 -0.033376038 -0.02791104 0.04981475
000180 59 fd 8e 3d 52 d4 50 3d b2 d0 79 3d 9c e5 a3 bd
       0.06981916 0.050983734 0.060990043 -0.08002779
000190 3b fc 03 bd c0 e4 5d 3a ec 70 42 3c bd bf 52 bc
       -0.032222968 0.00084645674 0.011867743 -0.012863097
0001a0 96 c5 b4 bd 36 da a2 bc 31 af 9d bd f6 73 c7 bd
       -0.08826749 -0.019879442 -0.07699431 -0.09738915
0001b0 71 7f b4 3d d4 9c 8e bc d9 15 43 3d ab 7c 99 bc
       0.0881337 -0.017408766 0.047628257 -0.018736204
0001c0 e7 83 a5 bc 14 d6 10 bd 08 a7 57 3d 61 ae 33 bd
       -0.020204498 -0.03536041 0.052649528 -0.043867473
0001d0 15 90 31 3c 2c 44 88 3d e5 4b af 3d e2 c8 86 bd
       0.0108375745 0.06653628 0.085593976 -0.06581284
0001e0 69 b3 0f bd c1 bc 81 bd 2e cb 27 bd c8 a2 f5 bc
       -0.03508321 -0.0633483 -0.04096525 -0.029984847
0001f0 81 47 17 bc c6 76 8b 3c a0 a9 0e 3d f7 27 52 bd
       -0.009233356 0.017024409 0.034829736 -0.051307645
000200 cf 1b 9d ba 34 34 60 3d e0 17 ae bb da ac 91 3c
       -0.0011986437 0.054737285 -0.0053129047 0.017782617
000210 c6 20 3a bd 46 fe 8c bc a7 f1 0f 3c 24 1b 56 bd
       -0.04544141 -0.01721109 0.008785642 -0.052271977
000220 79 61 17 3d 34 e5 5c bc 86 ca 08 bd a2 93 2c bd
       0.03695819 -0.013482381 -0.033396266 -0.04213298
000230 ac f4 6c bd 63 49 41 3d e0 c9 ef bc 83 a5 3c 3d
       -0.057850525 0.047189128 -0.029271066 0.04605628
000240 15 9d cf bd 51 0b 6f bd a9 a4 ac bd 9c 66 88 3b
       -0.10137383 -0.0583604 -0.08429844 0.0041626226
000250 14 ff 71 3c 40 00 10 bd 57 a1 d8 3d 7f 2b f2 bc
       0.014770288 -0.03515649 0.10577648 -0.029561756
000260 99 fd a2 3d 02 66 63 bd 18 c7 19 bc 2c 0c a9 bd
       0.07958526 -0.055517204 -0.009385847 -0.08254275
000270 f0 dc a0 bd 45 d8 9d bd de 5c d9 3c fc 61 6c bd
       -0.078546405 -0.07707266 0.02653354 -0.057710633
000280 ab 24 10 3d cd 2f 3f bd d5 1b 65 bb 52 9c b2 3c
       0.03519122 -0.046676446 -0.0034959216 0.021803055
000290 7e c3 b4 3d fe 43 07 bd 7d 65 fd 3c 1d b0 5a 3c
       0.0882635 -0.033023827 0.030932182 0.013347653
0002a0 95 0f 20 3d 33 c6 0c 3d 32 4c 9f 3c 17 24 62 3d
       0.03907736 0.034368705 0.019445512 0.0552102
0002b0 2b 9d 4c 3c 93 14 ec 3c 40 91 87 3d 46 ac 01 bd
       0.012488644 0.028818404 0.06619501 -0.031658433
0002c0 ea 27 fa 3b 07 85 fd bc 7b 62 09 3d eb fd 92 bc
       0.0076341527 -0.030947221 0.033541184 -0.017943343
0002d0 6e b5 be bd f2 d0 f7 bc 3d 85 52 bd 41 2a 7d bc
       -0.09311949 -0.030251 -0.051396597 -0.015451969
0002e0 e0 74 15 bd 76 16 2d bb 6a fc 05 bd 53 14 33 bd
       -0.036488414 -0.0026411093 -0.032711424 -0.043720555
0002f0 bd 58 36 3c e8 b6 07 bc 78 c6 dd bb 83 d0 68 bc
       0.011129555 -0.008283354 -0.006768044 -0.014209869
000300 b8 ad 36 bd 95 8c 25 3d 4e 19 e9 bc 1c 53 35 bd
       -0.044599265 0.040417273 -0.028454449 -0.044268712
000310 d0 cf d2 bc 38 c1 e3 3c 15 93 47 3d d7 41 36 3c
       -0.025733858 0.027802095 0.048724253 0.011124096
000320 92 4a 36 bc e4 df 2c 3d c3 df a8 bb b0 62 cb bd
       -0.011126177 0.042205706 -0.0051536276 -0.099309325
000330 16 ea 30 3c 17 29 54 bc d5 28 dc bc 25 7f ac bc
       0.010797998 -0.01294925 -0.026874939 -0.021056721
000340 b4 c8 79 bd 20 8e c4 3d f6 70 8a bd 31 25 81 3d
       -0.06098242 0.09597421 -0.06759827 0.06305922
000350 58 44 89 bd 7a ea 75 bb ff 44 f5 bc 69 8a 12 bd
       -0.06702489 -0.0037523792 -0.029940126 -0.03577653
000360 1f 86 1c 3d a2 8d 1b 3d e1 51 68 bd 2d 9d 75 bc
       0.038213845 0.03797687 -0.05671871 -0.014991087
000370 aa d1 79 3d 23 76 80 bb 7f db 9e 3d 8e 79 b3 3d
       0.060990967 -0.003920333 0.07756709 0.08763419
000380 13 31 64 bb 2e 7e 8e bd 8a 6e 10 bd c8 d0 cc bd
       -0.003481929 -0.069576606 -0.03526167 -0.10000759
000390 ad 8b 40 bd d7 93 4e bd a6 c6 53 bd ab 71 d0 3d
       -0.047008205 -0.05043396 -0.051703118 0.101779304
0003a0 0b 90 1a 3d 52 2e 6d 3d 62 32 a2 3c 82 c6 58 bd
       0.037735026 0.057905503 0.019799415 -0.052923687
0003b0 e7 0e 82 3d ac a4 97 bc be e1 fa bc f6 0b 7c 3d
       0.06350499 -0.018511139 -0.03062522 0.061534844
0003c0 a6 e1 2d bd 45 d7 64 3c 63 8d 94 bd 0f 26 0c 3d
       -0.042451523 0.01396734 -0.0725353 0.034215983
0003d0 2a e1 26 3d 4a 87 4a bd f1 1e 0f 3d c9 55 26 3c
       0.040742077 -0.049445428 0.034941617 0.010152289
0003e0 23 9b f5 bc 83 61 97 3d 7b 49 31 3d af 05 31 3d
       -0.029981202 0.07391646 0.043282967 0.04321831
0003f0 b2 34 75 bd de 85 e0 bc 08 5e 9c bb 97 34 e7 bc
       -0.059864707 -0.027407583 -0.0047719516 -0.028223319

conv1_2.bias f4 [16]
000000 7c 03 6f bd 87 b4 80 bd 50 34 04 bd 49 16 64 bd
       -0.058352932 -0.06284433 -0.03227645 -0.055685315
000010 26 60 8d bd b9 14 b6 bc 0b af 3c bc c3 41 23 3d
       -0.069031045 -0.022226678 -0.011516343 0.039857637
000020 39 20 23 3d 02 7b 5a 3b 8d 19 98 bc 3a bf 7a bc
       0.03982565 0.0033337479 -0.018566871 -0.015304381
000030 62 45 8a bd 75 60 75 3d 04 b9 92 3d e2 44 9d bd
       -0.06751515 0.05990644 0.07164195 -0.07679154

bn1_2.weight f4 [16]
000000 c1 aa 8b 3f db 66 89 3f 9c 1e 7b 3f f2 a9 8e 3f
       1.0911485 1.0734514 0.9809358 1.1145613
000010 0b 63 91 3f 9d 90 8f 3f 43 79 81 3f 1e b1 8d 3f
       1.135835 1.1216007 1.0115131 1.1069677
000020 26 58 8a 3f 53 ef 97 3f 25 43 87 3f de fa 88 3f
       1.0808151 1.1869911 1.0567366 1.0701559
000030 da f1 77 3f 07 a1 74 3f 21 98 7c 3f 7a 0a 80 3f
       0.9685341 0.9555821 0.9866963 1.0003197

bn1_2.bias f4 [16]
000000 04 45 b3 3d d9 a9 86 3d 0c 7e b4 bc 49 16 0c 3e
       0.08753398 0.065753646 -0.02203276 0.13680376
000010 a4 98 18 3e 13 81 0d 3e 4e b7 b6 bb 77 51 0d 3e
       0.14901978 0.13818769 -0.005576051 0.13800608
000020 d9 29 f3 3d e2 56 73 3e 10 f2 0d bc 74 2f 9a 3d
       0.11873216 0.23763612 -0.008663669 0.07528582
000030 c9 7c 6a bd a5 88 aa bd 5e e1 90 bc 4b 33 65 3c
       -0.05724791 -0.08326844 -0.017685588 0.01398928

bn1_2.running_mean f4 [16]
000000 5d 15 0e 3e 2d eb 70 be 3e ad 72 bf 57 32 f6 be
       0.13875337 -0.23527212 -0.94795597 -0.4808528
000010 b7 20 e7 3d 37 6c 2a bf d5 f4 36 3e d8 05 ad be
       0.11285537 -0.6657137 0.17866834 -0.3379352
000020 a3 31 09 bf 4f 47 ce be 69 62 01 be 69 80 26 bf
       -0.53591365 -0.4028878 -0.12635197 -0.6503969
000030 a9 b4 c1 bd 4c ab f7 3d 8f 41 66 3d e1 79 8f be
       -0.09458286 0.12093219 0.056214865 -0.28022674

bn1_2.running_var f4 [16]
000000 21 47 6e 3e fa 18 8b 3e 9a fe 9e 3e c4 be 77 3e
       0.23269321 0.27167493 0.3105362 0.24193865
000010 e5 22 8f 3d 82 1b 1f 3e 40 87 84 3d 85 02 24 3e
       0.069890775 0.15537837 0.064711094 0.16016586
000020 98 7b 6b 3e 78 91 2e 3e ce 72 58 3d a4 58 e5 3d
       0.22996366 0.1704768 0.05284386 0.111985475
000030 cf b4 eb 3d 77 f8 81 3e fc 06 77 3e d6 f8 73 3e
       0.11509096 0.25384876 0.24123758 0.23825392

conv2_1.weight f4 [32, 16, 3, 3]
000000 af 44 68 bd b3 11 5b bd a8 86 42 3c 45 7d a1 3a
       -0.056706127 -0.053483676 0.011872925 0.0012320658
000010 73 4c 57 bd 81 3b 34 3d fd bd 78 3c ef 86 06 bd
       -0.052563142 0.04400206 0.0151820155 -0.032843526
000020 0d a9 b2 bd 9c 97 e4 3c b4 39 9d 3d fe e0 50 bd
       -0.0872365 0.027904324 0.076770216 -0.05099582
000030 75 29 b7 bd 6b 2d 4e 3d 76 6c 1b bb 0d 6c 83 bd
       -0.08943454 0.050336283 -0.002371577 -0.064170934
000040 dd b9 af 3d f9 55 bf bd 32 40 25 bd 83 b9 61 3d
       0.085803725 -0.0934257 -0.040344425 0.05510856
000050 3f c1 5d bd 4b 3f 69 bd 4c 32 52 bd 88 5f 28 bd
       -0.054139372 -0.056945127 -0.051317498 -0.04110673
000060 51 a7 17 3d b3 69 01 3d fe 85 b7 bd 7f a8 7c bd
       0.0370248 0.031594943 -0.08961104 -0.061684128
000070 a2 41 c7 3b 53 07 31 bd 37 53 68 bd b9 ce ab bd
       0.006080822 -0.043219876 -0.056719985 -0.083890386
000080 e2 e2 ed 3c ce 33 5c 3d d4 26 67 3d 14 dc 2e 3b
       0.02903885 0.053760342 0.056433514 0.002668147
000090 b2 97 76 bd a8 94 4d bc 3a 16 c5 3b c2 6b f1 bc
       -0.06020326 -0.012547649 0.0060146125 -0.029470328
0000a0 05 59 55 3d 00 55 d1 3b bd ec 50 3d 5e 3d b4 3d
       0.05208685 0.0063883066 0.05100702 0.08800767
0000b0 5a 7e b3 3d 52 d3 b3 bd 82 bf f4 3c c8 11 71 bd
       0.08764334 -0.087805405 0.029876474 -0.05885485
0000c0 3c 22 73 bd df f1 43 bd 5b 81 5a 3d 92 6b bb bd
       -0.05935882 -0.047838088 0.05334602 -0.09151377
0000d0 51 56 88 3c d3 5c c2 bd 0f 17 3d 3d 2f 8d f6 3c
       0.016642721 -0.09490361 0.04616457 0.030096618
0000e0 9e c5 d3 bc 93 5a f0 bb b6 38 3f 3d 6f 1b 8b 3c
       -0.025851067 -0.007335016 0.046684943 0.016980855
0000f0 00 ae f3 bd a9 dd af bd 68 51 38 3c 17 dd 99 bc
       -0.11898422 -0.085872 0.0112498775 -0.018782182
000100 a8 9e cc bb b8 61 42 bc 49 84 23 bd 97 0f ed bc
       -0.0062444992 -0.011864118 -0.03992108 -0.028938098
000110 ad 07 11 bb 44 21 64 3d 43 45 e2 bc f5 1a d1 bc
       -0.002212982 0.055695787 -0.027620917 -0.02552555
000120 16 2d 34 bb 21 71 d8 bc 86 45 58 3d 30 6e 3d 3d
       -0.0027492694 -0.026421132 0.052800678 0.04624766
000130 8c 38 f3 3b b3 24 98 bd 20 40 cc 3c c2 84 a5 3d
       0.0074225124 -0.07428875 0.024932921 0.08081962
000140 fd b3 15 bb 3d cd 3c 3d 16 07 91 bd 03 cd e7 bd
       -0.0022842877 0.046094168 -0.0708143 -0.113184
000150 96 6d bb bb 4f 42 06 bc 6c 9b 33 3d 11 00 93 3d
       -0.005719851 -0.00819452 0.043849394 0.07177747
000160 b9 88 f6 3c a2 fa 1e 3c 1c 5a f1 bc 81 a4 8d bd
       0.030094491 0.00970331 -0.029461913 -0.06916142
000170 2c ee 18 bd 8f 1d b9 3b 97 b1 10 3c 78 3d 3a 3d
       -0.037336513 0.0056492756 0.008831403 0.045468777
000180 a5 4f c4 3b 72 6a 13 be 0b 76 f8 3c 24 0f bb 3d
       0.0059909397 -0.14396074 0.030329725 0.09133747
000190 81 9f 19 bd 3f 3c cf bc 22 84 a2 3d 00 7a 22 bd
       -0.03750563 -0.025297282 0.079353586 -0.03966713
0001a0 40 b3 76 3c 64 9f ba 3d 69 01 cf 3d bd d1 30 3d
       0.015057385 0.091124326 0.10107691 0.043168772
0001b0 ad ee 89 3d 5d 1d 9e 3d bd 9a a8 bd c9 43 86 3c
       0.06734977 0.07720444 -0.08232639 0.016389744
0001c0 78 fd 11 bd de a3 b4 bd cb 5f 20 bd cd a0 57 bd
       -0.035642117 -0.08820318 -0.039153855 -0.052643586
0001d0 4c 9e e8 bd 68 65 57 bd b9 e0 09 bd 7f 04 a8 3c
       -0.11358318 -0.052586943 -0.033661578 0.020509956
0001e0 1a 4f b0 3c 9c 79 02 3d a8 3b e6 3b 70 75 84 3d
       0.021522094 0.031854257 0.0070261545 0.06467712
0001f0 fa 1a 94 bd 96 51 67 bd 21 cd 75 3d 29 0b 51 bd
       -0.07231708 -0.05647429 0.06001008 -0.051036034
000200 71 61 af 3d b7 b0 09 bc 01 fe 32 bd f6 a6 6e 3d
       0.08563507 -0.0084039485 -0.04369927 0.058264695
000210 c6 81 fb ba 05 1b 02 3d 39 83 0b 3d b4 f5 52 bd
       -0.0019188456 0.03176405 0.03406069 -0.051503852
000220 1a 0b 74 3d 82 98 d0 bb 2d 42 a8 bc af 78 f3 3c
       0.0595809 -0.0063658366 -0.020539368 0.029720632
000230 7d 37 9f bd 96 f1 d7 bc c0 e1 ec 3d 5a ca 84 bd
       -0.077742554 -0.026360314 0.11566496 -0.06483908
000240 f1 90 84 bc 36 2a 98 3c c2 2e 83 bd ca f5 4f bd
       -0.016182395 0.018574815 -0.06405403 -0.050771512
000250 be 49 d3 bc 19 31 88 3d 64 36 39 bd 68 84 5a 3d
       -0.025791999 0.0664999 -0.045217887 0.05334893
000260 bf 77 8f bd a4 2c 0f 3d 46 4e 78 3d 95 63 0d 3d
       -0.07005262 0.034954682 0.060621522 0.034518797
000270 5f a0 eb bc 5a a0 1d bd ae cb a9 3d d0 ec d0 bc
       -0.028762994 -0.038483 0.08290802 -0.025503546
000280 8b 45 78 bd 2b 5a c3 3d 97 ef 65 3c 70 39 fb 3a
       -0.060613196 0.095386826 0.014034173 0.0019166898
000290 cf 79 ae 3d 94 aa 22 3d ea 50 57 3d d5 e1 34 3d
       0.08519327 0.039713457 0.0525674 0.044160683
0002a0 f8 7c ff bc 21 a4 bf 3b e8 55 83 3d da a6 b4 bc
       -0.03118752 0.005848423 0.0641287 -0.022052217
0002b0 01 16 0e 3c 6a 7e 66 3d 43 98 63 3d 95 f6 31 bc
       0.008672238 0.0562729 0.05556513 -0.010862012
0002c0 a5 6f 11 3d 45 5c 4e bd 2e ab 90 3d 6e d3 a9 3d
       0.035506863 -0.050380964 0.070639 0.0829228
0002d0 ef 43 81 bd ee 68 83 bd 89 ab 98 bc 80 c3 78 3d
       -0.063117854 -0.06416498 -0.018636482 0.06073332
0002e0 5b 67 2a bd 44 03 3d 3d 72 a6 d2 bd 0f 69 c1 3c
       -0.041602474 0.046145692 -0.10285653 0.023609666
0002f0 38 5e ae 3d 1f df 82 bb 6a 10 f6 bc 19 c1 14 bd
       0.085140646 -0.0039938833 -0.030037124 -0.036316965
000300 3d 83 65 3d 6b 4c 9f 3c 79 c9 48 bd 6e 22 ae bd
       0.05603336 0.019445619 -0.049020264 -0.08502661
000310 cc 40 0e 3d ce 7a 7a bd c0 e9 95 3d 80 15 61 ba
       0.034729764 -0.061152272 0.07319975 -0.00085862726
000320 79 0e 9c 3b 7c f5 47 bd a5 16 fe bc b1 67 a4 3a
       0.0047624675 -0.048818097 -0.031016657 0.001254311
000330 17 dc b7 bd db b8 fb bc 38 fb fd 3c f2 7a 42 3d
       -0.08977526 -0.030727794 0.03100358 0.04748053
000340 9f c0 7b 3d 95 47 49 bc 10 a6 14 bc d7 4d b1 bd
       0.061462995 -0.012285133 -0.0090727955 -0.08657425
000350 f1 af e2 3c 05 52 29 bb e7 2e 38 3d b6 c9 46 bd
       0.027671786 -0.002583624 0.044966605 -0.04853221
000360 af 76 95 3d 13 5b b3 3c a9 48 81 3d f1 cb ce bb
       0.07298028 0.021894014 0.06312687 -0.006310933
000370 d3 82 9b bd ac aa 8d bd f6 2c b6 bd aa ac be bb
       -0.07593312 -0.06917319 -0.08895294 -0.005818923
000380 4d 28 98 bd 07 6d 2e bd 9a 50 67 3d 6c 6f b3 3d
       -0.07429562 -0.042584445 0.056473352 0.087614864
000390 c7 5b df bc aa a0 a3 3d 6f 1f cc 3c 74 9f ba bc
       -0.027265443 0.079896286 0.024917332 -0.022781111
0003a0 49 81 d2 3a 8b 7d a4 bc a2 c0 77 3c 45 31 e8 3b
       0.0016060258 -0.020079395 0.015121611 0.0070859515
0003b0 dc 5f 7d bd d7 16 e3 3c d6 fa 15 bd ae 6f 9e bd
       -0.061858997 0.027720852 -0.03661617 -0.07736145
0003c0 68 3d 1a bc 5c 17 c5 bc 9d 7e c1 bd 75 db e0 bd
       -0.009414054 -0.02405899 -0.09447978 -0.10979358
0003d0 dc 01 fb bc d6 df 8a bd 29 0b 3b 3c cc 3c 6b bc
       -0.030640535 -0.067809746 0.011416235 -0.014357757
0003e0 2e bd 10 3d fe 35 d3 3c 23 5b 48 3d 67 a9 91 3c
       0.035336666 0.025782581 0.04891504 0.017780973
0003f0 e1 95 6d bd 1d ac 80 bc 8c e4 9c bd 3a f9 2c bd
       -0.058004264 -0.01570707 -0.07660779 -0.04222987

conv2_1.bias f4 [32]
000000 5c ca 3d bd 2f cd 7d bd f4 68 a9 bc 6e 2d 97 bd
       -0.046335563 -0.061963256 -0.020679928 -0.07381712
000010 27 76 19 3d 45 4b 13 bd f7 f0 2c bd d0 3d 8a 3b
       0.037466194 -0.035960454 -0.04222199 0.0042187944
000020 14 4c d2 bc 58 60 7d 3d cc ad 99 3d ed 87 99 bd
       -0.025671043 0.06185946 0.07503852 -0.07496629
000030 41 80 18 3d dd f1 3f 3b 73 f1 2c 3d ec 4b f8 bc
       0.037231687 0.002928845 0.04222245 -0.03030964
000040 44 21 00 bc f0 a0 6e 39 41 45 ee 3c 33 79 28 3d
       -0.007820431 0.00022757403 0.029085757 0.04113121
000050 dc 53 05 3d c9 05 2e 3c 42 ac 88 bd 8f a0 45 bd
       0.032550678 0.0106214965 -0.066734806 -0.048248824
000060 db c9 45 bd 07 a2 a8 bd b3 d9 a4 3d b3 14 19 bd
       -0.048288208 -0.08234029 0.08049335 -0.037373256
000070 68 13 71 bd 04 f7 1b bd 11 99 3d 3d f5 39 55 bd
       -0.058856398 -0.03807737 0.046288554 -0.052057225

bn2_1.weight f4 [32]
000000 95 b3 72 3f a0 a6 8d 3f c2 0d 7e 3f df dd 8d 3f
       0.9480527 1.1066475 0.9923974 1.1083335
000010 1b bf 7c 3f 07 62 8d 3f 86 3e 8d 3f dc ac 8b 3f
       0.98729104 1.104554 1.1034706 1.0912127
000020 ec 7b 8b 3f 63 7b 91 3f 1a 8b 65 3f 4a bc 83 3f
       1.0897193 1.136578 0.8966538 1.0291836
000030 41 49 82 3f ae 40 6f 3f a6 f0 7a 3f 89 a7 6f 3f
       1.0178605 0.9345807 0.9802345 0.93615013
000040 0d cc 8d 3f 5f 2b 8d 3f fe a7 85 3f 65 da 6b 3f
       1.1077896 1.1028861 1.0441892 0.9213012
000050 50 59 76 3f ca 6e 8e 3f 20 33 79 3f a0 bf 6f 3f
       0.9623003 1.112756 0.97343636 0.9365177
000060 23 9c 7a 3f ef f6 7e 3f fa a9 81 3f 41 b0 8c 3f
       0.97894496 0.9959554 1.0129998 1.0991288
000070 26 dc 75 3f c8 8d 6a 3f 92 48 70 3f 10 bf 83 3f
       0.96039045 0.9162259 0.93860734 1.0292683

bn2_1.bias f4 [32]
000000 87 10 60 bd 21 c0 df 3d fb 85 8e bd 43 45 fe 3d
       -0.05470326 0.109253176 -0.069591485 0.124155544
000010 c5 55 3b bd ac ee c5 3d 98 aa f3 3d e3 84 9f 3d
       -0.045736093 0.09664664 0.118977726 0.07789018
000020 d1 e8 f2 3d 00 85 02 3e d4 92 f6 bc 0f dd 09 3d
       0.118608125 0.12746048 -0.03009931 0.033658084
000030 19 a1 24 3d 9f 49 d3 bd db bf e3 bd e7 6d 84 bd
       0.040192697 -0.103167765 -0.11120578 -0.06466275
000040 49 c5 d0 3d 46 8c d2 3d 85 ac e5 3d eb 5d a8 bd
       0.10193879 0.10280661 0.11214546 -0.082210384
000050 1d 97 28 bd 28 15 dd 3d 10 c7 19 bd fb f6 76 bd
       -0.041159738 0.10795051 -0.037543356 -0.060294133
000060 84 e0 31 bd 41 d9 00 3c 86 a9 18 bc 49 81 f5 3d
       -0.043427005 0.007864297 -0.009317761 0.1198755
000070 de 89 61 bd 67 e5 b5 bd 3b 9b b5 bd 09 f5 4f 3d
       -0.05506312 -0.08881646 -0.088674985 0.050770793

bn2_1.running_mean f4 [32]
000000 1d b5 36 bf da 49 c4 bd b3 46 f4 be a8 11 f2 be
       -0.71370107 -0.095843986 -0.4771019 -0.47279096
000010 7a 57 00 be 73 c1 76 bd 6d 5b 85 bf 3b 85 39 bb
       -0.1253337 -0.06024308 -1.0418526 -0.0028308171
000020 9e 37 ab bd 62 d1 70 be a7 9c 46 bf 70 1e 80 be
       -0.083602175 -0.23517373 -0.7758278 -0.25023222
000030 57 20 85 bf 21 7a b1 be 8a 10 21 bf 51 d0 40 bf
       -1.0400494 -0.3466349 -0.6291586 -0.75317866
000040 f9 e8 55 bf 73 a0 16 bf ec 2c 01 3e 00 15 17 3f
       -0.83558613 -0.58838576 0.12614793 0.5901642
000050 39 44 91 3e 1a 86 80 bf 76 4b 2e bf 73 20 81 be
       0.28372362 -1.0040925 -0.68083894 -0.2522007
000060 b5 62 7c be d0 70 f6 be 4f 23 ce 3d 16 51 cb be
       -0.24647029 -0.48132944 0.10065328 -0.397103
000070 18 b4 f8 be 4b 10 ee 3d da 12 c3 bd 78 b9 78 bf
       -0.485749 0.116242014 -0.0952508 -0.97158

bn2_1.running_var f4 [32]
000000 66 fa f6 3e 1d 9f 9a 3e 90 32 bf 3e 79 b5 78 3e
       0.48237914 0.3019952 0.37343264 0.24287976
000010 8e ef 5d 3e 3c c2 79 3f 60 b5 cc 3e 2e 69 0e 3f
       0.21673414 0.97562003 0.39982128 0.5562924
000020 93 a1 8c 3e 76 e8 93 3e 91 d4 05 3f 30 2b 8f 3e
       0.2746702 0.2888829 0.52277476 0.27962637
000030 82 8e d2 3e a3 1e 11 3f b2 6b 87 3e 2d b6 46 3e
       0.4112435 0.5668737 0.26449353 0.19405432
000040 f2 8e 95 3e cc 7b e5 3e 8b 7f 2a 3f e1 5a cb 3e
       0.2921062 0.44821012 0.66600865 0.39717773
000050 45 f6 0d 3e 7a 99 1c 3f 51 02 03 3f 3f 91 7b 3f
       0.13863476 0.61171687 0.5117541 0.982685
000060 9f 33 fb 3e 9e 9c 75 3f 3a f0 31 3e 79 ab 1d 3f
       0.4906282 0.95942104 0.17376795 0.6158977
000070 52 8b 73 3e 26 ab 90 3e 08 86 84 3e 49 ef d2 3e
       0.23783615 0.28255576 0.25883508 0.41198185

conv2_2.weight f4 [32, 32, 3, 3]
000000 fc ad 3f bd 77 83 d8 bc a6 f1 0c 3d 5b 02 15 bc
       -0.046796784 -0.026429875 0.03441014 -0.0090948
000010 45 00 9c bd 0b 84 98 bd 2d 9b 09 bc 3d 06 7b 3d
       -0.07617239 -0.0744706 -0.008398813 0.061285246
000020 37 2d e9 3c 15 6c c9 3a 51 77 15 bd e7 8e 6b bd
       0.028463943 0.0015367294 -0.036490742 -0.05750933
000030 6d 51 50 3c f8 6e cd bc d7 4b da bc cf 56 d6 bc
       0.012714726 -0.025077328 -0.026647491 -0.02616444
000040 79 a1 9b bb d5 d8 78 bc 8f 73 4b 3d 16 58 78 3d
       -0.0047494737 -0.015188416 0.049670752 0.06063088
000050 5c eb dc 3c 87 d4 e0 3b 2c a6 54 bd 6f aa 04 bd
       0.026967697 0.0068612727 -0.051916286 -0.0323891
000060 88 c7 78 3d 92 b6 2a bc 5f 6d db bc c1 2c 39 3c
       0.060737163 -0.010419505 -0.02678555 0.011302174
000070 d0 61 fb bc c8 70 34 bd 32 de 66 3c bd 01 d5 bc
       -0.03068629 -0.04405287 0.014091061 -0.026001805
000080 05 3f aa bd b6 2f 29 bd bf e4 22 3d f7 a9 82 bb
       -0.08312801 -0.041305266 0.03976893 -0.0039875465
000090 64 b5 fa bd 44 0f 5f 3c 7c fa 42 bd e8 85 eb bc
       -0.12241629 0.013614479 -0.04760216 -0.028750375
0000a0 a1 9e 3a bb 16 b6 d1 3c 04 fc 05 bc a2 02 7e bd
       -0.0028475898 0.02559952 -0.008177761 -0.06201423
0000b0 52 6b 50 bd c5 c2 12 bc ad a2 14 3c a0 b1 e5 3c
       -0.0508836 -0.0089575695 0.009071988 0.0280388
0000c0 26 bf 66 bc 2b 2d 7f 3c cc d5 59 bd ef cf ee bc
       -0.014083659 0.015574734 -0.05318241 -0.029151885
0000d0 08 4f c7 3c 59 c0 5e 3a cd 1b 25 3d 8d 00 0c bd
       0.024329677 0.000849729 0.040309716 -0.034180213
0000e0 ad 02 61 bd bc a9 32 3c 6d f9 27 3c 69 d0 76 bd
       -0.054934192 0.010904726 0.010252339 -0.06025735
0000f0 4d e2 3b bb a0 7b 2f 3b 4f 98 52 ba 47 d0 3d 3d
       -0.0028668821 0.0026776567 -0.000803356 0.046341207
000100 8a 19 09 bd b9 d0 be bd e2 64 6c bc 2a 9f 81 3d
       -0.03347162 -0.093171544 -0.014428349 0.06329186
000110 e4 cd 6f bd a1 1f 29 3d f1 f2 6f bc de b8 50 bc
       -0.058545962 0.04128993 -0.014645324 -0.012739388
000120 b6 1b 8a 3d 6c 13 30 bd 9e 05 3d bd f5 b7 32 3b
       0.06743567 -0.042987272 -0.046147935 0.0027270291
000130 aa 68 62 bd 49 bd 17 3d 9c 34 30 3d 8d ff 61 3d
       -0.055275597 0.03704575 0.043018922 0.055175353
000140 4c 2f 08 bb e0 76 d5 bb 1f 3f 12 bd ea 3c 82 bd
       -0.0020780144 -0.006514415 -0.03570473 -0.06359275
000150 42 5e 8a 3d 3e 94 3f 3b d7 fc b1 b9 59 fa 40 3c
       0.067562595 0.0029232646 -0.0003394845 0.0117784375
000160 ef 20 28 bc 26 20 99 3d 99 3e bf 3c ed 1f 4a bd
       -0.010261758 0.07476835 0.023345279 -0.049346853
000170 40 66 67 3d 2c 35 7e 3d c0 32 8a 3c 72 d5 0e 3d
       0.056493998 0.062062427 0.016869903 0.034871526
000180 eb 8a cb 3c 3a 30 d6 3c 8f 2c 02 bd f7 8c 0e 3c
       0.024846515 0.026146043 -0.031780776 0.008700601
000190 ff fd 4d 3c 88 34 a4 bc fa 90 50 3d a4 5f 23 bc
       0.012572764 -0.02004458 0.05091951 -0.009971533
0001a0 ec b6 0d 3d 4e 11 2f bd 7f 9a ab bd 2d 8f 0a bd
       0.034598276 -0.042741112 -0.08379077 -0.03382795
0001b0 f8 35 5d bd 2a fd 82 3c d9 c9 a4 bd 6b 18 8e bd
       -0.054006547 0.015989859 -0.08046312 -0.06938251
0001c0 1d 3c 0a 3d aa f9 5e bd ee da a8 bd d3 06 d6 bc
       0.033748735 -0.054437317 -0.082448825 -0.0261263
0001d0 c5 0f 08 3d 9f ab 64 3c 5e 31 05 3c 7e 69 a0 bc
       0.033218164 0.013956933 0.008129446 -0.019581553
0001e0 74 32 7c bb 7a ab ee 3c c9 8a b7 bc 33 32 ee bc
       -0.003848222 0.0291345 -0.022405045 -0.029076671
0001f0 f5 68 16 bd b6 19 9e bd dd b7 ec ba 1c 75 f8 bc
       -0.03672119 -0.07719748 -0.0018060167 -0.03032928
000200 69 f4 89 3d df d0 38 3d 83 bb 8c bd e5 38 2e 3c
       0.06736071 0.04512107 -0.068717025 0.010633682
000210 9c 46 a5 3d 72 fd 6a 3d 3f b7 f2 3c 87 0a 3c 3c
       0.08070108 0.05737061 0.029628394 0.011477119
000220 a5 b8 02 bd df 63 3c bd 62 c2 f6 3c 9e bf 34 bc
       -0.031914372 -0.045993682 0.030121986 -0.011032013
000230 ca 4b 14 bd 70 39 46 3d 9f 7c 01 3d 71 0b 92 3b
       -0.03620509 0.04839462 0.03161299 0.0044569303
000240 06 4f 29 3c dc d7 28 3d 3e d3 0d 3d d3 9b a7 3c
       0.010333782 0.041221485 0.034625284 0.020460045
000250 d2 76 fd 3c 3b 52 c5 bc fb e1 bf bc c0 b5 19 3d
       0.030940447 -0.024087062 -0.023423186 0.037526846
000260 d3 49 47 3c b7 01 b5 3c 6b 97 21 bd 5f 0a 6d bd
       0.012163597 0.022095544 -0.039451044 -0.05787122
000270 4a c7 1d 3c 40 e3 89 3d d7 e3 19 3d d5 5c 39 bd
       0.009630034 0.067327976 0.0375708 -0.045254547
000280 d1 25 0d 3b 20 93 80 bb 49 0a e4 bc 76 19 97 3c
       0.0021537433 -0.0039237887 -0.027836936 0.018444758
000290 28 5d 95 bc 04 79 f0 bc 4b d0 81 bd e9 b2 06 bd
       -0.018232897 -0.02935458 -0.06338557 -0.032885466
0002a0 3b ee 72 bd 7e 3c ea 3c ad 37 8e bd b6 56 d9 bc
       -0.059309226 0.028593298 -0.06944213 -0.026530605
0002b0 88 7f 7a bd e9 32 59 3d bd 2b 89 bb 1b b1 d9 3c
       -0.06115678 0.053027067 -0.004186122 0.026573708
0002c0 06 ae 9a bc be 38 fe 3c c7 4a 17 bd b8 4b 57 bd
       -0.018881809 0.031032916 -0.036936548 -0.052562445
0002d0 2d 37 ce 3d c7 d3 92 bd bd e9 98 bd 0b 4d 8c 3d
       0.10069118 -0.071692996 -0.07466457 0.06850632
0002e0 c3 7c 0f bd 19 d3 e3 bc 7f 2e c6 3d c4 99 97 bd
       -0.03503109 -0.02781062 0.09676837 -0.07402375
0002f0 bf 0f 79 bd 82 37 0d 3d df da 44 3a cc 2d b3 3a
       -0.060806032 0.034476765 0.0007509421 0.0013670265
000300 95 e0 30 bc aa bc b8 ba 64 81 32 3d 1e b2 0c bb
       -0.010795732 -0.0014094312 0.043580428 -0.002146847
000310 24 34 f5 3c 85 43 1b 3d 04 93 52 3d c9 49 24 bc
       0.02993209 0.03790619 0.051409736 -0.010027357
000320 23 24 54 bc fb 5d 8d bc d9 45 d0 3b 18 09 b1 bc
       -0.012948069 -0.017256727 0.0063559827 -0.021610782
000330 5b f5 c4 bd 2c a7 2b 3d 5f 95 56 bd 7b d7 0f bd
       -0.0961711 0.041907474 -0.052388545 -0.035117608
000340 c4 d7 13 bd 17 4b a7 bd fa e5 38 bd 21 b4 07 bd
       -0.036094442 -0.08168619 -0.045141198 -0.03313077
000350 db 38 91 3b 0f 23 05 bd 81 d2 ee bc d2 5e eb bc
       0.0044318265 -0.032504138 -0.02915311 -0.028731737
000360 99 43 7f bd 2b 35 10 bd 48 c2 49 3b 3c b0 ed bc
       -0.062320326 -0.035206955 0.0030785967 -0.0290147
000370 c7 96 69 3c f5 02 27 bc cc 33 19 bd d2 74 1f 3d
       0.0142571395 -0.010193576 -0.037402913 0.038929768
000380 9c 1a da 3d af ac f6 3c 89 40 ce 3a e5 c1 ce bb
       0.106496066 0.030111639 0.0015735786 -0.006309735
000390 7e 72 23 bd f4 88 da bc e5 fd 24 bd d9 9e 06 bd
       -0.03990411 -0.026676632 -0.040281195 -0.032866333
0003a0 d9 2f dc bc fb 79 68 bd a8 8b 92 3c 92 5a 81 39
       -0.026878284 -0.056756955 0.017888859 0.00024672278
0003b0 a9 df a0 bb e2 8f 43 bc 34 6b 7e 3b 74 61 24 3d
       -0.004909475 -0.01193616 0.0038821222 0.040132
0003c0 2d 2a a4 bd 0d e8 19 3d ef 6d 63 3d 8e 1c bd bb
       -0.08015857 0.037574816 0.055524763 -0.0057712262
0003d0 2f 27 26 3d f7 b7 88 bc 16 2e 98 bc fd 08 43 3d
       0.040564712 -0.016689284 -0.018576663 0.047615994
0003e0 20 19 86 ba 39 ac 40 3d c5 d1 0b bc 2a b4 4f bd
       -0.0010230877 0.047039244 -0.0085339 -0.050708927
0003f0 fc ec e6 3c 99 cb 93 3c 70 4b 30 3d b6 e7 1a bd
       0.028189175 0.018041419 0.043040693 -0.037818633

conv2_2.bias f4 [32]
000000 21 7d d4 3c a7 e5 71 3d ef 47 42 bc ac 3e 8a bc
       0.025938572 0.059056904 -0.011857971 -0.016875587
000010 c0 f5 1c bd e5 c7 e1 3b 6d ae 40 3d 26 25 ca bb
       -0.038320303 0.0068902844 0.047041345 -0.006168979
000020 2c 72 a9 bc 50 10 17 3d bc 71 8d 3a 94 2a 12 3c
       -0.020684324 0.03688079 0.0010791342 0.008921284
000030 55 4c 5f 3d 9e bc 65 3d ec 9f 6b 3d de 9c 5a bd
       0.054516155 0.056088082 0.05752556 -0.053372256
000040 2c 64 11 3c 18 43 48 3d 6f 53 56 3d ac e7 4f bd
       0.0088739805 0.04889211 0.052325662 -0.05075805
000050 a7 04 36 3d eb 08 e3 bc 4a f7 ee bc a3 c6 02 bd
       0.04443803 -0.027714213 -0.029170651 -0.031927716
000060 6f 8a 00 bd 8e 95 23 bc 53 27 ae 3a 3d 34 d5 bc
       -0.03138202 -0.009984387 0.0013286866 -0.026025886
000070 ba 81 1a 3d 9b 8c 0b bd 18 4c 57 3d 55 13 5a bd
       0.037721373 -0.03406964 0.052562803 -0.053241093

bn2_2.weight f4 [32]
000000 b2 7b 7b 3f 01 a2 91 3f 25 f1 82 3f e7 bb 95 3f
       0.9823562 1.1377565 1.0229841 1.1697968
000010 ba 43 86 3f a9 87 8f 3f 21 fd 91 3f 50 41 97 3f
       1.0489419 1.1213275 1.1405374 1.1816807
000020 bf 0c 93 3f e8 93 93 3f 67 c3 80 3f 83 6c 96 3f
       1.1488265 1.1529512 1.0059632 1.1751865
000030 99 5a 8b 3f 8e 51 7c 3f 60 3e 8a 3f 0c ea 7f 3f
       1.0887023 0.9856194 1.0800285 0.999665
000040 ed 11 9b 3f ab 55 93 3f 02 2c 95 3f 79 35 7d 3f
       1.2114846 1.1510519 1.1654055 0.9890972
000050 24 17 7e 3f 5f d7 91 3f 25 20 80 3f 09 82 80 3f
       0.9925406 1.1393851 1.000981 1.0039684
000060 45 3b 7a 3f 46 4f 8c 3f d8 a1 85 3f b9 14 92 3f
       0.9774669 1.0961692 1.0440016 1.1412574
000070 71 10 79 3f b0 e8 7d 3f 4a 44 80 3f a2 48 8f 3f
       0.9729071 0.9918318 1.002084 1.1194041

bn2_2.bias f4 [32]
000000 3c c3 91 bd f1 30 03 3e 68 9d 05 bd aa 99 22 3e
       -0.07117316 0.12811638 -0.032620817 0.1587893
000010 1e bd f2 3c 00 1f fb 3d 04 b5 18 3e 73 de 26 3e
       0.029631194 0.12261772 0.14912802 0.16295795
000020 34 e0 1a 3e 9c b8 1e 3e 5c dd a4 bd af d5 0b 3e
       0.15124589 0.1550011 -0.080500335 0.13655733
000030 2e 67 95 3d cd e5 dc bd 73 a7 a6 bd c6 9f 5e bc
       0.072950706 -0.107860185 -0.08137407 -0.013587898
000040 fe ea 33 3e 4d 0c 0b 3e bc 20 1a 3e d1 49 20 bd
       0.17570111 0.13578911 0.1505155 -0.039132897
000050 d6 ce 24 bd c7 91 0e 3e 5e 6c 71 bd 85 53 9b bd
       -0.040236317 0.13922797 -0.058941238 -0.075842895
000060 3a fc 14 bd 2b 41 83 bd 4c d3 35 bd 7e 9f 1a 3e
       -0.036373354 -0.06408914 -0.04439096 0.15099904
000070 72 c9 80 bd d1 80 b1 bd 1b 73 03 be b5 6f e2 3d
       -0.06288423 -0.08667148 -0.12836878 0.11056463

bn2_2.running_mean f4 [32]
000000 25 16 22 bf 68 6d 7c 3e f1 ed a5 3e 97 0e 2c bf
       -0.6331504 0.2465111 0.32408097 -0.6720976
000010 49 b0 5d bf 65 a0 d1 be 7a cc 29 bf e9 43 84 bf
       -0.86597115 -0.40942684 -0.6632763 -1.0333225
000020 50 ab 0f bf 3f 67 8b be 79 3f ce bd f5 1c a9 be
       -0.5612078 -0.27227208 -0.100707 -0.33029905
000030 f9 28 dd be 4f 57 c3 bb 40 f9 88 be cc 1d a4 bf
       -0.43195322 -0.0059613357 -0.26752663 -1.2821593
000040 4e c7 bf bd 39 d7 65 be cf 68 e8 be 2b dd b9 be
       -0.09364186 -0.22445382 -0.45392463 -0.3630155
000050 43 9f b5 3e 7a 7b 2e bf 1d 9a 9c be bf 7f 36 bf
       0.3547307 -0.6815716 -0.3058633 -0.71288675
000060 f8 eb 4c 3e 59 c4 07 bf c4 87 bf be 07 2a 9e bf
       0.2001189 -0.5303398 -0.37408268 -1.2356576
000070 55 c5 f7 be 04 1c 27 bf 1e b0 0e 3e fd 7b 06 bf
       -0.4839274 -0.65277123 0.13934371 -0.5253294

bn2_2.running_var f4 [32]
000000 7a 46 02 3e 2e 20 cc 3e 09 53 34 3e d6 61 5a 3e
       0.12722197 0.398683 0.176098 0.21326384
000010 fe 62 3e 3e 6a 83 6d 3f e3 f9 54 3e a3 0f 22 3f
       0.1859245 0.92778647 0.20798449 0.6330511
000020 a0 0a 04 3f 5a c6 fe 3e fc a5 c0 3d f7 69 7f 3e
       0.5157871 0.49760705 0.09406659 0.24942766
000030 b6 59 8b 3e 75 e1 b1 3d 37 fa 33 3e 0c 5a 84 3e
       0.27216882 0.08685581 0.17575918 0.2584995
000040 24 9c eb 3d dc 5f b3 3e b6 9a db 3e da 5a 33 3e
       0.11504391 0.35034072 0.42891473 0.17515126
000050 d4 ce 4e 3e d8 41 37 3f b3 d7 dd 3d 15 47 ab 3d
       0.20196086 0.71584845 0.10832157 0.08363167
000060 62 d2 0c 3e aa c4 dd 3e 6b 1b 7b 3d 4d 2e 4e 3e
       0.1375213 0.43314105 0.061305445 0.2013485
000070 0f e0 20 3e 04 40 25 3e a3 81 f8 3d cd 9a 8c 3f
       0.15710472 0.16137701 0.12134101 1.0984741

conv3_1.weight f4 [64, 32, 3, 3]
000000 5c 25 11 3c e5 28 fb bb 84 7b 58 bd 86 c7 82 3c
       0.008859005 -0.007664787 -0.05285217 0.01596428
000010 12 45 de ba 6b 5e 8e bd 0e 73 73 3b a6 26 ff bc
       -0.001695784 -0.069516025 0.0037147435 -0.031146359
000020 ec d5 9f bd 3a d8 e0 bc 2f c5 d1 bb 1c e3 cc bc
       -0.07804474 -0.027446855 -0.00640168 -0.025010638
000030 f4 1c 39 3c 6e 78 05 3c 49 62 1d 3d 34 0b a6 bb
       0.011298407 0.008146388 0.03842381 -0.0050672535
000040 33 15 02 3b 11 e9 f1 bc ad 8d db bb ee 72 89 3d
       0.0019849062 -0.02953008 -0.0067002387 0.06711374
000050 11 ae 2f 3d f0 f3 42 3d 48 b5 01 3d e4 1d 5d 3b
       0.042890612 0.04759592 0.031667024 0.003373974
000060 7f 01 24 bd b0 81 be 3c 90 60 a7 bc 5c 31 b4 3c
       -0.04004049 0.0232552 -0.020431787 0.021996193
000070 fa 45 cc bc 76 96 20 3d e9 f9 84 3d 4b c1 14 bd
       -0.024935711 0.03920599 0.06492979 -0.03631715
000080 0b 3b 00 bd 51 1b 18 bd 8d b5 d1 3b 02 f1 92 bd
       -0.031306308 -0.037135426 0.0063998164 -0.07174875
000090 eb 0d 86 bd f6 9a dd bc 91 c6 e3 bc b5 60 49 3d
       -0.065456234 -0.02705143 -0.027804645 0.049164493
0000a0 69 7f 0d bd d0 cb 03 3d 7c e0 79 bd 5f 26 87 bd
       -0.034545336 0.032176793 -0.0610051 -0.065991156
0000b0 db c2 40 bd 0e 84 3a bd c3 ab 24 3c 78 88 14 bd
       -0.04706083 -0.045536093 0.010050717 -0.03626296
0000c0 6a 86 a4 3c 8a a5 48 bd 82 04 87 3a 00 f8 1f 3d
       0.020083625 -0.048985995 0.0010301026 0.03905487
0000d0 bb b4 d3 bc 0b a0 5c bb d5 a1 58 bd fa e4 8c bc
       -0.025843015 -0.003366473 -0.05288871 -0.017199028
0000e0 71 ac 08 3d aa 2c fd 3c fc 59 ba 3c 6d fd ef 3b
       0.033367578 0.030905087 0.022747986 0.007323912
0000f0 db eb 27 bb 15 b0 8c bc 68 cf 45 3d 91 f4 c6 bc
       -0.0025622759 -0.017173806 0.0482935 -0.02428654
000100 a4 47 bf 3c 7b 42 43 bd 2e 82 2f 3d c8 3c 1f 3c
       0.02334959 -0.047670823 0.04284876 0.009719081
000110 76 22 27 bd 49 81 18 bd b7 14 39 3d b3 41 97 bd
       -0.04080435 -0.03723267 0.04518577 -0.07385578
000120 9b ae 13 3d b3 fc 43 3d 72 9d 6c bd 0e fd 83 bd
       0.03605519 0.047848415 -0.05776734 -0.06444751
000130 13 13 e5 3c a3 8c 2c bd 86 ac 97 bd b9 86 16 3d
       0.027963197 -0.04212631 -0.07405953 0.036749575
000140 62 96 cf bc 00 81 d8 3b d6 37 97 3a 95 17 39 bd
       -0.025340263 0.006607175 0.0011537026 -0.045188505
000150 bc 42 dd bc ad 9a a4 3c 4b 71 5b bd 42 7c 67 bc
       -0.02700936 0.020093286 -0.05357484 -0.014128746
000160 51 d3 2f bc 2e 55 0b bd 50 6b a8 3d 74 9c f3 bc
       -0.010731534 -0.03401678 0.08223593 -0.029737689
000170 8d 09 6f bd f0 8d a4 bd 38 5e 1c 3d 73 e9 95 bd
       -0.058358718 -0.08034885 0.03817579 -0.073199175
000180 f3 33 4c bc 66 56 5d 3d e7 15 b2 3c 1a e9 bc 3c
       -0.0124635575 0.054037474 0.02173896 0.02306037
000190 96 b1 b9 bb 34 bd 77 bd 59 4f 06 3d 3d cd 34 3d
       -0.005666922 -0.060483173 0.032790516 0.044141043
0001a0 31 e3 6b 3a 2b 0b d9 bc 51 25 48 3d cb 07 ad 3a
       0.0008998393 -0.026494583 0.048863713 0.0013201175
0001b0 7d 8c 39 3d 2b f5 2a 3c df 59 16 bd 31 3d 9d 3d
       0.045299996 0.010434429 -0.0367068 0.07677687
0001c0 0a a0 08 bd ff f9 e6 bc 12 0f 9d 3d 94 0a 17 bb
       -0.03335575 -0.02819538 0.0766889 -0.0023047077
0001d0 e5 d8 94 3c 06 49 87 3d ff 1c b8 bc 64 67 91 bb
       0.01816983 0.06605725 -0.022474764 -0.004437374
0001e0 49 4d 29 3d 66 a3 6a bd cf 61 f0 3b 3d fa 13 3a
       0.04133347 -0.057284735 0.0073358784 0.00056448934
0001f0 50 a0 9c bd fa eb 82 bd 5b 0c 42 bd a8 4f d6 3c
       -0.07647765 -0.06392665 -0.047375064 0.02616103
000200 1a ab 91 3c 6d 14 71 3c dc 42 e0 3c 4f a0 45 bb
       0.017781783 0.014714343 0.027375631 -0.0030155366
000210 75 cf ce bc 50 f5 f4 3c db 24 61 3d d6 ac 9a bc
       -0.025245408 0.02990213 0.05496679 -0.018881243
000220 71 b6 04 3c 10 87 a4 bd cd 76 80 bc 6d a2 c8 3c
       0.008100138 -0.08033574 -0.015681649 0.024491513
000230 81 91 52 bb c5 c9 85 bd 54 ba e8 3c 91 92 bb bc
       -0.0032130184 -0.06532625 0.02840916 -0.022897037
000240 86 95 14 bd f8 9f 1f 3d 43 bf 28 bd 5d 36 21 3d
       -0.03627541 0.038970917 -0.041198026 0.039358485
000250 51 b5 0d bb 11 ff 07 3c cf 7b a1 bc 37 bf 49 3c
       -0.0021622966 0.008300559 -0.019712357 0.012313656
000260 69 27 c1 3b c3 f7 26 bc 39 f8 fb 3c 24 5f 0f bd
       0.0058945906 -0.010190907 0.03075801 -0.035002843
000270 a4 57 0b bd 63 18 63 bd f3 89 7d bb ca 0c 3e bd
       -0.034019127 -0.05544318 -0.003868696 -0.046398915
000280 bc ef 77 3c 8f 29 c9 3c 02 1a 9c 3a 5f 88 23 bd
       0.015132841 0.02455595 0.0011909606 -0.039924975
000290 25 a6 d9 bc c9 fa 87 3c fd 26 72 3c 73 8e 61 bc
       -0.026568482 0.016599076 0.014779803 -0.013766873
0002a0 87 69 c6 bc 25 fa e9 bc e3 40 26 bd 30 e3 45 3d
       -0.024220241 -0.028561661 -0.040589225 0.048312366
0002b0 12 3d 94 bd 54 4e 9a bc bd 15 39 3d 6f fe 99 bd
       -0.07238211 -0.018836178 0.045186747 -0.075192325
0002c0 4e be 85 bb 33 d4 1c 3d 06 17 81 bd 44 43 5e 3c
       -0.004081524 0.038288306 -0.063032195 0.013565842
0002d0 fd 5f f0 bc 6f 0f e9 3c 09 64 3b bd 7e d3 58 3d
       -0.029342646 0.028449742 -0.045749698 0.05293607
0002e0 0e 22 ca bc 9e c1 67 bd 01 5e 0f bd ee 39 81 3c
       -0.024674442 -0.056581132 -0.03500176 0.015774693
0002f0 e1 0f db 3b 0b 89 cd bb 26 2b 1f 3d 68 0a ec bc
       0.0066852425 -0.0062724403 0.03885951 -0.028813556
000300 22 71 6d bc b1 0f 2d 3d 3b 91 1f bc 8e e2 86 3b
       -0.014492305 0.042251293 -0.0097392155 0.004116363
000310 9c 98 ed 3c 00 58 5d bb 4b 24 8d 3b f0 e3 47 3c
       0.029003434 -0.0033774376 0.004307305 0.012200341
000320 07 91 5c bc c5 11 08 bc b5 21 4e 3d 90 ae 16 3d
       -0.013462312 -0.008305018 0.050325114 0.03678757
000330 dc 64 4f bd 4b 10 f6 bc 36 57 2a bd 5a 0e 60 3d
       -0.050633296 -0.030037066 -0.041587077 0.054701187
000340 8d e9 b4 bc ae b8 80 3c ec d0 0d 3c 99 3c fd bc
       -0.022084022 0.015713062 0.008655768 -0.030912684
000350 1e 3c a2 bc e5 bf 9c bc 71 5b c3 3c c9 cc 00 3d
       -0.019804057 -0.019134471 0.023847314 0.0314453
000360 6e 43 88 b9 03 33 9e 3d 1b 16 49 bd ad 0b 34 3d
       -0.0002599018 0.077245735 -0.049093347 0.043956447
000370 3f 10 bc 3b 75 36 90 bd 54 be 4e 3c 6b 8a 0c bd
       0.0057392414 -0.07041637 0.01261862 -0.034311693
000380 ae bf 3a bc fb 40 65 3b 99 9c 6f 3d be c8 82 3d
       -0.011398239 0.0034981358 0.058498953 0.06385945
000390 ef f2 25 3d c1 30 46 bc c1 0d f3 bc b2 d5 3d 3b
       0.040514883 -0.012096585 -0.029669644 0.0028966484
0003a0 75 be 67 3a 37 19 5f 3c bf 70 6c 3d 8c 89 e6 bc
       0.0008840331 0.0136168515 0.05772471 -0.02814176
0003b0 ba 66 00 bc 8d da a2 bb f6 3f c4 3b 63 fb 7f bd
       -0.007836992 -0.004969901 0.00598907 -0.0624956
0003c0 d9 bb af 3c 94 6f 5d 3d 74 10 f5 bc 11 3c bb 3c
       0.021451877 0.054061487 -0.029915072 0.02285579
0003d0 67 ec bc 3c 8d 10 86 3c 74 5b ce 3c 43 7f 1f bd
       0.023061944 0.016365314 0.025190093 -0.038939726
0003e0 97 e7 81 bc 0e a2 3f 3c a3 ee 49 bc 94 2d 49 bd
       -0.015857501 0.011696352 -0.012324962 -0.049115732
0003f0 67 ba 6e bd 46 44 5d 3b 66 b9 9e bd 05 6e fb bc
       -0.058283236 0.0033762618 -0.07750206 -0.03069211

conv3_1.bias f4 [64]
000000 4d c0 4f bc fb d8 c3 bc 9c d3 2f bc f3 dd 24 3c
       -0.012680125 -0.023907175 -0.010731604 0.010062682
000010 d0 e7 07 3d 6d a3 fd bc bd b0 24 bc 68 34 5d bd
       0.033180058 -0.030961717 -0.010051903 -0.054005057
000020 fc 55 5b 3d d5 41 10 bd 0e 0b a4 3c c2 90 ab bb
       0.053548798 -0.035219032 0.020024803 -0.0052357623
000030 ab 54 d2 bc 44 da 87 3c c2 3a 5f 3d 1b 67 69 3d
       -0.025675138 0.01658357 0.054499395 0.056983095
000040 d9 0f 00 3d 4c ef fd 3c 2e 75 10 3c 78 eb 1f 3d
       0.031265114 0.030997895 0.008817 0.03904292
000050 bc 22 5d bd 6f 03 84 bc e5 43 13 bc 13 40 4d 3c
       -0.053988203 -0.016114919 -0.008988355 0.0125274835
000060 99 a7 25 bd b0 c9 e9 ba f0 c4 a5 b7 5b f2 11 3d
       -0.040443037 -0.0017836597 -1.9761239e-05 0.03563152
000070 97 f8 d6 3b 5a 7a 5f 3d a5 d2 56 bd 5c 0d 1a 3d
       0.006560396 0.054560043 -0.05244698 0.037610397
000080 b7 b7 41 bb 17 27 2a bd 41 21 8d 3b 07 13 4d 3d
       -0.0029558965 -0.041541185 0.0043069427 0.050066974
000090 24 ff 40 3d d9 91 36 bd 9d 6c d0 bc 04 36 3e bd
       0.04711832 -0.044572685 -0.025442416 -0.046438232
0000a0 c7 fd 6d 3d 3a 4e 14 bd bc 13 09 3d a9 ef c7 3c
       0.05810335 -0.036207415 0.033466086 0.024406271
0000b0 82 88 e6 bc ce e6 6f 3d 7f c2 8d 3b ba cf 69 bd
       -0.028141264 0.058569722 0.0043261643 -0.05708287
0000c0 4a 73 b5 3b 27 5e 19 3c 10 a2 09 3d 43 f2 98 bc
       0.005537425 0.009360827 0.03360182 -0.018670207
0000d0 82 cd 20 3d 0b 3c 46 bd fa ac a9 3c 04 f1 be 3c
       0.039258488 -0.048397105 0.020712364 0.023308285
0000e0 05 01 36 3d 2c 85 0b bc e0 80 25 bd 83 c7 55 3d
       0.044434566 -0.008515637 -0.040406108 0.052192222
0000f0 92 36 d0 bc f1 5b 51 bd 5b 05 a2 3c 3c a2 b9 bc
       -0.025416646 -0.051113073 0.019777944 -0.022660367

bn3_1.weight f4 [64]
000000 b7 11 6e 3f ea 8e 8e 3f c2 f4 84 3f 27 af 91 3f
       0.9299578 1.1137364 1.0387194 1.1381577
000010 ea fa 82 3f 1f fe 7e 3f eb 94 95 3f 8c 40 74 3f
       1.0232823 0.9960651 1.1686071 0.9541099
000020 35 db 70 3f 44 9e 92 3f 93 22 91 3f 80 25 87 3f
       0.94084483 1.1454549 1.1338676 1.0558319
000030 fe 7e 97 3f 77 96 73 3f b7 d7 94 3f 66 9a 93 3f
       1.183563 0.95151466 1.1628331 1.1531494
000040 58 16 99 3f f4 14 98 3f 9a 16 84 3f ab e2 95 3f
       1.1959944 1.1881394 1.0319397 1.1709799
000050 7c 5d 94 3f 7a ef 90 3f b0 1f 97 3f 65 89 90 3f
       1.1591029 1.1323082 1.1806545 1.129193
000060 83 9f 7d 3f 90 df 79 3f 60 0e 7c 3f 47 c4 95 3f
       0.9907152 0.97606754 0.98459435 1.1700524
000070 d0 53 7a 3f 69 fa 90 3f f4 e4 92 3f b9 8c 91 3f
       0.9778414 1.1326419 1.1476121 1.137107
000080 72 97 96 3f 58 e1 90 3f 41 99 8f 3f 86 05 92 3f
       1.1764967 1.131877 1.1218644 1.1407936
000090 54 43 6f 3f db 39 73 3f d0 0e 6d 3f af 2b 92 3f
       0.9346211 0.95010155 0.9260073 1.1419581
0000a0 2a c9 97 3f 1c 5c 7d 3f 5d 66 6f 3f aa d3 6d 3f
       1.1858265 0.9896867 0.9351557 0.929011
0000b0 63 21 97 3f a8 5a 93 3f 14 eb 95 3f bd aa 97 3f
       1.1807064 1.1512041 1.1712365 1.184898
0000c0 b0 c1 96 3f 5d e0 82 3f 34 2b 7f 3f 95 d5 71 3f
       1.1777859 1.022472 0.996753 0.94466525
0000d0 ee 1e 93 3f b7 09 91 3f fc 5f 76 3f 86 c5 90 3f
       1.1493814 1.133109 0.9624021 1.1310279
0000e0 45 32 8a 3f b0 1f 74 3f 7d 00 98 3f 58 84 92 3f
       1.0796591 0.9536085 1.1875149 1.1446638
0000f0 9a bb 6e 3f 79 59 90 3f d1 e7 93 3f a7 59 8d 3f
       0.9325501 1.1277305 1.155512 1.1042985
