model_folder/best_model.pth (torch, 87842 bytes, 37 tensors)

conv1_1.weight f4 [8, 1, 3, 3]
00000000: b005 84be 0f6b 093e 1978 893e eeca 0c3e
00000010: 0484 81be 490d 8a3d 0de7 87bd f8e6 5e3e
00000020: 72b9 bf3d 94e2 a1bd 1ddd 5d3e 6d76 3ebe
00000030: 9a8d 97be ec2e 7abd fce4 7f3e 43e0 f2bd
00000040: 8479 e73d 370b d83d d012 f2bd 6a2b 9c3d
00000050: d64d 213e 9680 b93d 652f e93d baa8 d23e
00000060: ce64 acbe 50b1 363e 7658 97bd e9d1 0fbd
00000070: 0f59 923e cf70 09be 1cde 59be e561 333e
00000080: 9f28 523e 82aa 043d bb44 4ebe 6f9f 03be
00000090: 4934 98bd a280 4d3c b1dc 6abe d2ab e6bd
000000a0: c3a0 87bd a561 b83d e38b cb3d ad1d 633e
000000b0: d071 773d 4aed bdbd 84f1 0d3e f592 2e3e
000000c0: c1d5 04be a237 1c3c a5e2 393e 8a77 2dbe
000000d0: c879 5bbe 00ea 843d e964 0c3e 013c f9bd
000000e0: 19bb 77be 29cd 963e fa15 a43c 3ff3 41bd
000000f0: 2582 2d3e 3f17 71be c643 26be 59d6 7b3e
00000100: ef4f 4fbd 47e3 693c 5605 a33d 2712 73be
00000110: 4aaa 4b3e bee0 783e 87f6 82be a99d 49be
-0.2578559 0.13419746 0.2684944 0.13749287 -0.25296032 0.06740815 -0.06635866 0.21767795
0.09361543 -0.079045445 0.2166638 -0.18599863 -0.2960022 -0.061079904 0.24989694 -0.11859181
0.11302474 0.10549014 -0.118199944 0.07625468 0.15752348 0.09057729 0.11385993 0.41144353
-0.33670658 0.17841077 -0.073899195 -0.035112295 0.2858357 -0.1342194 -0.21276134 0.17517813
0.20523308 0.03238917 -0.20143406 -0.12853788 -0.074318476 0.0125428755 -0.2293575 -0.11263241
-0.0662246 0.09002999 0.09938791 0.22179289 0.060411274 -0.09273775 0.13861662 0.17048247
-0.12972166 0.009534748 0.18152864 -0.16940132 -0.21433175 0.064899445 0.13710369 -0.12169648
-0.24192466 0.294534 0.02003001 -0.04735112 0.16944177 -0.23544024 -0.16236791 0.24593486
-0.05061334 0.014275379 0.07960002 -0.23737393 0.19889179 0.24304482 -0.2557871 -0.19689049

conv1_1.bias f4 [8]
00000000: 5980 f3bd 3221 063e 873a 413e 7958 f3bd
00000010: af9a ad3e c896 b83d 5aec 293e 0ded a63c
-0.11889715 0.130986 0.18869983 -0.11882109 0.33907077 0.09013134 0.16594067 0.020376706

bn1_1.weight f4 [8]
00000000: 3935 693f 6230 763f 6342 653f d72f 793f
00000010: 0462 853f d012 833f b4fd 7b3f 66f6 793f
0.91096836 0.96167576 0.89554423 0.9733862 1.0420537 1.0240116 0.98433995 0.976416

bn1_1.bias f4 [8]
00000000: fc6e 32bc 590a 8f3d e84a 96bb d4f3 a53d
00000010: 1836 1b3e 2bda b93d 1b48 503d c873 a13d
-0.010890719 0.069843955 -0.0045865662 0.08103147 0.15157354 0.09074815 0.050850015 0.07883412

bn1_1.running_mean f4 [8]
00000000: 7a86 313d 909a d63d 99aa da3e ac17 ffbd
00000010: c40e ae3e 2579 903d 4a56 9d3d cdf9 1f3d
0.043341137 0.10478699 0.4270828 -0.12455687 0.3399564 0.070543565 0.07682474 0.039056588

bn1_1.running_var f4 [8]
00000000: af71 753b 1f21 b93a d302 123c c256 243a
00000010: dc42 893a 5b10 233b 68cc 7c3b b3bb b53a
0.0037451794 0.0014124251 0.008911806 0.00062690314 0.0010472196 0.0024881575 0.0038573984 0.0013865143

conv1_2.weight f4 [8, 8, 3, 3]
00000000: 8593 c4bd de13 1e3d 6654 5abd 7474 4cbd
00000010: ed55 cdbd c556 c23d 0502 bc3b c4e7 81bd
00000020: 9c43 aa3c af95 0f3d be36 1b3e a33b 043d
00000030: e00b 003e 6856 063e d541 0d3e ae39 c53d
00000040: 6322 b7bd cd1b adbd 4d6e 11bd 4b96 be3b
00000050: dc8b c03c 8244 0e3d ec6f b8bd b689 6d3d
00000060: 5cf2 d0bd 8b01 df3d e2ef 95bc e59a 4b3c
00000070: d01b a8bd 71be 67bc 4dc4 853d ce68 05be
00000080: 54e2 853d 147a c3bc 3811 1e3d 7fc2 a0bd
00000090: d7a3 c5bc 91b3 9e3d 371e 083e 51c7 443d
000000a0: 376a eebd 7529 8fbd 8c0c b43d b16a e9bc
000000b0: af50 26bd 040c 843d 6507 5a3d 6848 39bd
000000c0: 8e1a 003d ca84 003e 1c88 df3c 1042 1ebd
000000d0: ee62 5dbc bf60 b1bd 004a d7bd 22cf d3bd
000000e0: 20cb c33b f68f 0b3d 3d48 4b3d 7de6 08be
000000f0: 2fde ce3d 4926 b8bd 315c 24be e092 663d
00000100: 633a 193d fa53 6a3c d8c2 fcbd 048d 51bc
00000110: 5df0 fabc 506a f0bd 1f65 343d d904 cb3d
00000120: 942c 6fbd efc2 96bd 5304 823d 817a 823d
00000130: 0216 293b a414 bcbc d425 3dbc 22cf a8bd
00000140: f007 6bbb d95e 03be 4746 9bbd 6803 943c
00000150: c21c 123d 1ee1 383c 0fb0 6ebd e3f5 1d3e
00000160: 5e4e 9e3d 86b5 a63d ea32 debd f216 eb3b
00000170: 5516 463d a43b 8ebb cfb5 8bbb ce3c 493c
00000180: d972 673d 5b20 f23c 0ceb b63d f3e1 bc3d
00000190: 40d7 58bc 1c67 6f3d 7e36 c3bc e0a6 9bbc
000001a0: ebb9 afbd efbf afbd 2d79 04be 1fb5 3d3c
000001b0: e098 18bd af1a ec3c 99a1 d2bb d4d6 01be
000001c0: 4c7f bfbd 0734 0b3d ab43 d73c 4919 123d
000001d0: 1697 c7bb f855 e3bc dc06 0fbc dd53 c3bd
000001e0: dd77 af3d 18b4 1dbd 56a6 343d 2f60 e53d
000001f0: 305c eebd 0896 ba3c c612 04bd a75c 943d
00000200: 7726 023d e696 0f3d 2b9b f8bc 65df 103d
00000210: a47f 00bd 1218 82bd 9c34 cf3b 528d b03d
00000220: 40c1 0c3d 8804 42bd 4742 28be 2d7b 473d
00000230: aa33 9e3d 55f9 9dbd 8832 57bd dd97 86bd
00000240: b112 cd3d 96a5 08bd 5475 35bd 5a56 52bd
00000250: 4d65 4d3c 8c2b 6dbd cafd ac3d 1836 2cbc
00000260: b804 7b3d 2f64 cf3d 199d 32bd 88b3 26bc
00000270: 0b16 cc3d 3826 3dbd c216 d5ba 3111 eb3b
00000280: 1c4e 993d 7adc f93d c9d5 f4bd c548 143d
00000290: 94f8 753d 170e 14bc 8330 33bd 00f2 df39
000002a0: 3288 2cbd 3419 0a3d f4e0 0dbd 6bff b03d
000002b0: 45ce e2bd d684 933d 53f3 a8bd 6c17 913d
000002c0: 597e d2bd 0429 2cbd 3daf 97bd 89ef 30bd
000002d0: 974f c53d 7310 eb3b b241 8c3d 5c31 1ebd
000002e0: ed5c 013d a0d1 c2bd c6e8 21be 1192 a93d
000002f0: c964 913d 292f edbc 86bd b6bd bc59 00bc
00000300: 5f89 933d 99ae 80bd ea67 ed3d 9660 c93d
00000310: a39b ddbd 2386 85bd ac28 be3d c7c1 b0bd
00000320: a8ff a5bd 73b8 b63d 8115 bfbd a00a 90bd
00000330: 83d2 acbd c607 543d c683 4dbd 8d4b 35be
00000340: b9e3 8ebd 5453 5f3c f345 a6bd d257 35bd
00000350: b3e9 01bd 4afd b43d 397d 64bd 4a35 9a3d
00000360: 678d 8f3d b023 283d 4a02 b7bc f802 ba3d
00000370: ec59 98bd 6f6f d3bc 08c6 b7bd 125b d03c
00000380: 7407 83bd 365d 60bd 7be2 443d 0366 e43b
00000390: bd31 9abd a050 fabc 5931 8a3d 384b 8d3d
000003a0: 64a4 edbc b3c2 603d cc23 46bd a341 103c
000003b0: 64ea 253d 0dac 8b3d 3c4f 063d d8f3 b33d
000003c0: f017 e03c 250b 26bd b0cd 2c3d e0be 39bd
000003d0: c89c 01be 074b a9bd f68d a13d e750 bf3c
000003e0: 8e6d e2bd 91f1 253e e962 973d a0eb 4cba
000003f0: 11de 0c3e 18d6 23bd 83e3 78bd 2aa4 a33d
-0.095984496 0.038593166 -0.053303145 -0.049915746 -0.10026155 0.09489206 0.0057375454 -0.06343034
0.020784192 0.03505486 0.15157601 0.032283437 0.1250453 0.13118899 0.13794644 0.09630142
-0.089421056 -0.08452568 -0.03550558 0.005816256 0.02350419 0.034733303 -0.090057224 0.05799266
-0.102024764 0.10888966 -0.018302862 0.012427066 -0.0820843 -0.014144526 0.06531582 -0.13028261
0.06537309 -0.023861922 0.03859064 -0.07849597 -0.024125976 0.07749093 0.13292776 0.048041645
-0.116413526 -0.06990329 0.087914556 -0.028493257 -0.04060429 0.06447604 0.05322971 -0.045235068
0.031275325 0.12550655 0.027286582 -0.03863722 -0.013512356 -0.08661031 -0.10512161 -0.10342242
0.005975142 0.03407284 0.04962944 -0.13369174 0.10100972 -0.08991677 -0.16050793 0.056292415
0.037409198 0.014302248 -0.12341851 -0.012789968 -0.030632192 -0.117390275 0.04404175 0.09913034
-0.058392122 -0.073613994 0.06348481 0.06371022 0.0025800471 -0.022959061 -0.011544663 -0.082426324
-0.0035862885 -0.1282915 -0.07581764 0.01806803 0.035671957 0.011284141 -0.05827337 0.1542583
0.07729791 0.081400916 -0.10849555 0.007174366 0.04836114 -0.004340606 -0.0042636166 0.012282563
0.05650601 0.029556444 0.089315504 0.09222784 -0.013234913 0.058447942 -0.023829695 -0.01900047
-0.08580383 -0.0858153 -0.1293685 0.011578827 -0.037255168 0.028821317 -0.0064279553 -0.12679607
-0.09350452 0.033985164 0.026277384 0.035668645 -0.006091009 -0.027750954 -0.008729663 -0.0953748
0.08567784 -0.03850183 0.044103943 0.11199986 -0.11638677 0.022776619 -0.032244466 0.072442345
0.031774964 0.035056017 -0.030347427 0.035369296 -0.031371728 -0.06352247 0.00632341 0.08620705
0.034363985 -0.047367603 -0.16431533 0.048701454 0.07724698 -0.07713572 -0.052538425 -0.06571934
0.10013331 -0.03336104 -0.044301346 -0.051351883 0.012536359 -0.057902858 0.08446844 -0.010510944
0.061283797 0.101265304 -0.04360685 -0.0101746395 0.09965142 -0.046179026 -0.0016257393 0.0071736802
0.07485601 0.12200256 -0.11954839 0.03620221 0.060051516 -0.009036562 -0.043747436 0.0004271418
-0.042122073 0.03371544 -0.03463836 0.08642467 -0.11074499 0.07203071 -0.082495354 0.070845455
-0.10278005 -0.042031303 -0.07406471 -0.04319719 0.09634321 0.0071735918 0.06848468 -0.03862129
0.03158276 -0.09512639 -0.15811452 0.08279813 0.07099301 -0.028953152 -0.089228675 -0.007833894
0.07203936 -0.06283302 0.11592086 0.098328754 -0.10820701 -0.06519725 0.09285101 -0.0863071
-0.08105403 0.089219 -0.093302734 -0.070332766 -0.084385894 0.051765226 -0.050174497 -0.17704602
-0.069770284 0.013630707 -0.081188105 -0.044273205 -0.031717014 0.088373736 -0.055783484 0.07529695
0.07009392 0.04104966 -0.022339959 0.090825975 -0.07439026 -0.025809972 -0.08973318 0.02543405
-0.06397906 -0.054776393 0.04806755 0.0069701686 -0.07529018 -0.030556023 0.067476936 0.068991125
-0.029009052 0.05487318 -0.048373982 0.0088047115 0.040506735 0.068199255 0.032790408 0.08786744
0.027355164 -0.040537972 0.042188346 -0.04534805 -0.12657464 -0.082662635 0.07888405 0.023354007
-0.11056052 0.16205432 0.073919125 -0.0007817093 0.13756587 -0.039999098 -0.060763847 0.07990296

conv1_2.bias f4 [8]
00000000: d498 a5bd 5e36 883d ecba e6bd 594f 68bd
00000010: e069 0e3d 55a7 a73d 7ebf 5a3d fdbe c03d
-0.0808579 0.06650995 -0.11266121 -0.056716297 0.03476894 0.08186213 0.053405277 0.09411428

bn1_2.weight f4 [8]
00000000: 0d9e 863f c373 813f 0bd4 8e3f 1690 863f
00000010: 4391 853f 5963 823f edf1 853f 1a86 883f
1.0516983 1.0113453 1.115846 1.0512722 1.0434955 1.0186568 1.0464455 1.0665925

bn1_2.bias f4 [8]
00000000: 6dfd 1c3d da5d c43c f033 9e3c bac2 a7bd
00000010: f1a3 61bc d1c4 753d e97c abb9 c755 c3bc
0.038327623 0.023970533 0.019311875 -0.08191438 -0.013771997 0.060002152 -0.00032708727 -0.023844613

bn1_2.running_mean f4 [8]
00000000: 1763 ebbd 9e06 9cbd 86a5 95be 9964 26be
00000010: 2e03 c8bc 4ab8 14be 188c 09be b60f b8bc
-0.11493509 -0.0761845 -0.29227847 -0.16249312 -0.024415579 -0.14523426 -0.13432348 -0.022468429

bn1_2.running_var f4 [8]
00000000: 853e 6a3e b8cb a53d 2be4 053e 7447 fc3d
00000010: 2109 3d3e 6fcf 2f3e cff8 093e ecf7 493e
0.22875412 0.08095497 0.1307532 0.12318316 0.18460514 0.17168973 0.13473819 0.19723481

conv2_1.weight f4 [16, 8, 3, 3]
00000000: 9ed3 873d 9f33 d53d 5af1 e2bd 8df2 fa3d
00000010: 2dce aebd 0b03 173d 951a b93d 9089 8ebd
00000020: 9e8d 79bd 89dc 193d fc45 663d 7d46 92bd
00000030: 5a18 bebd d4c8 d73d 123e d03d 0286 913d
00000040: 3907 bdbd ed6a 153e 0678 993d 5f9e 5bbc
00000050: 4238 19bd 4f7a efbd d0ed 73bd 16d3 e6bd
00000060: 1ec5 843d 4c19 ad3d 1c1b 623d e0fd c4bd
00000070: 4a54 d0bd a3f2 07bd 0d54 393d 2d8b a83d
00000080: 6756 a6bc 6342 94bd 961b 90bd ce30 eebd
00000090: 9d1f d43c 1196 883c 80e3 0d3e 7f65 aa3d
000000a0: 4700 883d f6b8 a4bc 9c02 96bc 44e8 22bd
000000b0: ed40 34bc f85c 9f3d f47f 793d a198 27be
000000c0: 9844 b0bd 96a1 1bbd 35c4 fcbc 4d19 c1bd
000000d0: c5bb 86bd 05d1 c8bc ce3d 923d 26eb b9bc
000000e0: f6a9 cc3d b699 87bd 764a 2f3d 7a51 69bd
000000f0: a092 79bd 4421 e0bd 3918 77bb 14ac 923d
00000100: b15a 05be baff 6dbd f691 793d 3cbe c73b
00000110: 4bb4 ed3d fffb 08bb 30d5 eebd b710 ddbd
00000120: abd8 5dbd 195d a8bd d30f e43d 5795 87bb
00000130: 5326 04be 9948 b83d 64b5 263d 5502 30bd
00000140: 63e3 c9bd 1751 3cbd cd11 15be a2b0 663d
00000150: 76a5 8c3d 17a2 c5bc 1026 a3bd 51b1 183e
00000160: cdf6 053e 966a 74bd cb35 233e 861a ea3b
00000170: e9d8 dd3d 067b b4bd 54af 603d 23d0 c0bd
00000180: 197c 863d 0c7c 83bd f399 2b3d 0eaf cbbc
00000190: 6c10 263d a94c 1a3d c823 82bc e88b 06be
000001a0: d4af b2ba 48ed 93bd 00c0 683d 7697 be3b
000001b0: d08f a4bc a229 c73d 248d 84bc 3686 563c
000001c0: 2b8b 59bc 0938 edb9 623d 1e3d 8569 cdbd
000001d0: 8965 f2bc 843f 25be 4e54 cd3d ffbb 80bd
000001e0: 8c7a 5bbd 9360 87bd 15fc bbbd ed4a 58bd
000001f0: b7b4 bebd e3f0 d0bc caf8 98b9 a59d a0bd
00000200: 4d0e 883b 4bb6 2d3c f41d bdbd 2f1d a3bc
00000210: 2025 66bd c774 173e 792e 56bc 5477 00bd
00000220: 8ca0 5fbc fb9a 41bd 8dbc 013e 51c1 673d
00000230: 2548 0bbc df81 013e b192 9bbd 8f09 773d
00000240: dba8 653c f220 bcbd d180 80ba cf78 8fbc
00000250: 2571 8cbb 1a19 46bd f3f7 783d 32e3 a8bc
00000260: 5fa9 16bd 9b0e 9ebd 7469 f53c 17f6 d8bd
00000270: 4d0a c83a 4708 873b 35e8 a33d b793 513d
00000280: eab6 c1bd 40e9 543d e80a 08be e3ec 5c3c
00000290: 2d63 f43b bbbd 643d 9d34 9abd b48e 1f3d
000002a0: 6eb9 0abd 5069 8d3d 95ca 84bd a289 f03d
000002b0: 8e3f 1bbd 36bf 47bb 6e0b b5bd 4909 91bd
000002c0: 0aa2 6c3d 1493 0d3d c1aa 89bd 3490 e73d
000002d0: 5cc8 1fbe 6d5e 5a3d ecff 0f3e 1e18 17be
000002e0: 07c6 0e3d bfd6 d73d f4c0 663d fde4 ae3d
000002f0: 328e b3bd 255f 4c3d 7741 88bd 845f 50bd
00000300: 44ba d5bc f6c8 403d 95c8 9b3d 6026 35bc
00000310: 9a2c 8abd 95d5 14bc 9535 0ebc c4e2 143c
00000320: 00c6 5cbd 1770 8a3c 7cb0 4ebd 8a3e 843c
00000330: ad03 d4bc e64d 033d cce4 7abd 4315 633d
00000340: beaf 353d 81ce 893d d196 2bbd 8add 633d
00000350: 6cf8 023e ddf4 c0bd 2b56 c6bd 853a 1c3d
00000360: 13d9 b0bd 720c e73d 42c2 02bc 4336 76ba
00000370: c78a c73d db53 adbd a21b b6bd c20c 033e
00000380: 333d 16bb 3e71 823d 55c3 bebd 7fa9 48bd
00000390: 0a07 1fbd 8b83 dbbc 0685 843d c4df cabd
000003a0: 801f 9f3d a5d5 7c3d c854 cbbd 5865 a03d
000003b0: ff45 bbbd ed4d 863d 716b dabd 759a 73bd
000003c0: db52 8e3d 37fd 743d 646e 3cbd 9c22 0bbd
000003d0: 9a21 803d 280f bb3d 94c2 903d 64a0 ecbc
000003e0: 2abf 2cbd 1a43 28be 9e8d 33bc 01f7 03be
000003f0: 91fd 62bd 4d3c 8ebd 1a55 95bd 08c2 3fbc
0.0663216 0.104102366 -0.110811904 0.12253294 -0.08535419 0.036868136 0.09038273 -0.06959832
-0.060926072 0.037563834 0.056219086 -0.07142351 -0.092819884 0.10536352 0.10168089 0.07105638
-0.09229893 0.1459157 0.07493596 -0.013404458 -0.037407167 -0.116932504 -0.059552968 -0.1127073
0.064829096 0.084520906 0.055201635 -0.09618735 -0.10172327 -0.03319038 0.045246173 0.08229671
-0.020304872 -0.07239225 -0.070365116 -0.116304025 0.02589398 0.01667312 0.13856316 0.0832014
0.06640678 -0.020107727 -0.018311791 -0.039772287 -0.011001808 0.07781404 0.06091304 -0.16366817
-0.08606833 -0.037995897 -0.030855278 -0.09428654 -0.06578783 -0.02451373 0.071406946 -0.022695135
0.09993355 -0.06621115 0.04279562 -0.056962468 -0.060930848 -0.10943845 -0.0037703647 0.071617275
-0.13022877 -0.058105208 0.060930215 0.0060956758 0.11606654 -0.0020902155 -0.11661756 -0.10794204
-0.05416171 -0.08220882 0.11135831 -0.0041376757 -0.12905245 0.08998222 0.04070033 -0.042970974
-0.09857824 -0.04597577 -0.14557572 0.056320794 0.06867497 -0.024125142 -0.07966244 0.14911391
0.13082428 -0.05967196 0.15938489 0.007144275 0.10832388 -0.08812527 0.054854706 -0.09414699
0.065666385 -0.064201444 0.041894864 -0.024863746 0.040543005 0.037670765 -0.015886202 -0.13139307
-0.0013632723 -0.07222992 0.05682373 0.0058163954 -0.020088106 0.09724738 -0.016180582 0.013093522
-0.013277809 -0.00045245912 0.038632758 -0.10029892 -0.029589431 -0.1613751 0.100258455 -0.062858574
-0.053583667 -0.06610217 -0.0917894 -0.05280583 -0.09311812 -0.025505489 -0.00029177062 -0.07842568
0.0041520954 0.010602544 -0.09234229 -0.019911377 -0.05618775 0.14790641 -0.013072603 -0.0313638
-0.013649117 -0.04726694 0.12669583 0.056580845 -0.008501087 0.12647198 -0.075963385 0.06031185
0.014017309 -0.09185971 -0.0009804015 -0.01751366 -0.004285949 -0.048363782 0.060783338 -0.020616148
-0.03678262 -0.077176295 0.02995751 -0.10593813 0.0015261859 0.00412086 0.08003274 0.051166262
-0.09458716 0.051980257 -0.1328541 0.013484213 0.0074581117 0.055845004 -0.075295664 0.03895445
-0.033868246 0.069048524 -0.06483952 0.117450014 -0.037902407 -0.003047896 -0.08840071 -0.07081849
0.05777172 0.034564093 -0.06722022 0.113068014 -0.15603775 0.053312708 0.1406247 -0.14755294
0.034856822 0.105390064 0.05633636 0.0853977 -0.08767356 0.049895424 -0.066531114 -0.05087234
-0.026089795 0.04706665 0.07606617 -0.011056513 -0.06746788 -0.009084125 -0.008679767 0.009087268
-0.053899765 0.016899152 -0.050461277 0.016143102 -0.025880659 0.03205671 -0.061253354 0.0554402
0.044357054 0.067288406 -0.041891877 0.055631198 0.12790078 -0.09421704 -0.09684404 0.038141746
-0.086351536 0.11281671 -0.007980885 -0.0009392241 0.097432666 -0.0846326 -0.08891989 0.12797835
-0.0022924661 0.063692555 -0.093146004 -0.04898977 -0.038825072 -0.026796123 0.06470685 -0.09905961
0.0776968 0.061727185 -0.0992828 0.0783183 -0.0914421 0.06557832 -0.10665024 -0.059473474
0.06949397 0.059811797 -0.046003714 -0.033968553 0.06256409 0.0913375 0.07068363 -0.028885074
-0.042174496 -0.16431847 -0.010959057 -0.12887193 -0.0554176 -0.06945095 -0.072916225 -0.0117039755

conv2_1.bias f4 [16]
00000000: 7d2d 6cbd 99b4 973d 4361 a1bd 5b13 d83d
00000010: 2d1d 11bd 4f63 67bd 701c adbb 822b bd3b
00000020: 3c3b 373d 425d 843c 26ac 0c3d 7abf d4bd
00000030: 6cc5 b13d 3f63 d6bb 15da a03d d00d d3bd
-0.05766057 0.07407493 -0.07879879 0.10550567 -0.035428215 -0.056491192 -0.005282931 0.005773009
0.044734225 0.01615775 0.03434386 -0.10388084 0.08680233 -0.006542593 0.07854096 -0.10305369

bn2_1.weight f4 [16]
00000000: 70b8 793f a8e8 633f bbe4 803f a872 853f
00000010: b004 713f f358 7b3f 13dd 793f 9360 7c3f
00000020: ab33 6b3f 0ca9 803f 447a 743f af12 753f
00000030: f644 813f 3c27 743f 0693 783f b6ef 783f
0.97547054 0.8902688 1.0069803 1.0425615 0.9414778 0.981826 0.9760296 0.9858486
0.91875714 1.0051589 0.9549906 0.95731634 1.009917 0.95372367 0.9709934 0.9724077

bn2_1.bias f4 [16]
00000000: 087c f0bc 1bf7 ffbd 2bb5 36bc 33a0 c7bd
00000010: 3cfb 04bd 9df7 863c a086 1bbc fd70 c73b
00000020: 7092 9bb9 4da3 823d 440d 1abd 9383 1bbd
00000030: 812d 43bd 4d5e d9bc ca94 49bd 221a ffbc
-0.029356018 -0.124983035 -0.011151592 -0.097473525 -0.03246616 0.016475493 -0.009492546 0.0060864673
-0.00029673008 0.063788034 -0.037610307 -0.037967276 -0.047650818 -0.026534224 -0.049214162 -0.03114039

bn2_1.running_mean f4 [16]
00000000: f541 c4be 5ff0 96be b3d5 84be 0d1b 91be
00000010: 74f9 33be 783d 0cbf 9b46 8ebe f72c a63e
00000020: 21c7 163f 4e98 6dbe 56e8 73be 7961 debe
00000030: 838a 9dbe 355d 4bbe 3188 c3bd b18d d9be
-0.3833157 -0.29480264 -0.2594429 -0.2834095 -0.17575628 -0.54781294 -0.27788243 0.3245618
0.58897597 -0.23202631 -0.23819098 -0.4343374 -0.3076974 -0.19859774 -0.09547461 -0.42490914

bn2_1.running_var f4 [16]
00000000: 9d7d b13e 21d4 c23e 44ff f43d cf51 893e
00000010: 5d01 f23d a0b5 063f 4f40 673e b49e ee3e
00000020: f3cd 073f 5ea1 883e b1e6 3a3f f584 d03e
00000030: da5b b13e 6209 a93e 5d0c 093f adb7 d23e
0.34666148 0.38052467 0.119627506 0.26820228 0.11816666 0.5262089 0.22583126 0.46605456
0.5304863 0.26685613 0.7300826 0.40726438 0.3464039 0.3301497 0.5353449 0.41155759

conv2_2.weight f4 [16, 16, 3, 3]
00000000: df13 cd3d 19f5 8ebc e5e7 4e3d fcb8 40bd
00000010: 4d8a 45bd 5d83 843c 1e8e c8bc b3db 4c3d
00000020: d9e0 f93c 196c 80bd c4b1 7d3d 5999 74bb
00000030: 432d d03c b95c 32bd 706d fa3b aff6 143c
00000040: 695b 803d 4cd5 f8b9 e054 5ebd 66f2 88bc
00000050: 304d 7d3b 1361 d43c cc81 48bb bc13 0b3d
00000060: 96b8 96bb 0463 f03c 37e4 523b bc3a 2f3b
00000070: 7eec 5e3d 412c aa3d f69d 2dbc d00b 923c
00000080: 9dfb 993c b6ba 2dbd 2705 d53c d473 b1bb
00000090: fc4b 03bd 09af 0c3d a0e0 383d cb35 113d
000000a0: 9d4c 77bd 53c1 35bd 16aa 1abb 9ba0 bbbc
000000b0: 8c4f e33c c6b7 c73c e731 cdbc 1c69 94bd
000000c0: 7719 86bd 924d 1f3d 9634 bbbd dab0 78bc
000000d0: 41be 99bc 8449 f0bc 851a b8bd 04ba 493d
000000e0: e4bd c43c 409c edbc 8487 e53a 54c8 aabc
000000f0: bf48 45bd 9cef 8ebb 7277 9ebd eda5 543d
00000100: 73d7 eb3c d785 82bc 70ac 943d bbc3 43bc
00000110: 6bb6 eabd 47b1 c6bc 5716 643d 4a89 95bd
00000120: 4470 373d 2474 b7bd 99cb 093d 72ce 19bc
00000130: 0706 0cbd 39f0 93bc 2b14 0fbd 35a0 61bc
00000140: 4ddc 58bd 9cac 05bc 680d 83bd b68e 973a
00000150: 9e77 ad3d 2c06 c23d b161 223c ae0c b03d
00000160: bfad c7ba 0722 03be 01ca bfbd 7257 82bb
00000170: 9d5a bbbd 794d a8bd 086e 8dbd 8ea4 81bd
00000180: 8310 40bc 4107 e0bc 32d5 6bbc c056 62bd
00000190: 94dc bd3c 8aca 18bd c991 b73c ad9b bc3d
000001a0: e398 81bd 8106 edbc 12dc 9e3c 56d5 55bc
000001b0: 6b0a 9abc f8b3 0ebe bcd2 03be dce7 c6bc
000001c0: 44fd 31bd d266 973c a84e a33d fc82 00bd
000001d0: 1524 2cbd cb67 85bd 6bb1 5abd e47d ac3d
000001e0: 8250 be3d f4d5 8a3d bcb4 c23c ef62 f1bc
000001f0: bdc4 60bd 8f33 453d 7627 963d 9ca2 9b3d
00000200: 4e53 0ebc 8811 b13d 17b1 6f3d a56d 66bd
00000210: d731 8fbd b56d 80bc b9fd 1bbd 910a c4bd
00000220: 4993 3dbd 2576 8abd beb7 e1bc 57c3 84bd
00000230: 23fc 873c dd8f 52bd ecba 98bd 5456 51bd
00000240: 3de1 b23c d925 453d 6cc3 4bbd 6139 84bd
00000250: ec62 a4bd f4f5 a2bc 4061 eabc b474 763d
00000260: b9c2 99bd bc83 b6bc 0e73 033d 452c c9bc
00000270: fdf0 08bd 1e23 a9bc ee14 f8bc c31b 54bd
00000280: 9f5e d1bd 1034 dcbd 55fd 46bd 50f3 38bd
00000290: b7f6 5fbd b4bd 60bd bcb0 783d 366a 81bc
000002a0: 2664 7fbd 4b9d 9bbd ae39 95bc 73c7 83bd
000002b0: db10 633c 04aa 193d c037 4d3d ed28 883d
000002c0: 5e3b 8f3d 36a5 85bb f5e6 3e3d 1ae3 e83c
000002d0: 0982 c4bb d200 f3bd 281e ebbd a66a 1fbd
000002e0: 3292 b33b accf 913c 77d5 c83d 9bee 623d
000002f0: a15f 68bd 753d 66bd df3e c7b9 bbbb 21bc
00000300: e8d9 303d 762c 27bd 6f06 b2bd c33f 983d
00000310: 8e5e 0f3d 2c88 873c 5f4a 2abd e264 ab3c
00000320: af8d 083d 4628 803b 3df9 e63c 9799 cbbc
00000330: 633f 243d c732 eebb 6b05 fdbc b368 06bd
00000340: e80f 60bd ac63 fe3b 8215 35bd bb63 b33d
00000350: 309f e53c b8a5 83bd 2bd7 23bd 38c6 623d
00000360: b5fa c6bc 2fed ab3d be3c 7ebd 0924 86bd
00000370: b75e e53c 9f63 a3bd d14a fc3c 685b 95bd
00000380: 6770 1abd a308 fcbd 29ab b23d 3921 0cbd
00000390: 335e d4bd fe2a bbbd a20c 4bbd ccad 24bd
000003a0: 55a7 943c 6830 56bd f155 42bd 2cf4 29bd
000003b0: 5929 8dbd 9b49 a33d f77d 2ebc 2123 08bd
000003c0: 1fd9 cb3c f79a 7a3d b8bf ddbc 0e4d f13a
000003d0: edd9 36bc 5a4d d2bd a38e cc3c 0f06 1f3d
000003e0: ff6a 693d 826a 943d dec2 453d 2e66 29bc
000003f0: e011 14bd 37a6 983c 47ce 6fbc 9141 6fbd
0.10013556 -0.017450856 0.05051412 -0.047051415 -0.048227597 0.01617592 -0.02448183 0.05001421
0.030502724 -0.06270618 0.06193711 -0.0037322848 0.025412207 -0.04354546 0.0076424405 0.009092017
0.06267435 -0.00047461165 -0.05428016 -0.016717147 0.0038650744 0.025925195 -0.0030594943 0.033954367
-0.004599641 0.02934409 0.0032179484 0.002673789 0.054424755 0.08309222 -0.010596743 0.017827898
0.018796736 -0.04241439 0.026003433 -0.005415419 -0.032054886 0.034346614 0.045136094 0.03545169
-0.0603758 -0.04437382 -0.0023599914 -0.022903731 0.027747892 0.024379622 -0.02504821 -0.072466105
-0.06547826 0.038892336 -0.09140889 -0.015178883 -0.018767478 -0.02933193 -0.08989433 0.049249664
0.024016328 -0.02900517 0.00175117 -0.020847477 -0.04816508 -0.0043620598 -0.07737626 0.05191605
0.028789258 -0.01593296 0.07259452 -0.011948521 -0.11460575 -0.024254454 0.055685367 -0.073015764
0.0447848 -0.08957699 0.03364143 -0.009387599 -0.034185436 -0.018058883 -0.034931343 -0.0137711065
-0.05294447 -0.008158829 -0.063990414 0.0011562917 0.08470081 0.094738334 0.009910987 0.085961685
-0.0015234275 -0.12805949 -0.09364701 -0.0039777094 -0.091481425 -0.08217902 -0.069057524 -0.063302144
-0.011722687 -0.027347209 -0.014394091 -0.055258512 0.023176469 -0.03730253 0.022408383 0.0920938
-0.06327989 -0.028933765 0.019392047 -0.0130513515 -0.018803796 -0.1393584 -0.12873358 -0.024280481
-0.043454424 0.018481646 0.07973987 -0.031374916 -0.042026598 -0.065139376 -0.053391855 0.08422449
0.092926994 0.067790896 0.023767821 -0.02946612 -0.054875124 0.048144873 0.07331745 0.07599375
-0.008686854 0.08645922 0.058518495 -0.05625691 -0.06991928 -0.015677312 -0.038083766 -0.09572328
-0.04628304 -0.067608155 -0.027553435 -0.064825706 0.01659972 -0.05140673 -0.074575275 -0.05110772
0.021835918 0.048131797 -0.049746916 -0.06456257 -0.0802668 -0.01989267 -0.028610826 0.06016989
-0.075078435 -0.022279613 0.032092147 -0.024557242 -0.03343295 -0.020646628 -0.030283418 -0.05178429
-0.10223126 -0.10752118 -0.04858144 -0.045153916 -0.054678645 -0.054868415 0.060715422 -0.015797716
-0.06235137 -0.07598361 -0.01821598 -0.06434526 0.013858999 0.037515655 0.050101995 0.06648431
0.06993745 -0.0040785326 0.046606977 0.028428603 -0.0059969467 -0.11865391 -0.11480361 -0.038920067
0.0054800743 0.017799221 0.0980634 0.055403333 -0.056731824 -0.056210954 -0.0003800308 -0.009871419
0.04317656 -0.040813886 -0.08692633 0.074340366 0.035002284 0.016544424 -0.041574832 0.020922128
0.033338245 0.003911051 0.028195018 -0.02485351 0.040099513 -0.0072692367 -0.030886373 -0.032814693
-0.05470267 0.0077633467 -0.044209965 0.087592565 0.028030008 -0.06428093 -0.040000122 0.055364817
-0.024289468 0.083948486 -0.062069647 -0.06549842 0.027999265 -0.079779856 0.030797394 -0.07292825
-0.03770485 -0.12306335 0.087240525 -0.03421137 -0.103695296 -0.091390595 -0.049572594 -0.040204808
0.018146196 -0.052292258 -0.04744524 -0.041492626 -0.06892652 0.079730235 -0.01065015 -0.033236627
0.024883805 0.061182942 -0.027068958 0.0018409805 -0.011160356 -0.1026866 0.024970358 0.038824137
0.056986805 0.07246877 0.048281543 -0.010339303 -0.03614986 0.018633945 -0.014636583 -0.05841214

conv2_2.bias f4 [16]
00000000: 33b3 58bc 27a0 83bd c00e 4a3d e077 8f3a
00000010: e90b 65bc 6625 ddbc 94a8 7e3c 2dc5 543d
00000020: 07dd 6fbd 50f9 efbc a59d 873d 15da 3ebc
00000030: 52a3 5abd d89a 373c c771 0f3d 19fa eebc
-0.013226318 -0.06427031 0.049330473 0.001094576 -0.01397989 -0.026995372 0.015543122 0.051945854
-0.058560397 -0.029293686 0.06621865 -0.0116486745 -0.05337841 0.011206351 0.035020616 -0.02917199

bn2_2.weight f4 [16]
00000000: 42c5 853f ce93 803f 9fc5 8d3f 8877 8a3f
00000010: 726f 923f 7323 863f 185b 8c3f 4bdd 763f
00000020: a614 8e3f 45a3 813f d6ea 833f 917b 943f
00000030: 5f0c 823f f4bd 8c3f e57f 813f 9c2f 883f
1.0450823 1.0045106 1.1075934 1.0817728 1.144026 1.0479568 1.09653 0.96431416
1.1100051 1.0127951 1.0306041 1.160021 1.0160025 1.0995469 1.0117155 1.0639529

bn2_2.bias f4 [16]
00000000: a033 843a f6b3 39bd fd9a 513d 6cd7 a4bc
00000010: 4c25 fabc 5849 a5bc a350 213c bd21 60bc
00000020: 9f91 fabc 427c 553c 0077 cd3b 080f 1b3d
00000030: 17a3 1bbd 5dff 04bd dfe1 33bc 9c36 7abc
0.0010086186 -0.04533764 0.0511732 -0.020122252 -0.030535363 -0.020176575 0.009845885 -0.013679919
-0.030587016 0.013030114 0.0062702894 0.03785613 -0.03799733 -0.032470096 -0.010979145 -0.015271809

bn2_2.running_mean f4 [16]
00000000: 8428 e3be b63c f5be c244 053e 08f1 8ebe
00000010: 5a21 a53c cc8f 0d3e ef48 6a3d 3ff0 3ebe
00000020: 618a 01be 9584 6fbe d699 89bd 9c57 43be
00000030: 65a8 b7be b7c0 b7be adc9 403e 6b2b 0cbf
-0.44366848 -0.4789788 0.1301451 -0.27918267 0.020157505 0.13824385 0.05719846 -0.18646334
-0.12650444 -0.2339042 -0.06718795 -0.19076389 -0.35870662 -0.35889217 0.18826933 -0.5475375

bn2_2.running_var f4 [16]
00000000: c767 3f3e 361d 933e 1497 e63d 961f 073e
00000010: b7c0 df3d 55b8 133e 3236 c63d 9544 e23d
00000020: 2be3 d83d 8e31 643e 1e48 f73d 6277 463e
00000030: ea18 0e3e e6bf fa3d 4bcd 083e dc42 2f3e
0.18691932 0.28733224 0.112592846 0.13195643 0.10925429 0.14425786 0.09678306 0.11048237
0.10590204 0.22284529 0.12074302 0.19381478 0.13876691 0.12243633 0.13359563 0.17115349

conv3_1.weight f4 [32, 16, 3, 3]
00000000: 8247 6f3d 4e9f 8b3c 8606 7b3d 282b 84bd
00000010: 052e 963c daf1 dbbc 23cf 853c e773 573d
00000020: 661a 6fbd 032f 513c a862 be3c e3c0 a93d
00000030: a0c7 aeba f603 96bb 93ae 21bc eabb 92bd
00000040: 30f0 19bd 09bd 023d 629b 08bd 5149 4abd
00000050: 00a7 3bbd 8a89 3abd 1db7 35bd 79f5 5d3c
00000060: 4474 3f3d bdec 423b 4930 00bd ebc1 afbd
00000070: 6d78 1bbd e1d9 afbd 7376 44bd 0d33 6e3d
00000080: 3853 50bc 3db6 5cbd 4012 65bd a575 83bd
00000090: 7cb9 d9bd 4379 6e3c f434 b1bb 5593 00bd
000000a0: 7b0f b5bc 3b63 c63c 3ea4 c2bd a9a6 a33a
000000b0: 627c 413d edcc 7b3c fd91 afbd 065a acbd
000000c0: f28d 52bd 0a93 a1bb 4a53 af3c 9911 c6bc
000000d0: 0b99 dc3d 1afd 2e3d fa92 f3bc f712 dfbb
000000e0: 4c6a 83bd bb05 113b 6022 15bd 1133 56bc
000000f0: 3c3e b6bd da3e 22bc 0e0c a5bd c6fa a53d
00000100: 86b2 c73c 8daa 45bc 938e ccbb 06be b13c
00000110: 6ac2 513d 00d1 38bd acde 963b 4433 3d3d
00000120: 0db3 903c 919c 87bd 081a a5bd 7b16 6f3d
00000130: a912 91bc ad71 29bd 13e1 253d 9fa1 c4bd
00000140: 82fc 9abd 96a1 83bc 4740 2c3d 159f bc3c
00000150: ad24 55bc d68d 4f3d 496b a0bb 87cc 8b3d
00000160: 2d84 64bc 5cdf 31bd 77af 0c3d 84e8 59bd
00000170: b091 743d 71c5 843c a2e2 08bd e454 babc
00000180: c5fb 913d 8758 4abd 33a4 863d 4ca6 c8bd
00000190: 705a ccbd 5d88 64bd e667 d23c a3d1 d9ba
000001a0: 8781 a9bd cb97 f93c 18cd 8f3c 7d63 8fbc
000001b0: 92ef 58bd faca c2bd 8eee 443d e90f 563d
000001c0: 9ead e1bb 355a 48bc 52f2 d7bc 8c44 203c
000001d0: 1adc 093d 2f90 5ebc da42 213c 8ff2 033e
000001e0: 55b4 c33d 1be0 d9bb 1dfc 753d f672 273d
000001f0: 4a41 7a3d 0a66 8f3d 311c 11bd 9bfb d1bb
00000200: be64 8f3d e741 cc3d 3f47 f93c ddb2 37bc
00000210: 576f 203d 3437 163d f2f3 7d3c e7c2 ec3b
00000220: 4dc2 5dbd d13e 4b3d b483 c23d 9e88 86bd
00000230: ace0 45bd 5215 9d3b 2f23 75bd e90d f2bd
00000240: 1a45 ad3c b02e 8cbc 76be e9bd e861 9d3c
00000250: ae70 94bc 988f 553c c94f 8ebd 732e a1bc
00000260: 741d 493b ad8e c6bc 7e18 9ebd 4ec4 38bd
00000270: a693 8abc 9d38 0ebd 853e bfbd b49a f1bd
00000280: 4d41 04bd 9f29 dcbd 617d 673d 1806 153c
00000290: 301c 593d 343a 293b 07be 243d ba35 7d3d
000002a0: 1ca7 243c c8a4 5b3d dad7 ca3d 8ad7 b43d
000002b0: d520 cd3d 467f 6ebd 6df7 5ebd 9243 263d
000002c0: 2ff5 15bc 1adc 52bd 8d0f cd3b e3e2 c8bd
000002d0: 3587 303d 2616 193e 4593 d73d f16e 8b3a
000002e0: 2ef7 95b9 333c 743b 3997 7bbc 4989 6a3d
000002f0: 083b 983c 4f2b d6bd 6099 d93c a856 51bd
00000300: d92a bd3c 0811 9fbb 44b3 203d 460a 94bd
00000310: f672 89bd 7cba 91bd 300c bd3d c155 4d3d
00000320: b036 993d d12a 353d fdd4 a13c 9143 3e3d
00000330: 22d1 59bc 3873 09bd 604d 313c 2719 9c3c
00000340: 9a60 62bc 9df1 a4bd a687 3a3d 9d0d 3ebc
00000350: 0784 51bd 6134 1e3d 50ee 6e3a 5626 52bd
00000360: 2459 8cbd 1b45 f7bc ddcc b3bd c623 39bd
00000370: 898e fb3c 0cb2 3fbd 7e4b aabb 8404 b43d
00000380: 886c b93d 602b b8bd a9c3 4c3c e949 cebd
00000390: 25c5 d23c 4d18 a63c 1f15 833c ddfe 263d
000003a0: 04fe 8bbd 356b db3c f457 db3b 2fe6 5abd
000003b0: a4a3 15bc 57fc 1bbc 924c 6ebc 9996 43bd
000003c0: 6edc 883d 9cc7 9f3d 68a8 75bd 2676 7f3d
000003d0: 42de 903b b0fe 3f3d a748 2abc bd7f 303d
000003e0: 1c54 0fbd 5099 c33c 0884 34bc 3472 1e3d
000003f0: 88e0 6e3d 3070 3abd ece8 72bc c83c 2a3d
0.058417805 0.017043736 0.061285518 -0.06453544 0.01833249 -0.026848722 0.016334122 0.052600767
-0.058374785 0.012767556 0.023240402 0.08288743 -0.0013334639 -0.004578109 -0.009868282 -0.07164748
-0.037582576 0.03191856 -0.03335131 -0.049386326 -0.04581356 -0.045541324 -0.044364084 0.013547295
0.04674174 0.0029743158 -0.03129605 -0.08581909 -0.037956644 -0.08586479 -0.047964524 0.058154155
-0.012715153 -0.053884733 -0.055925608 -0.06418923 -0.106310815 0.014555278 -0.005407924 -0.031390507
-0.022102108 0.024217239 -0.09503983 0.0012485582 0.04723776 0.015368682 -0.08572767 -0.08415608
-0.0514049 -0.0049308585 0.02140202 -0.024178313 0.10771378 0.042721845 -0.02973317 -0.0068076807
-0.06416759 0.002212866 -0.036409736 -0.013073699 -0.08898589 -0.00990268 -0.0805894 0.08104472
0.024377119 -0.012064588 -0.006242582 0.021697056 0.0512108 -0.045121193 0.0046041813 0.04619147
0.017663503 -0.066216595 -0.08061606 0.05837105 -0.017709093 -0.041368175 0.04049785 -0.09601139
-0.07567693 -0.016068261 0.042053487 0.023025075 -0.0130092325 0.050672375 -0.004895602 0.0682612
-0.013947529 -0.043425903 0.034347024 -0.05320026 0.05970925 0.016207429 -0.03341926 -0.022745557
0.07128099 -0.049400833 0.06574287 -0.097973436 -0.09978187 -0.05579411 0.025684308 -0.0016618263
-0.082766585 0.030467888 0.017553851 -0.017503494 -0.052962847 -0.09511371 0.048079066 0.052261267
-0.006887152 -0.012228538 -0.026360665 0.009781968 0.03365717 -0.013584181 0.009842599 0.12885498
0.0955588 -0.00664903 0.060054887 0.04088112 0.06109742 0.07001884 -0.035427276 -0.0064081675
0.07001637 0.099735074 0.03042948 -0.011212078 0.039168682 0.03667374 0.015500056 0.0072253826
-0.054140378 0.049620453 0.09497777 -0.065690264 -0.048309967 0.0047938013 -0.059848007 -0.118190594
0.021151114 -0.017112106 -0.11413281 0.019211724 -0.018120136 0.013034724 -0.069488116 -0.019675469
0.0030687721 -0.024237955 -0.07719515 -0.045109086 -0.016916107 -0.03472196 -0.093380965 -0.117970854
-0.03228884 -0.10750126 0.056516055 0.009095691 0.053005397 0.0025822045 0.040220287 0.061818816
0.010049608 0.053623945 0.09904452 0.08830173 0.10016028 -0.058226846 -0.054435182 0.040591784
-0.009152695 -0.051479436 0.0062579573 -0.098089 0.043097693 0.14949855 0.10526136 0.0010637922
-0.00028603658 0.0037267327 -0.0153558785 0.05725983 0.018582836 -0.10457479 0.026562393 -0.051108032
0.02309172 -0.004854325 0.03923346 -0.07228522 -0.0671138 -0.07115647 0.0923084 0.05013061
0.07481134 0.044230286 0.019754881 0.046451155 -0.01329449 -0.033557147 0.01082167 0.019054962
-0.013816977 -0.080538966 0.04553952 -0.011599925 -0.0511513 0.03862417 0.0009114491 -0.05130609
-0.0685294 -0.03018432 -0.08779309 -0.04520013 0.030707614 -0.046800658 -0.0051969877 0.08789924
0.09053904 -0.08992648 0.012497821 -0.10072691 0.025728771 0.02027526 0.016001282 0.0407704
-0.06835559 0.026784519 0.0066938344 -0.053442176 -0.009133253 -0.009520612 -0.014544623 -0.047751043
0.066826686 0.07801744 -0.059975058 0.062368535 0.0044210264 0.04687375 -0.010393298 0.04309057
-0.034992322 0.023876816 -0.011017807 0.03868313 0.0583196 -0.045517147 -0.014826041 0.04156187

conv3_1.bias f4 [32]
00000000: d725 7dbd 354c 90bd 5a3a 08bd 85e3 443d
00000010: 0c57 28bd 339a d7bc 7bf5 d13c c45d 93bd
00000020: 7b96 98bd 7128 4d3c e2a5 7b3c 6022 7e3d
00000030: dda8 823d 060b 8abc 9c42 94bc 9427 4e3b
00000040: 4005 30bd 50ca 093d 5639 78bd 215b 893d
00000050: e636 74bd 49e0 3f3c 0579 a3bd 0515 2a3d
00000060: 56b8 9c3d 9aee 1b3d 40dc 7c3d b09c 7c3d
00000070: 3af1 4b3a d68e 563d 940c 093d 0b3f 623d
-0.061803665 -0.07045785 -0.033258773 0.048068542 -0.04109864 -0.026318645 0.02562975 -0.07195619
-0.07450577 0.012521849 0.015359374 0.0620445 0.06379864 -0.01685096 -0.018098168 0.0031456696
-0.042973757 0.033640206 -0.060601555 0.067068346 -0.059622668 0.011711189 -0.07982067 0.041523952
0.07652347 0.038069345 0.061733484 0.061672866 0.0007779781 0.052382313 0.03345926 0.055235904

bn3_1.weight f4 [32]
00000000: fbc4 823f 4d18 8a3f 5a02 803f e1db 8b3f
00000010: a43a 7d3f b666 7e3f 7571 813f 0153 7f3f
00000020: 39a1 823f 6666 813f 997e 903f 37e2 8d3f
00000030: 0849 8d3f 0d3d 8b3f bc0d 8c3f 463c 883f
00000040: eb1b 883f 5aa3 823f d04d 813f 091a 7f3f
00000050: 84d6 7c3f c40a 833f 471f 8f3f 4603 8c3f
00000060: e4ea 963f 5aee 823f 8ba7 923f a8f4 833f
00000070: 07a1 7f3f 1dba 863f 3466 7e3f 3b7a 8b3f
1.0216364 1.0788666 1.0000718 1.0926477 0.98917603 0.99375474 1.0112749 0.9973603
1.0205451 1.0109375 1.1288635 1.108466 1.1037912 1.0878006 1.0941691 1.0643394
1.063352 1.0206101 1.0101871 0.996491 0.98764825 1.023766 1.118142 1.0938499
1.1790433 1.0228989 1.145738 1.0309038 0.99855083 1.0525547 0.993747 1.0896677

bn3_1.bias f4 [32]
00000000: 3682 83bc c41b ac3d f3d0 04bd 6289 163b
00000010: bcb1 adbd d449 7abd f753 c9bc 0510 b4bd
00000020: 45ac 93bc 81c1 65bc ab74 e13c d38a 0ebc
00000030: d6b7 be3d fd17 ae3d cfcc 613b 52c9 aa3c
00000040: 8754 233d 878e 38bd ec83 d4bc 5e29 48bd
00000050: 88fa 02bd 6196 d6bb 2fbd 89bd 968c 313d
00000060: 9626 9e3d c325 33bd a18e 973d 6ea7 5e3c
00000070: 23b5 e2bc 7916 81bd bf2b 85bd 934f 493d
-0.0160533 0.084037334 -0.032425832 0.002297007 -0.08481166 -0.061105564 -0.02457617 -0.08792118
-0.01802648 -0.014023186 0.027521452 -0.00870009 0.09312408 0.08500669 0.003445435 0.02084795
0.039875533 -0.0450578 -0.025941812 -0.048867576 -0.031977206 -0.0065486883 -0.06725537 0.043346964
0.077222034 -0.043737184 0.07400251 0.013589723 -0.027674263 -0.063031144 -0.065024845 0.049148154

bn3_1.running_mean f4 [32]
00000000: f321 25bf ea7f a1be 96a9 f3be 2875 cabe
00000010: f7aa 7fbe 5f34 b2bb 5e44 09bd fcf7 a3be
00000020: f2af 2abf 5eaa 96be 9f87 233e 2979 0a3d
00000030: b9b2 583f e06b 8f3d 6a2b ccbd 7f5a 5fbe
00000040: a13e 693e b273 73bd 526f 8dbf d84f bdbd
00000050: b831 a9bf 6bc9 12bf cb54 10bd 18d0 193f
00000060: fac0 983e 5e20 d63e 3d39 a63e 285d 5ebe
00000070: 0fca fdbe cec7 603e 5522 77bf 1af8 3dbe
-0.6450493 -0.31542903 -0.4759032 -0.39542508 -0.24967562 -0.005438372 -0.033512466 -0.32025135
-0.6667472 -0.29426855 0.15969704 0.033806954 0.8464771 0.070029974 -0.09969218 -0.21811865
0.22777797 -0.059436508 -1.1049597 -0.092437446 -1.3218298 -0.5733859 -0.035237115 0.6008315
0.2983473 0.4182157 0.32465544 -0.21715224 -0.4956822 0.2195122 -0.9653676 -0.18551674

bn3_1.running_var f4 [32]
00000000: c213 103f a31e ec3e da2b 323f d934 ce3e
00000010: 3373 953e ee53 cd3e 85cc bc3e 49e2 d93e
00000020: 13cc 253f e29b f43e 76fd 893e ac15 b53e
00000030: bf0c 2f3f 5e55 8f3e 31cb 203f fd62 ec3e
00000040: ddcb 3a3f 70ea 013f 702f e63e d6b3 0d3f
00000050: 81c3 b03f d7ae 0e3f d073 a93e 7485 213f
00000060: b1ce 953e b179 d83e eac9 b33e 4630 f23e
00000070: 6323 c63e ff4e ce3e d05c 2b3f e6a5 c03e
0.5628015 0.46117124 0.6959816 0.40274695 0.29189453 0.40103096 0.36874786 0.42555454
0.6476452 0.4777518 0.26951188 0.35368097 0.68378824 0.27994817 0.62810045 0.46169272
0.7296732 0.5074835 0.44958067 0.5535253 1.3809663 0.55735534 0.3309617 0.6309426
0.29259256 0.42280343 0.35114986 0.47302455 0.38698873 0.40294644 0.66938496 0.3762657

conv3_2.weight f4 [32, 32, 3, 3]
00000000: 49c9 cdbb 43e1 973c 4f43 c7bc 6fba 2b3d
00000010: 2dea c33b 62de 45bd 863a ebbc 7d37 883c
00000020: 9ad1 423d 8953 013d 2b06 4a3d c33d 97bd
00000030: 18bc f53c 3de0 a43c 515f c23c dcf7 2f3c
00000040: 30f2 453d d03e febc 6748 083d 4ff5 1c3d
00000050: 2d83 c03c 230b 7dbd 746d 3dbb 8caf ff3c
00000060: c130 adbc 0346 17bd f5eb 343c 4a32 f4bc
00000070: 65f8 d2bc 35aa b5bd aee8 20bd 49b2 a53c
00000080: af47 b0bc 970d 36bd 3144 b93c fe06 1dbd
00000090: dd13 1abd cd28 593a 2482 84bd 2938 cfbc
000000a0: d9f6 0d3d 5017 5ebd 7c74 8fbb 034d 27bc
000000b0: 041f c3bd 7182 44bd 1017 2fbd 7f57 31bd
000000c0: 27fc 73bd 359a 3abd 9866 36bd 6d3b 99bd
000000d0: 70e5 7dbc 1eec adbd 7131 3b3d eeaf eebc
000000e0: a0d9 a93d 376e f3bb 69a1 68bc e01b 8d3b
000000f0: cee5 013d c376 653d e55a 623d 533d 7dbd
00000100: 9caa b7bc 1e9a 85bd 4074 aabc 4191 c83c
00000110: dc28 95bd 9d19 98bc a0f2 d8bc 1962 97bd
00000120: 3192 863d 4870 8cbc 65ef 12bd eb78 c63b
00000130: 75fd b63c a8b4 1abd e05e ef3a a6f8 4bbd
00000140: 47c8 413c 0e50 09bc 018c c7bc 3c19 133d
00000150: 7b37 59bd a4e8 a3ba 6caf b5bc 7fe3 233d
00000160: def7 80bb 1f68 54bb 0d47 01be e091 62bc
00000170: 0a3f b0bd 79af 433b 2606 153d 4780 603c
00000180: 2de5 57bd 7687 86bc 271a c63c 0715 6ebd
00000190: f6d7 13bd 439e 9dbd 4fec 99bc 14d0 24bc
000001a0: e099 b33b 5efd 30bd 89ba 86bc 26a9 66bd
000001b0: 1488 48bd fd48 65bd cad9 2dbc 7ab8 313c
000001c0: 8ddf 8cbb cfbe e93c 8978 fa3c 3658 5f3c
000001d0: e257 4bbd eeac a4bd 4b29 df3c 50db 083d
000001e0: f6ba e2bc b4a6 da3c e1ef 443d 88ec 48bd
000001f0: 8d68 163c 18e0 f93a 14fd b8bd e5aa c3bc
00000200: 07c2 70bd 1c1a 393c 4684 1d3c dd2b 1dbd
00000210: ac7e f8bc 9fd7 c93b af45 debd 4963 263d
00000220: 0b42 943d 86d1 3e3d f772 abbb 0248 ddbb
00000230: 35e1 1f3b 8a4a a63c ccbb fb3c ef80 15bd
00000240: 1d4d d1bc 8d56 91bc 5ffa 0f3d 5f91 533c
00000250: 24ca 9b3c d72f 6c3d 37a7 b13d 2cb2 b23c
00000260: 1fa3 b83d d85b 903c edba b93c 2a95 4a3d
00000270: 44d2 50bd 064e 423c ed7f a1bc d569 693d
00000280: 70a4 afbc 5541 9b3d 65dc 30bc 064f 613a
00000290: 2f03 72bc 2cbf 91bc f124 b23c c050 a93c
000002a0: 502e a83c eb36 2dbc efdd cd3c d09d 81bc
000002b0: c2bb c53c 73ae 133d 8abd bfbc 7070 22bc
000002c0: a2ef 383d 8fb8 17bd a7b9 503c 87d2 deba
000002d0: 3090 53bd bd70 53bc 043f 86bc 25f2 18bd
000002e0: 1136 46bc fb32 24bd a289 52bd 2cb0 86bd
000002f0: a2cd e7bc 37a3 2a3c 1f0b 2abc 344b a13c
00000300: 045e be3c 6d75 d03c 08fa 013d 8191 103d
00000310: 8ed4 32bd 55da afbc 93ef acbd a168 35bd
00000320: 6d17 9dbd a2a1 abbd 75fc c73c 6912 3cbd
00000330: a106 d1bd 2235 25bd e0b3 28bd 9da7 0b3d
00000340: d795 2e3c 7d09 aa3d 0354 c73c fe2c e83c
00000350: a6df 6e3d 7950 2c3c f0f5 c93c 8c4b 263d
00000360: 3d32 213d 6a07 b23b 619f a4bc f415 6a3c
00000370: 0666 1e39 5c94 b83c 5a04 c4bd c20e 48bb
00000380: ed13 c5bd 9f53 883d 8333 513d 68b9 543d
00000390: bb62 67bc 31ef 2dbd 4847 00bb e409 bc3d
000003a0: 344e 90ba e4f4 403d 373e 85bd d829 b63b
000003b0: 26e6 9ebd 3634 eebc 6f2f 75bc f47d 063d
000003c0: e037 ddbd 0c97 a83b a4d9 3bbd 28ad 64bd
000003d0: 5220 8c3c d8df 2bbd 5e65 d53a d353 57bd
000003e0: 10d8 b8bc 5e61 ae3c 51eb 58bc 1926 e93c
000003f0: 495c bbbc 0c39 e03c b6eb 0bbd 9b2a ea3c
-0.0062800986 0.01854003 -0.024324087 0.041925844 0.0059788437 -0.048307784 -0.02871443 0.016628021
0.047563173 0.031573806 0.04932229 -0.07384827 0.029996917 0.020126456 0.023727091 0.010740247
0.04832667 -0.03103581 0.033272173 0.038319882 0.02350005 -0.0617782 -0.002890435 0.031211637
-0.021141412 -0.036932003 0.011042585 -0.029809136 -0.02575321 -0.08870355 -0.0392844 0.020226615
-0.021518556 -0.044446554 0.022615524 -0.038336746 -0.0376166 0.0008283973 -0.06470135 -0.025295334
0.03465924 -0.05422145 -0.0043778997 -0.010211232 -0.095274 -0.04797596 -0.042746603 -0.043296333
-0.059566643 -0.04555722 -0.044531435 -0.07482038 -0.015496597 -0.084923014 0.045701448 -0.029136624
0.08293462 -0.00742891 -0.014198639 0.0043063015 0.0317133 0.056021463 0.055262465 -0.06182606
-0.02242022 -0.06523536 -0.020807385 0.024483325 -0.07283184 -0.0185669 -0.02648288 -0.073917575
0.065708525 -0.017143384 -0.035872836 0.006056895 0.022337655 -0.037769943 0.0018262528 -0.049797677
0.011827535 -0.008380903 -0.024358751 0.035912737 -0.053031426 -0.0012505245 -0.022178374 0.04001188
-0.003935798 -0.0032410694 -0.1262476 -0.013828725 -0.08605774 0.0029859229 0.036382817 0.013702459
-0.052708793 -0.016422015 0.024182392 -0.058125522 -0.03609463 -0.07696202 -0.018789439 -0.010059375
0.00548099 -0.04321038 -0.016446369 -0.056313656 -0.0489579 -0.05597781 -0.010611007 0.010847205
-0.0042991103 0.028533367 0.030575054 0.013631871 -0.04964436 -0.08040796 0.02724137 0.033412278
-0.02767704 0.026690818 0.04808033 -0.0490537 0.0091802 0.0019063978 -0.09032646 -0.0238852
-0.05877879 0.011297729 0.009614056 -0.03837191 -0.03033384 0.0061597372 -0.10853135 0.04062203
0.07239159 0.046586536 -0.0052322107 -0.0067529688 0.0024395708 0.020299215 0.030729197 -0.036499914
-0.025549466 -0.017741466 0.03515088 0.012913077 0.019017287 0.05766281 0.08674472 0.021813475
0.09015488 0.01762192 0.022672141 0.04945866 -0.050981775 0.011859423 -0.01971432 0.056985695
-0.021440715 0.075808205 -0.010794734 0.0008594844 -0.014771267 -0.017791353 0.02174613 0.020668387
0.020529896 -0.0105721755 0.02513024 -0.015822321 0.024137381 0.03605504 -0.023405809 -0.0099145025
0.045150407 -0.037041243 0.0127395755 -0.0016999998 -0.05165118 -0.012905297 -0.01638747 -0.037340302
-0.012097851 -0.04008768 -0.051400788 -0.06576571 -0.028296296 0.01041489 -0.010378628 0.01968918
0.02323819 0.025446618 0.03173259 0.035295013 -0.04365974 -0.021466414 -0.08444133 -0.044289235
-0.07670484 -0.083804384 0.024412373 -0.045915995 -0.102063425 -0.040333875 -0.041187167 0.034095395
0.010655842 0.08302591 0.024332052 0.028341766 0.058318757 0.010517233 0.024653405 0.04059939
0.03935455 0.0054330127 -0.020095529 0.014287461 0.00015106061 0.02253168 -0.095711425 -0.0030526374
-0.09622941 0.066565745 0.051074516 0.05193463 -0.01412266 -0.04246444 -0.0019573737 0.09181574
-0.0011009634 0.047108546 -0.06506007 0.0055591874 -0.07758741 -0.02907763 -0.014964922 0.032834962
-0.10801673 0.0051449593 -0.045861855 -0.055829197 0.017105255 -0.04196152 0.001628082 -0.052570175
-0.022563964 0.021286663 -0.013239698 0.02846055 -0.022871153 0.027370952 -0.03416034 0.028584769

conv3_2.bias f4 [32]
00000000: 5f7b 54bd 0000 f6bb c664 3e3d c5de fc3b
00000010: 322a 4bbc 0d3c 97bb 734d c0bc 4ac8 293d
00000020: 6970 9d3b 17b4 52bd 080a 68bd a1c6 223c
00000030: c70d ba3c 16bd 093d 1ee2 083d 6920 2c3d
00000040: 5a31 bebc db8b 343d 8955 7d3c e9e5 013c
00000050: 3592 233b 0f7a 4ebd 4719 443d 5508 6abb
00000060: 7066 c23c d6e8 cf3c 9563 263c 790a 0f3c
00000070: b43a 44bd 24ef 213d caa5 5a3d e097 39bb
-0.05187547 -0.007507324 0.046482824 0.007716986 -0.012400197 -0.004615313 -0.02347443 0.041450776
0.00480466 -0.05144128 -0.05665019 0.009935052 0.022711648 0.033627592 0.033418767 0.042023096
-0.023216892 0.04407869 0.015462288 0.00792835 0.0024958972 -0.050409373 0.04787567 -0.0035710533
0.023730487 0.02537958 0.010155578 0.008730524 -0.047907546 0.039534703 0.053380765 -0.0028319284

bn3_2.weight f4 [32]
00000000: 6c90 9a3f ac5b a03f 0486 a03f 9659 9f3f
00000010: d61c 9d3f 002c b33f 9caf a13f fd3a 993f
00000020: 269c 9f3f 8380 9f3f 8212 9b3f 6487 a23f
00000030: d423 a43f f956 a13f a8f5 993f 34d2 9b3f
00000040: 8a2e 993f 8468 a83f d3e4 9d3f bb1e b23f
00000050: 9fe8 9a3f b895 aa3f 8671 9c3f a92c 9d3f
00000060: be34 9d3f 38d9 a23f f1ed 993f d6d2 9d3f
00000070: 613f ac3f c606 8d3f cd45 ab3f 12fb af3f
1.2075324 1.2527976 1.2540898 1.2449214 1.2274425 1.3997803 1.2631717 1.1971127
1.2469528 1.2461094 1.2115023 1.2697568 1.2823434 1.2604667 1.2028093 1.2173524
1.1967328 1.3156896 1.2335457 1.3915628 1.210224 1.332694 1.2222145 1.2279254
1.2281721 1.272254 1.2025739 1.2329967 1.3456842 1.1017692 1.3380677 1.3748496

bn3_2.bias f4 [32]
00000000: 6108 1a3e 109c 3d3e 0f85 0b3e 83a6 203e
00000010: 9ac0 fd3d 9464 4b3e c41c 0e3e b8c6 f43d
00000020: 2c78 f23d 12de 1c3e 6963 153e 5519 1c3e
00000030: 64c0 4b3e f81f 343e d0af 103e 3359 2b3e
00000040: 67d1 1c3e aab1 1a3e 8ddd 033e a217 413e
00000050: d571 1d3e 343d 3b3e 93b4 1a3e 8248 213e
00000060: f11e 263e 6bcc 133e 5e91 1b3e ca0c 093e
00000070: ae29 1c3e fc6b 5d3d 5591 2b3e d5a4 543e
0.15042259 0.18516564 0.13624977 0.15688519 0.123902515 0.19862586 0.1387816 0.11951965
0.11839327 0.15319088 0.14588703 0.15244038 0.1989761 0.1759032 0.14129567 0.16733246
0.15314256 0.15106836 0.12877484 0.18856671 0.15375455 0.18285066 0.15107946 0.15750316
0.1622274 0.14433448 0.15192172 0.13383785 0.15250275 0.05405806 0.16754659 0.20766003

bn3_2.running_mean f4 [32]
00000000: f6db 28bf 70e7 14be 8dc0 0fbf f746 80bc
00000010: 60ff 11bf ac58 14bf b8cb 07bf 6ec0 c3be
00000020: 60fd 10bf f2ee 02bf c789 edbd c405 05bb
00000030: c247 2fbc 735c fabc 41d3 493c 6ad2 f1bd
00000040: 185b 31be ea28 08bf a56e 0cbf ce75 1cbf
00000050: 8c1b f8be fd8a 18bf 03de 7bbd 4533 eabc
00000060: f795 f3bd 3e7e 02bf 21aa debd be85 18bf
00000070: 116e 24bf 0c9b 34be f6fb 09bf 4b45 0bbc
-0.65960634 -0.14541411 -0.56153184 -0.015658839 -0.57030296 -0.579478 -0.53045225 -0.3823275
-0.5663662 -0.5114585 -0.115985446 -0.0020297626 -0.010698261 -0.030561661 0.012318433 -0.118077114
-0.17319906 -0.5318743 -0.5485633 -0.61117256 -0.48458517 -0.5958708 -0.061491024 -0.0285889
-0.11893838 -0.5097388 -0.10872293 -0.59579074 -0.6423045 -0.1763727 -0.53900087 -0.008500407

bn3_2.running_var f4 [32]
00000000: 6d4e a03e 11ee 613e 4871 9a3e c172 243e
00000010: 7c16 a73e 7f50 ac3e c68d 5f3e 74a4 813e
00000020: be00 993e 8cd1 803e 9b3d 503e 6c86 533e
00000030: 316b 263e c817 423e b59d 203e d3c2 373e
00000040: d8c4 1f3e bcb1 943e 1ab9 703e 01a4 903e
00000050: 4581 873e 7ca1 8c3e 64d0 403e 93c2 593e
00000060: 93b6 4a3e 438f 863e 5901 fd3d c18b 873e
00000070: 941e 923e 13e6 8f3e 43d5 b13e c358 4f3e
0.31309834 0.22063471 0.30164552 0.160594 0.32634342 0.33655164 0.21831426 0.2532078
0.2988338 0.25159872 0.20336 0.20656747 0.16251828 0.18954384 0.1568516 0.17945413
0.15602434 0.2904185 0.2350811 0.28250125 0.26465812 0.27466953 0.18829495 0.2126563
0.19796209 0.26281175 0.12353773 0.2647381 0.28538954 0.2810522 0.34733018 0.20248704

pointwise_conv.weight f4 [1, 56, 1, 1]
00000000: 3dbf 8e3d cbbc 8c3d 4b90 0e3d f52a 3ebd
00000010: 64fc b0bc b65f 813b 4a69 483d 0bf2 cd3d
00000020: 133e ffbd bb76 81bc dcbc fd3d f703 2d3b
00000030: 0c19 e63d 8ef0 1dbd bb9b 1d3e c7da 2b3d
00000040: 25eb cc3d dfb6 d53d 0ffe c3bd cd8c 603d
00000050: 4d91 9ebd 4590 0b3d 1054 b73c cf10 b2bd
00000060: 8ff0 76be ad5d 593e 3b7a 24be e31c 443e
00000070: 8961 82bd 6ccf 14be cd09 5ebe a2f6 2ebe
00000080: a21b 86be 8f34 5abe 49c8 833e 65c9 913e
00000090: 1e8a 583e ef9e 523e 7895 753e dc7c 7c3e
000000a0: c710 863e 46e9 62be 4480 60be 6e47 24be
000000b0: 0b82 3abe 4765 7ebe c349 513e 9862 8f3e
000000c0: 1a0b 953e 71d1 58be 4886 843e 7726 52be
000000d0: f2da 51be ed7b 5c3d 097f 1fbe d3b5 593e
0.069700696 0.06871947 0.034805577 -0.046427686 -0.021604724 0.003948177 0.048928536 0.10055932
-0.124630116 -0.015803685 0.12389538 0.0026400068 0.11235246 -0.03855949 0.15391438 0.04195669
0.10005788 0.104352705 -0.09569942 0.054821778 -0.07742558 0.034073133 0.022378951 -0.08694612
-0.24115203 0.2122714 -0.16062252 0.19151644 -0.063662596 -0.1453225 -0.21683426 -0.1708627
-0.26192957 -0.21309112 0.25738743 0.28473964 0.21146438 0.20568441 0.23982799 0.24657005
0.26184675 -0.22159299 -0.2192393 -0.16042873 -0.1821367 -0.24843322 0.20438294 0.2800491
0.29110032 -0.21173646 0.25883698 -0.20522486 -0.20493677 0.053829122 -0.15575804 0.21260767
